module {
  func.func @main() -> tensor<32000x288xf32> {
    %cst = stablehlo.constant dense<0.000000e+00> : tensor<32000x288xf32>
    return %cst : tensor<32000x288xf32>
  }
}

module {
  func.func @main() -> tensor<768xf32> {
    %cst = stablehlo.constant dense<1.000000e+00> : tensor<768xf32>
    return %cst : tensor<768xf32>
  }
}

module {
  func.func @main() -> tensor<2xf32> {
    %cst = stablehlo.constant dense<6.92820311> : tensor<2xf32>
    return %cst : tensor<2xf32>
  }
}

module {
  func.func @main() -> tensor<f32> {
    %cst = stablehlo.constant dense<0.000000e+00> : tensor<f32>
    return %cst : tensor<f32>
  }
}

module {
  func.func @main() -> tensor<f32> {
    %cst = stablehlo.constant dense<0xFF800000> : tensor<f32>
    return %cst : tensor<f32>
  }
}

module {
  func.func @main() -> tensor<f32> {
    %cst = stablehlo.constant dense<9.99999974E-6> : tensor<f32>
    return %cst : tensor<f32>
  }
}

module {
  func.func @main() -> tensor<f32> {
    %cst = stablehlo.constant dense<2.880000e+02> : tensor<f32>
    return %cst : tensor<f32>
  }
}

module {
  func.func @main() -> tensor<f32> {
    %cst = stablehlo.constant dense<5.000000e-01> : tensor<f32>
    return %cst : tensor<f32>
  }
}

module {
  func.func @main() -> tensor<f32> {
    %cst = stablehlo.constant dense<1.000000e+00> : tensor<f32>
    return %cst : tensor<f32>
  }
}

module {
  func.func @main() -> tensor<144x2x2xf32> {
    %cst = stablehlo.constant dense<"…"> : tensor<144x2x2xf32>
    return %cst : tensor<144x2x2xf32>
  }
}

module {
  func.func @main() -> tensor<1x288xf32> {
    %cst = stablehlo.constant dense<0.000000e+00> : tensor<6x288xf32>
    %0 = stablehlo.slice %cst [0:1, 0:288] : (tensor<6x288xf32>) -> tensor<1x288xf32>
    return %0 : tensor<1x288xf32>
  }
}

module {
  func.func @main() -> tensor<288xf32> {
    %cst = stablehlo.constant dense<0.000000e+00> : tensor<1x288xf32>
    %0 = stablehlo.reshape %cst : (tensor<1x288xf32>) -> tensor<288xf32>
    return %0 : tensor<288xf32>
  }
}

module {
  func.func @main() -> tensor<f32> {
    %cst = stablehlo.constant dense<0.000000e+00> : tensor<288xf32>
    %cst_0 = stablehlo.constant dense<0.000000e+00> : tensor<288xf32>
    %0 = stablehlo.dot_general %cst, %cst_0, contracting_dims = [0] x [0], precision = [DEFAULT, DEFAULT] : (tensor<288xf32>, tensor<288xf32>) -> tensor<f32>
    return %0 : tensor<f32>
  }
}

module {
  func.func @main() -> tensor<f32> {
    %cst = stablehlo.constant dense<0.000000e+00> : tensor<f32>
    %cst_0 = stablehlo.constant dense<0.000000e+00> : tensor<f32>
    %0 = stablehlo.divide %cst, %cst_0 : tensor<f32>
    return %0 : tensor<f32>
  }
}

module {
  func.func @main() -> tensor<f32> {
    %cst = stablehlo.constant dense<0.000000e+00> : tensor<f32>
    %cst_0 = stablehlo.constant dense<0.000000e+00> : tensor<f32>
    %0 = stablehlo.add %cst, %cst_0 : tensor<f32>
    return %0 : tensor<f32>
  }
}

module {
  func.func @main() -> tensor<f32> {
    %cst = stablehlo.constant dense<0.000000e+00> : tensor<f32>
    %0 = stablehlo.sqrt %cst : tensor<f32>
    return %0 : tensor<f32>
  }
}

module {
  func.func @main() -> tensor<f32> {
    %cst = stablehlo.constant dense<0.000000e+00> : tensor<f32>
    %cst_0 = stablehlo.constant dense<0.000000e+00> : tensor<f32>
    %0 = stablehlo.divide %cst, %cst_0 : tensor<f32>
    return %0 : tensor<f32>
  }
}

module {
  func.func @main() -> tensor<f32> {
    %cst = stablehlo.constant dense<0.000000e+00> : tensor<f32>
    %cst_0 = stablehlo.constant dense<0.000000e+00> : tensor<f32>
    %0 = stablehlo.divide %cst, %cst_0 : tensor<f32>
    return %0 : tensor<f32>
  }
}

module {
  func.func @main() -> tensor<f32> {
    %cst = stablehlo.constant dense<0.000000e+00> : tensor<f32>
    %cst_0 = stablehlo.constant dense<0.000000e+00> : tensor<f32>
    %0 = stablehlo.multiply %cst, %cst_0 : tensor<f32>
    return %0 : tensor<f32>
  }
}

module {
  func.func @main() -> tensor<f32> {
    %cst = stablehlo.constant dense<0.000000e+00> : tensor<f32>
    %cst_0 = stablehlo.constant dense<0.000000e+00> : tensor<f32>
    %0 = stablehlo.divide %cst, %cst_0 : tensor<f32>
    return %0 : tensor<f32>
  }
}

module {
  func.func @main() -> tensor<288xf32> {
    %cst = stablehlo.constant dense<0.000000e+00> : tensor<288xf32>
    %cst_0 = stablehlo.constant dense<0.000000e+00> : tensor<288xf32>
    %0 = stablehlo.multiply %cst, %cst_0 : tensor<288xf32>
    return %0 : tensor<288xf32>
  }
}

module {
  func.func @main() -> tensor<288xf32> {
    %cst = stablehlo.constant dense<0.000000e+00> : tensor<f32>
    %0 = stablehlo.broadcast_in_dim %cst, dims = [] : (tensor<f32>) -> tensor<288xf32>
    return %0 : tensor<288xf32>
  }
}

module {
  func.func @main() -> tensor<288xf32> {
    %cst = stablehlo.constant dense<0.000000e+00> : tensor<288xf32>
    %cst_0 = stablehlo.constant dense<0.000000e+00> : tensor<288xf32>
    %0 = stablehlo.multiply %cst, %cst_0 : tensor<288xf32>
    return %0 : tensor<288xf32>
  }
}

module {
  func.func @main() -> tensor<1x288x288xf32> {
    %cst = stablehlo.constant dense<0.000000e+00> : tensor<6x288x288xf32>
    %0 = stablehlo.slice %cst [0:1, 0:288, 0:288] : (tensor<6x288x288xf32>) -> tensor<1x288x288xf32>
    return %0 : tensor<1x288x288xf32>
  }
}

module {
  func.func @main() -> tensor<288x288xf32> {
    %cst = stablehlo.constant dense<0.000000e+00> : tensor<1x288x288xf32>
    %0 = stablehlo.reshape %cst : (tensor<1x288x288xf32>) -> tensor<288x288xf32>
    return %0 : tensor<288x288xf32>
  }
}

module {
  func.func @main() -> tensor<288xf32> {
    %cst = stablehlo.constant dense<0.000000e+00> : tensor<288x288xf32>
    %cst_0 = stablehlo.constant dense<0.000000e+00> : tensor<288xf32>
    %0 = stablehlo.dot_general %cst, %cst_0, contracting_dims = [1] x [0], precision = [DEFAULT, DEFAULT] : (tensor<288x288xf32>, tensor<288xf32>) -> tensor<288xf32>
    return %0 : tensor<288xf32>
  }
}

module {
  func.func @main() -> tensor<1x288x288xf32> {
    %cst = stablehlo.constant dense<0.000000e+00> : tensor<6x288x288xf32>
    %0 = stablehlo.slice %cst [0:1, 0:288, 0:288] : (tensor<6x288x288xf32>) -> tensor<1x288x288xf32>
    return %0 : tensor<1x288x288xf32>
  }
}

module {
  func.func @main() -> tensor<288x288xf32> {
    %cst = stablehlo.constant dense<0.000000e+00> : tensor<1x288x288xf32>
    %0 = stablehlo.reshape %cst : (tensor<1x288x288xf32>) -> tensor<288x288xf32>
    return %0 : tensor<288x288xf32>
  }
}

module {
  func.func @main() -> tensor<288xf32> {
    %cst = stablehlo.constant dense<0.000000e+00> : tensor<288x288xf32>
    %cst_0 = stablehlo.constant dense<0.000000e+00> : tensor<288xf32>
    %0 = stablehlo.dot_general %cst, %cst_0, contracting_dims = [1] x [0], precision = [DEFAULT, DEFAULT] : (tensor<288x288xf32>, tensor<288xf32>) -> tensor<288xf32>
    return %0 : tensor<288xf32>
  }
}

module {
  func.func @main() -> tensor<1x288x288xf32> {
    %cst = stablehlo.constant dense<0.000000e+00> : tensor<6x288x288xf32>
    %0 = stablehlo.slice %cst [0:1, 0:288, 0:288] : (tensor<6x288x288xf32>) -> tensor<1x288x288xf32>
    return %0 : tensor<1x288x288xf32>
  }
}

module {
  func.func @main() -> tensor<288x288xf32> {
    %cst = stablehlo.constant dense<0.000000e+00> : tensor<1x288x288xf32>
    %0 = stablehlo.reshape %cst : (tensor<1x288x288xf32>) -> tensor<288x288xf32>
    return %0 : tensor<288x288xf32>
  }
}

module {
  func.func @main() -> tensor<288xf32> {
    %cst = stablehlo.constant dense<0.000000e+00> : tensor<288x288xf32>
    %cst_0 = stablehlo.constant dense<0.000000e+00> : tensor<288xf32>
    %0 = stablehlo.dot_general %cst, %cst_0, contracting_dims = [1] x [0], precision = [DEFAULT, DEFAULT] : (tensor<288x288xf32>, tensor<288xf32>) -> tensor<288xf32>
    return %0 : tensor<288xf32>
  }
}

module {
  func.func @main() -> tensor<144x2xf32> {
    %cst = stablehlo.constant dense<0.000000e+00> : tensor<288xf32>
    %0 = stablehlo.reshape %cst : (tensor<288xf32>) -> tensor<144x2xf32>
    return %0 : tensor<144x2xf32>
  }
}

module {
  func.func @main() -> tensor<144x2xf32> {
    %cst = stablehlo.constant dense<0.000000e+00> : tensor<288xf32>
    %0 = stablehlo.reshape %cst : (tensor<288xf32>) -> tensor<144x2xf32>
    return %0 : tensor<144x2xf32>
  }
}

module {
  func.func @main() -> tensor<144x2xf32> {
    %cst = stablehlo.constant dense<0.000000e+00> : tensor<144x2x2xf32>
    %cst_0 = stablehlo.constant dense<0.000000e+00> : tensor<144x2xf32>
    %0 = stablehlo.dot_general %cst, %cst_0, batching_dims = [0] x [0], contracting_dims = [2] x [1], precision = [DEFAULT, DEFAULT] : (tensor<144x2x2xf32>, tensor<144x2xf32>) -> tensor<144x2xf32>
    return %0 : tensor<144x2xf32>
  }
}

module {
  func.func @main() -> tensor<144x2xf32> {
    %cst = stablehlo.constant dense<0.000000e+00> : tensor<144x2x2xf32>
    %cst_0 = stablehlo.constant dense<0.000000e+00> : tensor<144x2xf32>
    %0 = stablehlo.dot_general %cst, %cst_0, batching_dims = [0] x [0], contracting_dims = [2] x [1], precision = [DEFAULT, DEFAULT] : (tensor<144x2x2xf32>, tensor<144x2xf32>) -> tensor<144x2xf32>
    return %0 : tensor<144x2xf32>
  }
}

module {
  func.func @main() -> tensor<288xf32> {
    %cst = stablehlo.constant dense<0.000000e+00> : tensor<144x2xf32>
    %0 = stablehlo.reshape %cst : (tensor<144x2xf32>) -> tensor<288xf32>
    return %0 : tensor<288xf32>
  }
}

module {
  func.func @main() -> tensor<1x1x288xf32> {
    %cst = stablehlo.constant dense<0.000000e+00> : tensor<6x1x288xf32>
    %0 = stablehlo.slice %cst [0:1, 0:1, 0:288] : (tensor<6x1x288xf32>) -> tensor<1x1x288xf32>
    return %0 : tensor<1x1x288xf32>
  }
}

module {
  func.func @main() -> tensor<1x288xf32> {
    %cst = stablehlo.constant dense<0.000000e+00> : tensor<1x1x288xf32>
    %0 = stablehlo.reshape %cst : (tensor<1x1x288xf32>) -> tensor<1x288xf32>
    return %0 : tensor<1x288xf32>
  }
}

module {
  func.func @main() -> tensor<1x288xf32> {
    %cst = stablehlo.constant dense<0.000000e+00> : tensor<144x2xf32>
    %0 = stablehlo.reshape %cst : (tensor<144x2xf32>) -> tensor<1x288xf32>
    return %0 : tensor<1x288xf32>
  }
}

module {
  func.func @main() -> tensor<1x1x288xf32> {
    %cst = stablehlo.constant dense<0.000000e+00> : tensor<6x1x288xf32>
    %0 = stablehlo.slice %cst [0:1, 0:1, 0:288] : (tensor<6x1x288xf32>) -> tensor<1x1x288xf32>
    return %0 : tensor<1x1x288xf32>
  }
}

module {
  func.func @main() -> tensor<1x288xf32> {
    %cst = stablehlo.constant dense<0.000000e+00> : tensor<1x1x288xf32>
    %0 = stablehlo.reshape %cst : (tensor<1x1x288xf32>) -> tensor<1x288xf32>
    return %0 : tensor<1x288xf32>
  }
}

module {
  func.func @main() -> tensor<1x288xf32> {
    %cst = stablehlo.constant dense<0.000000e+00> : tensor<288xf32>
    %0 = stablehlo.reshape %cst : (tensor<288xf32>) -> tensor<1x288xf32>
    return %0 : tensor<1x288xf32>
  }
}

module {
  func.func @main() -> tensor<48xf32> {
    %cst = stablehlo.constant dense<0.000000e+00> : tensor<288xf32>
    %0 = stablehlo.slice %cst [0:48] : (tensor<288xf32>) -> tensor<48xf32>
    return %0 : tensor<48xf32>
  }
}

module {
  func.func @main() -> tensor<1x48xf32> {
    %cst = stablehlo.constant dense<0.000000e+00> : tensor<1x288xf32>
    %0 = stablehlo.slice %cst [0:1, 0:48] : (tensor<1x288xf32>) -> tensor<1x48xf32>
    return %0 : tensor<1x48xf32>
  }
}

module {
  func.func @main() -> tensor<1x48xf32> {
    %cst = stablehlo.constant dense<0.000000e+00> : tensor<1x288xf32>
    %0 = stablehlo.slice %cst [0:1, 0:48] : (tensor<1x288xf32>) -> tensor<1x48xf32>
    return %0 : tensor<1x48xf32>
  }
}

module {
  func.func @main() -> tensor<2x48xf32> {
    %cst = stablehlo.constant dense<0.000000e+00> : tensor<1x48xf32>
    %cst_0 = stablehlo.constant dense<0.000000e+00> : tensor<1x48xf32>
    %0 = stablehlo.concatenate %cst, %cst_0, dim = 0 : (tensor<1x48xf32>, tensor<1x48xf32>) -> tensor<2x48xf32>
    return %0 : tensor<2x48xf32>
  }
}

module {
  func.func @main() -> tensor<2xf32> {
    %cst = stablehlo.constant dense<0.000000e+00> : tensor<2x48xf32>
    %cst_0 = stablehlo.constant dense<0.000000e+00> : tensor<48xf32>
    %0 = stablehlo.dot_general %cst, %cst_0, contracting_dims = [1] x [0], precision = [DEFAULT, DEFAULT] : (tensor<2x48xf32>, tensor<48xf32>) -> tensor<2xf32>
    return %0 : tensor<2xf32>
  }
}

module {
  func.func @main() -> tensor<2xf32> {
    %cst = stablehlo.constant dense<0.000000e+00> : tensor<2xf32>
    %cst_0 = stablehlo.constant dense<0.000000e+00> : tensor<2xf32>
    %0 = stablehlo.divide %cst, %cst_0 : tensor<2xf32>
    return %0 : tensor<2xf32>
  }
}

module {
  func.func @main() -> tensor<f32> {
    %cst = stablehlo.constant dense<0.000000e+00> : tensor<f32>
    %cst_0 = stablehlo.constant dense<0.000000e+00> : tensor<f32>
    %0 = stablehlo.maximum %cst, %cst_0 : tensor<f32>
    return %0 : tensor<f32>
  }
}

"builtin.module"() ({
  "func.func"() <{function_type = () -> (), sym_name = "main"}> ({
    %0 = "stablehlo.constant"() <{value = dense<0.000000e+00> : tensor<f32>}> : () -> tensor<f32>
    "stablehlo.return"(%0) : (tensor<f32>) -> ()
    "func.return"() : () -> ()
  }) : () -> ()
}) : () -> ()

module {
  func.func @main() -> tensor<f32> {
    %cst = stablehlo.constant dense<0.000000e+00> : tensor<2xf32>
    %cst_0 = stablehlo.constant dense<0.000000e+00> : tensor<f32>
    %0 = stablehlo.reduce(%cst init: %cst_0) applies stablehlo.maximum across dimensions = [0] : (tensor<2xf32>, tensor<f32>) -> tensor<f32>
    return %0 : tensor<f32>
  }
}

module {
  func.func @main() -> tensor<2xf32> {
    %cst = stablehlo.constant dense<0.000000e+00> : tensor<f32>
    %0 = stablehlo.broadcast_in_dim %cst, dims = [] : (tensor<f32>) -> tensor<2xf32>
    return %0 : tensor<2xf32>
  }
}

module {
  func.func @main() -> tensor<2xi1> {
    %cst = stablehlo.constant dense<0.000000e+00> : tensor<2xf32>
    %cst_0 = stablehlo.constant dense<0.000000e+00> : tensor<2xf32>
    %0 = stablehlo.compare  EQ, %cst, %cst_0,  FLOAT : (tensor<2xf32>, tensor<2xf32>) -> tensor<2xi1>
    return %0 : tensor<2xi1>
  }
}

module {
  func.func @main() -> tensor<2xf32> {
    %c = stablehlo.constant dense<false> : tensor<2xi1>
    %0 = stablehlo.convert %c : (tensor<2xi1>) -> tensor<2xf32>
    return %0 : tensor<2xf32>
  }
}

module {
  func.func @main() -> tensor<f32> {
    %cst = stablehlo.constant dense<0.000000e+00> : tensor<f32>
    %cst_0 = stablehlo.constant dense<0.000000e+00> : tensor<f32>
    %0 = stablehlo.add %cst, %cst_0 : tensor<f32>
    return %0 : tensor<f32>
  }
}

"builtin.module"() ({
  "func.func"() <{function_type = () -> (), sym_name = "main"}> ({
    %0 = "stablehlo.constant"() <{value = dense<0.000000e+00> : tensor<f32>}> : () -> tensor<f32>
    "stablehlo.return"(%0) : (tensor<f32>) -> ()
    "func.return"() : () -> ()
  }) : () -> ()
}) : () -> ()

module {
  func.func @main() -> tensor<f32> {
    %cst = stablehlo.constant dense<0.000000e+00> : tensor<2xf32>
    %cst_0 = stablehlo.constant dense<0.000000e+00> : tensor<f32>
    %0 = stablehlo.reduce(%cst init: %cst_0) applies stablehlo.add across dimensions = [0] : (tensor<2xf32>, tensor<f32>) -> tensor<f32>
    return %0 : tensor<f32>
  }
}

module {
  func.func @main() -> tensor<2xf32> {
    %cst = stablehlo.constant dense<0.000000e+00> : tensor<2xf32>
    %cst_0 = stablehlo.constant dense<0.000000e+00> : tensor<2xf32>
    %0 = stablehlo.subtract %cst, %cst_0 : tensor<2xf32>
    return %0 : tensor<2xf32>
  }
}

module {
  func.func @main() -> tensor<2xf32> {
    %cst = stablehlo.constant dense<0.000000e+00> : tensor<2xf32>
    %0 = stablehlo.exponential %cst : tensor<2xf32>
    return %0 : tensor<2xf32>
  }
}

module {
  func.func @main() -> tensor<1xf32> {
    %cst = stablehlo.constant dense<0.000000e+00> : tensor<2xf32>
    %0 = stablehlo.slice %cst [0:1] : (tensor<2xf32>) -> tensor<1xf32>
    return %0 : tensor<1xf32>
  }
}

module {
  func.func @main() -> tensor<f32> {
    %cst = stablehlo.constant dense<0.000000e+00> : tensor<1xf32>
    %0 = stablehlo.reshape %cst : (tensor<1xf32>) -> tensor<f32>
    return %0 : tensor<f32>
  }
}

module {
  func.func @main() -> tensor<1xf32> {
    %cst = stablehlo.constant dense<0.000000e+00> : tensor<2xf32>
    %0 = stablehlo.slice %cst [1:2] : (tensor<2xf32>) -> tensor<1xf32>
    return %0 : tensor<1xf32>
  }
}

module {
  func.func @main() -> tensor<f32> {
    %cst = stablehlo.constant dense<0.000000e+00> : tensor<1xf32>
    %0 = stablehlo.reshape %cst : (tensor<1xf32>) -> tensor<f32>
    return %0 : tensor<f32>
  }
}

module {
  func.func @main() -> tensor<f32> {
    %cst = stablehlo.constant dense<0.000000e+00> : tensor<f32>
    %cst_0 = stablehlo.constant dense<0.000000e+00> : tensor<f32>
    %0 = stablehlo.add %cst, %cst_0 : tensor<f32>
    return %0 : tensor<f32>
  }
}

module {
  func.func @main() -> tensor<2xf32> {
    %cst = stablehlo.constant dense<0.000000e+00> : tensor<f32>
    %0 = stablehlo.broadcast_in_dim %cst, dims = [] : (tensor<f32>) -> tensor<2xf32>
    return %0 : tensor<2xf32>
  }
}

module {
  func.func @main() -> tensor<2xf32> {
    %cst = stablehlo.constant dense<0.000000e+00> : tensor<2xf32>
    %cst_0 = stablehlo.constant dense<0.000000e+00> : tensor<2xf32>
    %0 = stablehlo.divide %cst, %cst_0 : tensor<2xf32>
    return %0 : tensor<2xf32>
  }
}

module {
  func.func @main() -> tensor<f32> {
    %cst = stablehlo.constant dense<0.000000e+00> : tensor<f32>
    %cst_0 = stablehlo.constant dense<0.000000e+00> : tensor<f32>
    %0 = stablehlo.multiply %cst, %cst_0 : tensor<f32>
    return %0 : tensor<f32>
  }
}

module {
  func.func @main() -> tensor<f32> {
    %cst = stablehlo.constant dense<0.000000e+00> : tensor<f32>
    %cst_0 = stablehlo.constant dense<0.000000e+00> : tensor<f32>
    %0 = stablehlo.divide %cst, %cst_0 : tensor<f32>
    return %0 : tensor<f32>
  }
}

module {
  func.func @main() -> tensor<1x48xf32> {
    %cst = stablehlo.constant dense<0.000000e+00> : tensor<1x288xf32>
    %0 = stablehlo.slice %cst [0:1, 0:48] : (tensor<1x288xf32>) -> tensor<1x48xf32>
    return %0 : tensor<1x48xf32>
  }
}

module {
  func.func @main() -> tensor<1x48xf32> {
    %cst = stablehlo.constant dense<0.000000e+00> : tensor<1x288xf32>
    %0 = stablehlo.slice %cst [0:1, 0:48] : (tensor<1x288xf32>) -> tensor<1x48xf32>
    return %0 : tensor<1x48xf32>
  }
}

module {
  func.func @main() -> tensor<2x48xf32> {
    %cst = stablehlo.constant dense<0.000000e+00> : tensor<1x48xf32>
    %cst_0 = stablehlo.constant dense<0.000000e+00> : tensor<1x48xf32>
    %0 = stablehlo.concatenate %cst, %cst_0, dim = 0 : (tensor<1x48xf32>, tensor<1x48xf32>) -> tensor<2x48xf32>
    return %0 : tensor<2x48xf32>
  }
}

module {
  func.func @main() -> tensor<48xf32> {
    %cst = stablehlo.constant dense<0.000000e+00> : tensor<2x48xf32>
    %cst_0 = stablehlo.constant dense<0.000000e+00> : tensor<2xf32>
    %0 = stablehlo.dot_general %cst, %cst_0, contracting_dims = [0] x [0], precision = [DEFAULT, DEFAULT] : (tensor<2x48xf32>, tensor<2xf32>) -> tensor<48xf32>
    return %0 : tensor<48xf32>
  }
}

module {
  func.func @main() -> tensor<48xf32> {
    %cst = stablehlo.constant dense<0.000000e+00> : tensor<288xf32>
    %0 = stablehlo.slice %cst [48:96] : (tensor<288xf32>) -> tensor<48xf32>
    return %0 : tensor<48xf32>
  }
}

module {
  func.func @main() -> tensor<1x48xf32> {
    %cst = stablehlo.constant dense<0.000000e+00> : tensor<1x288xf32>
    %0 = stablehlo.slice %cst [0:1, 48:96] : (tensor<1x288xf32>) -> tensor<1x48xf32>
    return %0 : tensor<1x48xf32>
  }
}

module {
  func.func @main() -> tensor<1x48xf32> {
    %cst = stablehlo.constant dense<0.000000e+00> : tensor<1x288xf32>
    %0 = stablehlo.slice %cst [0:1, 48:96] : (tensor<1x288xf32>) -> tensor<1x48xf32>
    return %0 : tensor<1x48xf32>
  }
}

module {
  func.func @main() -> tensor<2x48xf32> {
    %cst = stablehlo.constant dense<0.000000e+00> : tensor<1x48xf32>
    %cst_0 = stablehlo.constant dense<0.000000e+00> : tensor<1x48xf32>
    %0 = stablehlo.concatenate %cst, %cst_0, dim = 0 : (tensor<1x48xf32>, tensor<1x48xf3Operation name: stablehlo.constant
Verifying module
Operation name: stablehlo.constant
Verifying module
Operation name: stablehlo.constant
Verifying module
Operation name: stablehlo.constant
Verifying module
Operation name: stablehlo.constant
Verifying module
Operation name: stablehlo.constant
Verifying module
Operation name: stablehlo.constant
Verifying module
Operation name: stablehlo.constant
Verifying module
Operation name: stablehlo.constant
Verifying module
Operation name: stablehlo.constant
Verifying module
Operation name: stablehlo.slice
Verifying module
Operation name: stablehlo.reshape
Verifying module
Operation name: stablehlo.dot_general
Verifying module
Operation name: stablehlo.divide
Verifying module
Operation name: stablehlo.add
Verifying module
Operation name: stablehlo.sqrt
Verifying module
Operation name: stablehlo.divide
Verifying module
Operation name: stablehlo.divide
Verifying module
Operation name: stablehlo.multiply
Verifying module
Operation name: stablehlo.divide
Verifying module
Operation name: stablehlo.multiply
Verifying module
Operation name: stablehlo.broadcast_in_dim
Verifying module
Operation name: stablehlo.multiply
Verifying module
Operation name: stablehlo.slice
Verifying module
Operation name: stablehlo.reshape
Verifying module
Operation name: stablehlo.dot_general
Verifying module
Operation name: stablehlo.slice
Verifying module
Operation name: stablehlo.reshape
Verifying module
Operation name: stablehlo.dot_general
Verifying module
Operation name: stablehlo.slice
Verifying module
Operation name: stablehlo.reshape
Verifying module
Operation name: stablehlo.dot_general
Verifying module
Operation name: stablehlo.reshape
Verifying module
Operation name: stablehlo.reshape
Verifying module
Operation name: stablehlo.dot_general
Verifying module
Operation name: stablehlo.dot_general
Verifying module
Operation name: stablehlo.reshape
Verifying module
Operation name: stablehlo.slice
Verifying module
Operation name: stablehlo.reshape
Verifying module
Operation name: stablehlo.reshape
Verifying module
Operation name: stablehlo.slice
Verifying module
Operation name: stablehlo.reshape
Verifying module
Operation name: stablehlo.reshape
Verifying module
Operation name: stablehlo.slice
Verifying module
Operation name: stablehlo.slice
Verifying module
Operation name: stablehlo.slice
Verifying module
Operation name: stablehlo.concatenate
Verifying module
Operation name: stablehlo.dot_general
Verifying module
Operation name: stablehlo.divide
Verifying module
Operation name: stablehlo.maximum
Verifying module
Operation name: stablehlo.return
Verifying module
Operation name: stablehlo.reduce
Verifying module
Operation name: stablehlo.broadcast_in_dim
Verifying module
Operation name: stablehlo.compare
Verifying module
Operation name: stablehlo.convert
Verifying module
Operation name: stablehlo.add
Verifying module
Operation name: stablehlo.return
Verifying module
Operation name: stablehlo.reduce
Verifying module
Operation name: stablehlo.subtract
Verifying module
Operation name: stablehlo.exponential
Verifying module
Operation name: stablehlo.slice
Verifying module
Operation name: stablehlo.reshape
Verifying module
Operation name: stablehlo.slice
Verifying module
Operation name: stablehlo.reshape
Verifying module
Operation name: stablehlo.add
Verifying module
Operation name: stablehlo.broadcast_in_dim
Verifying module
Operation name: stablehlo.divide
Verifying module
Operation name: stablehlo.multiply
Verifying module
Operation name: stablehlo.divide
Verifying module
Operation name: stablehlo.slice
Verifying module
Operation name: stablehlo.slice
Verifying module
Operation name: stablehlo.concatenate
Verifying module
Operation name: stablehlo.dot_general
Verifying module
Operation name: stablehlo.slice
Verifying module
Operation name: stablehlo.slice
Verifying module
Operation name: stablehlo.slice
Verifying module
Operation name: stablehlo.concatenate
Verifying module
Operation name: stablehlo.dot_general
Verifying module
Operation name: stablehlo.divide
Verifying module
Operation name: stablehlo.maximu2>) -> tensor<2x48xf32>
    return %0 : tensor<2x48xf32>
  }
}

module {
  func.func @main() -> tensor<2xf32> {
    %cst = stablehlo.constant dense<0.000000e+00> : tensor<2x48xf32>
    %cst_0 = stablehlo.constant dense<0.000000e+00> : tensor<48xf32>
    %0 = stablehlo.dot_general %cst, %cst_0, contracting_dims = [1] x [0], precision = [DEFAULT, DEFAULT] : (tensor<2x48xf32>, tensor<48xf32>) -> tensor<2xf32>
    return %0 : tensor<2xf32>
  }
}

module {
  func.func @main() -> tensor<2xf32> {
    %cst = stablehlo.constant dense<0.000000e+00> : tensor<2xf32>
    %cst_0 = stablehlo.constant dense<0.000000e+00> : tensor<2xf32>
    %0 = stablehlo.divide %cst, %cst_0 : tensor<2xf32>
    return %0 : tensor<2xf32>
  }
}

module {
  func.func @main() -> tensor<f32> {
    %cst = stablehlo.constant dense<0.000000e+00> : tensor<f32>
    %cst_0 = stablehlo.constant dense<0.000000e+00> : tensor<f32>
    %0 = stablehlo.maximum %cst, %cst_0 : tensor<f32>
    return %0 : tensor<f32>
  }
}

"builtin.module"() ({
  "func.func"() <{function_type = () -> (), sym_name = "main"}> ({
    %0 = "stablehlo.constant"() <{value = dense<0.000000e+00> : tensor<f32>}> : () -> tensor<f32>
    "stablehlo.return"(%0) : (tensor<f32>) -> ()
    "func.return"() : () -> ()
  }) : () -> ()
}) : () -> ()

module {
  func.func @main() -> tensor<f32> {
    %cst = stablehlo.constant dense<0.000000e+00> : tensor<2xf32>
    %cst_0 = stablehlo.constant dense<0.000000e+00> : tensor<f32>
    %0 = stablehlo.reduce(%cst init: %cst_0) applies stablehlo.maximum across dimensions = [0] : (tensor<2xf32>, tensor<f32>) -> tensor<f32>
    return %0 : tensor<f32>
  }
}

module {
  func.func @main() -> tensor<2xf32> {
    %cst = stablehlo.constant dense<0.000000e+00> : tensor<f32>
    %0 = stablehlo.broadcast_in_dim %cst, dims = [] : (tensor<f32>) -> tensor<2xf32>
    return %0 : tensor<2xf32>
  }
}

module {
  func.func @main() -> tensor<2xi1> {
    %cst = stablehlo.constant dense<0.000000e+00> : tensor<2xf32>
    %cst_0 = stablehlo.constant dense<0.000000e+00> : tensor<2xf32>
    %0 = stablehlo.compare  EQ, %cst, %cst_0,  FLOAT : (tensor<2xf32>, tensor<2xf32>) -> tensor<2xi1>
    return %0 : tensor<2xi1>
  }
}

module {
  func.func @main() -> tensor<2xf32> {
    %c = stablehlo.constant dense<false> : tensor<2xi1>
    %0 = stablehlo.convert %c : (tensor<2xi1>) -> tensor<2xf32>
    return %0 : tensor<2xf32>
  }
}

module {
  func.func @main() -> tensor<f32> {
    %cst = stablehlo.constant dense<0.000000e+00> : tensor<f32>
    %cst_0 = stablehlo.constant dense<0.000000e+00> : tensor<f32>
    %0 = stablehlo.add %cst, %cst_0 : tensor<f32>
    return %0 : tensor<f32>
  }
}

"builtin.module"() ({
  "func.func"() <{function_type = () -> (), sym_name = "main"}> ({
    %0 = "stablehlo.constant"() <{value = dense<0.000000e+00> : tensor<f32>}> : () -> tensor<f32>
    "stablehlo.return"(%0) : (tensor<f32>) -> ()
    "func.return"() : () -> ()
  }) : () -> ()
}) : () -> ()

module {
  func.func @main() -> tensor<f32> {
    %cst = stablehlo.constant dense<0.000000e+00> : tensor<2xf32>
    %cst_0 = stablehlo.constant dense<0.000000e+00> : tensor<f32>
    %0 = stablehlo.reduce(%cst init: %cst_0) applies stablehlo.add across dimensions = [0] : (tensor<2xf32>, tensor<f32>) -> tensor<f32>
    return %0 : tensor<f32>
  }
}

module {
  func.func @main() -> tensor<2xf32> {
    %cst = stablehlo.constant dense<0.000000e+00> : tensor<2xf32>
    %cst_0 = stablehlo.constant dense<0.000000e+00> : tensor<2xf32>
    %0 = stablehlo.subtract %cst, %cst_0 : tensor<2xf32>
    return %0 : tensor<2xf32>
  }
}

module {
  func.func @main() -> tensor<2xf32> {
    %cst = stablehlo.constant dense<0.000000e+00> : tensor<2xf32>
    %0 = stablehlo.exponential %cst : tensor<2xf32>
    return %0 : tensor<2xf32>
  }
}

module {
  func.func @main() -> tensor<1xf32> {
    %cst = stablehlo.constant dense<0.000000e+00> : tensor<2xf32>
    %0 = stablehlo.slice %cst [0:1] : (tensor<2xf32>) -> tensor<1xf32>
    return %0 : tensor<1xf32>
  }
}

module {
  func.func @main() -> tensor<f32> {
    %cst = stablehlo.constant dense<0.000000e+00> : tensor<1xf32>
    %0 = stablehlo.reshape %cst : (tensor<1xf32>) -> tensor<f32>
    return %0 : tensor<f32>
  }
}

module {
  func.func @main() -> tensor<1xf32> {
    %cst = stablehlo.constant dense<0.000000e+00> : tensor<2xf32>
    %0 = stablehlo.slice %cst [1:2] : (tensor<2xf32>) -> tensor<1xf32>
    return %0 : tensor<1xf32>
  }
}

module {
  func.func @main() -> tensor<f32> {
    %cst = stablehlo.constant dense<0.000000e+00> : tensor<1xf32>
    %0 = stablehlo.reshape %cst : (tensor<1xf32>) -> tensor<f32>
    return %0 : tensor<f32>
  }
}

module {
  func.func @main() -> tensor<f32> {
    %cst = stablehlo.constant dense<0.000000e+00> : tensor<f32>
    %cst_0 = stablehlo.constant dense<0.000000e+00> : tensor<f32>
    %0 = stablehlo.add %cst, %cst_0 : tensor<f32>
    return %0 : tensor<f32>
  }
}

module {
  func.func @main() -> tensor<2xf32> {
    %cst = stablehlo.constant dense<0.000000e+00> : tensor<f32>
    %0 = stablehlo.broadcast_in_dim %cst, dims = [] : (tensor<f32>) -> tensor<2xf32>
    return %0 : tensor<2xf32>
  }
}

module {
  func.func @main() -> tensor<2xf32> {
    %cst = stablehlo.constant dense<0.000000e+00> : tensor<2xf32>
    %cst_0 = stablehlo.constant dense<0.000000e+00> : tensor<2xf32>
    %0 = stablehlo.divide %cst, %cst_0 : tensor<2xf32>
    return %0 : tensor<2xf32>
  }
}

module {
  func.func @main() -> tensor<f32> {
    %cst = stablehlo.constant dense<0.000000e+00> : tensor<f32>
    %cst_0 = stablehlo.constant dense<0.000000e+00> : tensor<f32>
    %0 = stablehlo.multiply %cst, %cst_0 : tensor<f32>
    return %0 : tensor<f32>
  }
}

module {
  func.func @main() -> tensor<f32> {
    %cst = stablehlo.constant dense<0.000000e+00> : tensor<f32>
    %cst_0 = stablehlo.constant dense<0.000000e+00> : tensor<f32>
    %0 = stablehlo.divide %cst, %cst_0 : tensor<f32>
    return %0 : tensor<f32>
  }
}

module {
  func.func @main() -> tensor<1x48xf32> {
    %cst = stablehlo.constant dense<0.000000e+00> : tensor<1x288xf32>
    %0 = stablehlo.slice %cst [0:1, 48:96] : (tensor<1x288xf32>) -> tensor<1x48xf32>
    return %0 : tensor<1x48xf32>
  }
}

module {
  func.func @main() -> tensor<1x48xf32> {
    %cst = stablehlo.constant dense<0.000000e+00> : tensor<1x288xf32>
    %0 = stablehlo.slice %cst [0:1, 48:96] : (tensor<1x288xf32>) -> tensor<1x48xf32>
    return %0 : tensor<1x48xf32>
  }
}

module {
  func.func @main() -> tensor<2x48xf32> {
    %cst = stablehlo.constant dense<0.000000e+00> : tensor<1x48xf32>
    %cst_0 = stablehlo.constant dense<0.000000e+00> : tensor<1x48xf32>
    %0 = stablehlo.concatenate %cst, %cst_0, dim = 0 : (tensor<1x48xf32>, tensor<1x48xf32>) -> tensor<2x48xf32>
    return %0 : tensor<2x48xf32>
  }
}

module {
  func.func @main() -> tensor<48xf32> {
    %cst = stablehlo.constant dense<0.000000e+00> : tensor<2x48xf32>
    %cst_0 = stablehlo.constant dense<0.000000e+00> : tensor<2xf32>
    %0 = stablehlo.dot_general %cst, %cst_0, contracting_dims = [0] x [0], precision = [DEFAULT, DEFAULT] : (tensor<2x48xf32>, tensor<2xf32>) -> tensor<48xf32>
    return %0 : tensor<48xf32>
  }
}

module {
  func.func @main() -> tensor<48xf32> {
    %cst = stablehlo.constant dense<0.000000e+00> : tensor<288xf32>
    %0 = stablehlo.slice %cst [96:144] : (tensor<288xf32>) -> tensor<48xf32>
    return %0 : tensor<48xf32>
  }
}

module {
  func.func @main() -> tensor<1x48xf32> {
    %cst = stablehlo.constant dense<0.000000e+00> : tensor<1x288xf32>
    %0 = stablehlo.slice %cst [0:1, 96:144] : (tensor<1x288xf32>) -> tensor<1x48xf32>
    return %0 : tensor<1x48xf32>
  }
}

module {
  func.func @main() -> tensor<1x48xf32> {
    %cst = stablehlo.constant dense<0.000000e+00> : tensor<1x288xf32>
    %0 = stablehlo.slice %cst [0:1, 96:144] : (tensor<1x288xf32>) -> tensor<1x48xf32>
    return %0 : tensor<1x48xf32>
  }
}

module {
  func.func @main() -> tensor<2x48xf32> {
    %cst = stablehlo.constant dense<0.000000e+00> : tensor<1x48xf32>
    %cst_0 = stablehlo.constant dense<0.000000e+00> : tensor<1x48xf32>
    %0 = stablehlo.concatenate %cst, %cst_0, dim = 0 : (tensor<1x48xf32>, tensor<1x48xf32>) -> tensor<2x48xf32>
    return %0 : tensor<2x48xf32>
  }
}

module {
  func.func @main() -> tensor<2xf32> {
    %cst = stablehlo.constant dense<0.000000e+00> : tensor<2x48xf32>
    %cst_0 = stablehlo.constant dense<0.000000e+00> : tensor<48xf32>
    %0 = stablehlo.dot_general %cst, %cst_0, contracting_dims = [1] x [0], precision = [DEFAULT, DEFAULT] : (tensor<2x48xf32>, tensor<48xf32>) -> tensor<2xf32>
    return %0 : tensor<2xf32>
  }
}

module {
  func.func @main() -> tensor<2xf32> {
    %cst = stablehlo.constant dense<0.000000e+00> : tensor<2xf32>
    %cst_0 = stablehlo.constant dense<0.000000e+00> : tensor<2xf32>
    %0 = stablehlo.divide %cst, %cst_0 : tensor<2xf32>
    return %0 : tensor<2xf32>
  }
}

module {
  func.func @main() -> tensor<f32> {
    %cst = stablehlo.constant dense<0.000000e+00> : tensor<f32>
    %cst_0 = stablehlo.constant dense<0.000000e+00> : tensor<f32>
    %0 = stablehlo.maximum %cst, %cst_0 : tensor<f32>
    return %0 : tensor<f32>
  }
}

"builtin.module"() ({
  "func.func"() <{function_type = () -> (), sym_name = "main"}> ({
    %0 = "stablehlo.constant"() <{value = dense<0.000000e+00> : tensor<f32>}> : () -> tensor<f32>
    "stablehlo.return"(%0) : (tensor<f32>) -> ()
    "func.return"() : () -> ()
  }) : () -> ()
}) : () -> ()

module {
  func.func @main() -> tensor<f32> {
    %cst = stablehlo.constant dense<0.000000e+00> : tensor<2xf32>
    %cst_0 = stablehlo.constant dense<0.000000e+00> : tensor<f32>
    %0 = stablehlo.reduce(%cst init: %cst_0) applies stablehlo.maximum across dimensions = [0] : (tensor<2xf32>, tensor<f32>) -> tensor<f32>
    return %0 : tensor<f32>
  }
}

module {
  func.func @main() -> tensor<2xf32> {
    %cst = stablehlo.constant dense<0.000000e+00> : tensor<f32>
    %0 = stablehlo.broadcast_in_dim %cst, dims = [] : (tensor<f32>) -> tensor<2xf32>
    return %0 : tensor<2xf32>
  }
}

module {
  func.func @main() -> tensor<2xi1> {
    %cst = stablehlo.constant dense<0.000000e+00> : tensor<2xf32>
    %cst_0 = stablehlo.constant dense<0.000000e+00> : tensor<2xf32>
    %0 = stablehlo.compare  EQ, %cst, %cst_0,  FLOAT : (tensor<2xf32>, tensor<2xf32>) -> tensor<2xi1>
    return %0 : tensor<2xi1>
  }
}

module {
  func.func @main() -> tensor<2xf32> {
    %c = stablehlo.constant dense<false> : tensor<2xi1>
    %0 = stablehlo.convert %c : (tensor<2xi1>) -> tensor<2xf32>
    return %0 : tensor<2xf32>
  }
}

module {
  func.func @main() -> tensor<f32> {
    %cst = stablehlo.constant dense<0.000000e+00> : tensor<f32>
    %cst_0 = stablehlo.constant dense<0.000000e+00> : tensor<f32>
    %0 = stablehlo.add %cst, %cst_0 : tensor<f32>
    return %0 : tensor<f32>
  }
}

"builtin.module"() ({
  "func.func"() <{function_type = () -> (), sym_name = "main"}> ({
    %0 = "stablehlo.constant"() <{value = dense<0.000000e+00> : tensor<f32>}> : () -> tensor<f32>
    "stablehlo.return"(%0) : (tensor<f32>) -> ()
    "func.return"() : () -> ()
  }) : () -> ()
}) : () -> ()

module {
  func.func @main() -> tensor<f32> {
    %cst = stablehlo.constant dense<0.000000e+00> : tensor<2xf32>
    %cst_0 = stablehlo.constant dense<0.000000e+00> : tensor<f32>
    %0 = stablehlo.reduce(%cst init: %cst_0) applies stablehlo.add across dimensions = [0] : (tensor<2xf32>, tensor<f32>) -> tensor<f32>
    return %0 : tensor<f32>
  }
}

module {
  func.func @main() -> tensor<2xf32> {
    %cst = stablehlo.constant dense<0.000000e+00> : tensor<2xf32>
    %cst_0 = stablehlo.constant dense<0.000000e+00> : tensor<2xf32>
    %0 = stablehlo.subtract %cst, %cst_0 : tensor<2xf32>
    return %0 : tensor<2xf32>
  }
}

module {
  func.func @main() -> tensor<2xf32> {
    %cst = stablehlo.constant dense<0.000000e+00> : tensor<2xf32>
    %0 = stablehlo.exponential %cst : tensor<2xf32>
    return %0 : tensor<2xf32>
  }
}

module {
  func.func @main() -> tensor<1xf32> {
    %cst = stablehlo.constant dense<0.000000e+00> : tensor<2xf32>
    %0 = stablehlo.slice %cst [0:1] : (tensor<2xf32>) -> tensor<1xf32>
    return %0 : tensor<1xf32>
  }
}

module {
  func.func @main() -> tensor<f32> {
    %cst = stablehlo.constant dense<0.000000e+00> : tensor<1xf32>
    %0 = stablehlo.reshape %cst : (tensor<1xf32>) -> tensor<f32>
    return %0 : tensor<f32>
  }
}

module {
  func.func @main() -> tensor<1xf32> {
    %cst = stablehlo.constant dense<0.000000e+00> : tensor<2xf32>
    %0 = stablehlo.slice %cst [1:2] : (tensor<2xf32>) -> tensor<1xf32>
    return %0 : tensor<1xf32>
  }
}

module {
  func.func @main() -> tensor<f32> {
    %cst = stablehlo.constant dense<0.000000e+00> : tensor<1xf32>
    %0 = stablehlo.reshape %cst : (tensor<1xf32>) -> tensor<f32>
    return %0 : tensor<f32>
  }
}

module {
  func.func @main() -> tensor<f32> {
    %cst = stablehlo.constant dense<0.000000e+00> : tensor<f32>
    %cst_0 = stablehlo.constant dense<0.000000e+00> : tensor<f32>
    %0 = stablehlo.add %cst, %cst_0 : tensor<f32>
    return %0 : tensor<f32>
  }
}

module {
  func.func @main() -> tensor<2xf32> {
    %cst = stablehlo.constant dense<0.000000e+00> : tensor<f32>
    %0 = stablehlo.broadcast_in_dim %cst, dims = [] : (tensor<f32>) -> tensor<2xf32>
    return %0 : tensor<2xf32>
  }
}

module {
  func.func @main() -> tensor<2xf32> {
    %cst = stablehlo.constant dense<0.000000e+00> : tensor<2xf32>
    %cst_0 = stablehlo.constant dense<0.000000e+00> : tensor<2xf32>
    %0 = stablehlo.divide %cst, %cst_0 : tensor<2xf32>
    return %0 : tensor<2xf32>
  }
}

module {
  func.func @main() -> tensor<f32> {
    %cst = stablehlo.constant dense<0.000000e+00> : tensor<f32>
    %cst_0 = stablehlo.constant dense<0.000000e+00> : tensor<f32>
    %0 = stablehlo.multiply %cst, %cst_0 : tensor<f32>
    return %0 : tensor<f32>
  }
}

module {
  func.func @main() -> tensor<f32> {
    %cst = stablehlo.constant dense<0.000000e+00> : tensor<f32>
    %cst_0 = stablehlo.constant dense<0.000000e+00> : tensor<f32>
    %0 = stablehlo.divide %cst, %cst_0 : tensor<f32>
    return %0 : tensor<f32>
  }
}

module {
  func.func @main() -> tensor<1x48xf32> {
    %cst = stablehlo.constant dense<0.000000e+00> : tensor<1x288xf32>
    %0 = stablehlo.slice %cst [0:1, 96:144] : (tensor<1x288xf32>) -> tensor<1x48xf32>
    return %0 : tensor<1x48xf32>
  }
}

module {
  func.func @main() -> tensor<1x48xf32> {
    %cst = stablehlo.constant dense<0.000000e+00> : tensor<1x288xf32>
    %0 = stablehlo.slice %cst [0:1, 96:144] : (tensor<1x288xf32>) -> tensor<1x48xf32>
    return %0 : tensor<1x48xf32>
  }
}

module {
  func.func @main() -> tensor<2x48xf32> {
    %cst = stablehlo.constant dense<0.000000e+00> : tensor<1x48xf32>
    %cst_0 = stablehlo.constant dense<0.000000e+00> : tensor<1x48xf32>
    %0 = stablehlo.concatenate %cst, %cst_0, dim = 0 : (tensor<1x48xf32>, tensor<1x48xf32>) -> tensor<2x48xf32>
    return %0 : tensor<2x48xf32>
  }
}

module {
  func.func @main() -> tensor<48xf32> {
    %cst = stablehlo.constant dense<0.000000e+00> : tensor<2x48xf32>
    %cst_0 = stablehlo.constant dense<0.000000e+00> : tensor<2xf32>
    %0 = stablehlo.dot_general %cst, %cst_0, contracting_dims = [0] x [0], precision = [DEFAULT, DEFAULT] : (tensor<2x48xf32>, tensor<2xf32>) -> tensor<48xf32>
    return %0 : tensor<48xf32>
  }
}

module {
  func.func @main() -> tensor<48xf32> {
    %cst = stablehlo.constant dense<0.000000e+00> : tensor<288xf32>
    %0 = stablehlo.slice %cst [144:192] : (tensor<288xf32>) -> tensor<48xf32>
    return %0 : tensor<48xf32>
  }
}

module {
  func.func @main() -> tensor<1x48xf32> {
    %cst = stablehlo.constant dense<0.000000e+00> : tensor<1x288xf32>
    %0 = stablehlo.slice %cst [0:1, 144:192] : (tensor<1x288xf32>) -> tensor<1x48xf32>
    return %0 : tensor<1x48xf32>
  }
}

module {
  func.func @main() -> tensor<1x48xf32> {
    %cst = stablehlo.constant dense<0.000000e+00> : tensor<1x288xf32>
    %0 = stablehlo.slice %cst [0:1, 144:192] : (tensor<1x288xf32>) -> tensor<1x48xf32>
    return %0 : tensor<1x48xf32>
  }
}

module {
  func.func @main() -> tensor<2x48xf32> {
    %cst = stablehlo.constant dense<0.000000e+00> : tensor<1x48xf32>
    %cst_0 = stablehlo.constant dense<0.000000e+00> : tensor<1x48xf32>
    %0 = stablehlo.concatenate %cst, %cst_0, dim = 0 : (tensor<1x48xf32>, tensor<1x48xf32>) -> tensor<2x48xf32>
    return %0 : tensor<2x48xf32>
  }
}

module {
  func.func @main() -> tensor<2xf32> {
    %cst = stablehlo.constant dense<0.000000e+00> : tensor<2x48xf32>
    %cst_0 = stablehlo.constant dense<0.000000e+00> : tensor<48xf32>
    %0 = stablehlo.dot_general %cst, %cst_0, contracting_dims = [1] x [0], precision = [DEFAULT, DEFAULT] : (tensor<2x48xf32>, tensor<48xf32>) -> tensor<2xf32>
    return %0 : tensor<2xf32>
  }
}

module {
  func.func @main() -> tensor<2xf32> {
    %cst = stablehlo.constant dense<0.000000e+00> : tensor<2xf32>
    %cst_0 = stablehlo.constant dense<0.000000e+00> : tensor<2xf32>
    %0 = stablehlo.divide %cst, %cst_0 : tensor<2xf32>
    return %0 : tensor<2xf32>
  }
}

module {
  func.func @main() -> tensor<f32> {
    %cst = stablehlo.constant dense<0.000000e+00> : tensor<f32>
    %cst_0 = stablehlo.constant dense<0.000000e+00> : tensor<f32>
    %0 = stablehlo.maximum %cst, %cst_0 : tensor<f32>
    return %0 : tensor<f32>
  }
}

"builtin.module"() ({
  "func.func"() <{function_type = () -> (), sym_name = "main"}> ({
    %0 = "stablehlo.constant"() <{value = dense<0.000000e+00> : tensor<f32>}> : () -> tensor<f32>
    "stablehlo.return"(%0) : (tensor<f32>) -> ()
    "func.return"() : () -> ()
  }) : () -> ()
}) : () -> ()

module {
  func.func @main() -> tensor<f32> {
    %cst = stablehlo.constant dense<0.000000e+00> : tensor<2xf32>
    %cst_0 = stablehlo.constant dense<0.000000e+00> : tensor<f32>
    %0 = stablehlo.reduce(%cst init: %cst_0) applies stablehlo.maximum across dimensions = [0] : (tensor<2xf32>, tensor<f32>) -> tensor<f32>
    return %0 : tensor<f32>
  }
}

module {
  func.func @main() -> tensor<2xf32> {
    %cst = stablehlo.constant dense<0.000000e+00> : tensor<f32>
    %0 = stablehlo.broadcast_in_dim %cst, dims = [] : (tensor<f32>) -> tensor<2xf32>
    return %0 : tensor<2xf32>
  }
}

module {
  func.func @main() -> tensor<2xi1> {
    %cst = stablehlo.constant dense<0.000000e+00> : tensor<2xf32>
    %cst_0 = stablehlo.constant dense<0.000000e+00> : tensor<2xf32>
    %0 = stablehlo.compare  EQ, %cst, %cst_0,  FLOAT : (tensor<2xf32>, tensor<2xf32>) -> tensor<2xi1>
    return %0 : tensor<2xi1>
  }
}

module {
  func.func @main() -> tensor<2xf32> {
    %c = stablehlo.constant dense<false> : tensor<2xi1>
    %0 = stablehlo.convert %c : (tensor<2xi1>) -> tensor<2xf32>
    return %0 : tensor<2xf32>
  }
}

module {
  func.func @main() -> tensor<f32> {
    %cst = stablehlo.constant dense<0.000000e+00> : tensor<f32>
    %cst_0 = stablehlo.constant dense<0.000000e+00> : tensor<f32>
    %0 = stablehlo.add %cst, %cst_0 : tensor<f32>
    return %0 : tensor<f32>
  }
}

"builtin.module"() ({
  "func.func"() <{function_type = () -> (), sym_name = "main"}> ({
    %0 = "stablehlo.constant"() <{value = dense<0.000000e+00> : tensor<f32>}> : () -> tensor<f32>
    "stablehlo.return"(%0) : (tensor<f32>) -> ()
    "func.return"() : () -> ()
  }) : () -> ()
}) : () -> ()

module {
  func.func @main() -> tensor<f32> {
    %cst = stablehlo.constant dense<0.000000e+00> : tensor<2xf32>
    %cst_0 = stablehlo.constant dense<0.000000e+00> : tensor<f32>
    %0 = stablehlo.reduce(%cst init: %cst_0) applies stablehlo.add across dimensions = [0] : (tensor<2xf32>, tensor<f32>) -> tensor<f32>
    return %0 : tensor<f32>
  }
}

module {
  func.func @main() -> tensor<2xf32> {
    %cst = stablehlo.constant dense<0.000000e+00> : tensor<2xf32>
    %cst_0 = stablehlo.constant dense<0.000000e+00> : tensor<2xf32>
    %0 = stablehlo.subtract %cst, %cst_0 : tensor<2xf32>
    return %0 : tensor<2xf32>
  }
}

module {
  func.func @main() -> tensor<2xf32> {
    %cst = stablehlo.constant dense<0.000000e+00> : tensor<2xf32>
    %0 = stablehlo.exponential %cst : tensor<2xf32>
    return %0 : tensor<2xf32>
  }
}

module {
  func.func @main() -> tensor<1xf32> {
    %cst = stablehlo.constant dense<0.000000e+00> : tensor<2xf32>
    %0 = stablehlo.slice %cst [0:1] : (tensor<2xf32>) -> tensor<1xf32>
    return %0 : tensor<1xf32>
  }
}

module {
  func.func @main() -> tensor<f32> {
    %cst = stablehlo.constant dense<0.000000e+00> : tensor<1xf32>
    %0 m
Verifying module
Operation name: stablehlo.return
Verifying module
Operation name: stablehlo.reduce
Verifying module
Operation name: stablehlo.broadcast_in_dim
Verifying module
Operation name: stablehlo.compare
Verifying module
Operation name: stablehlo.convert
Verifying module
Operation name: stablehlo.add
Verifying module
Operation name: stablehlo.return
Verifying module
Operation name: stablehlo.reduce
Verifying module
Operation name: stablehlo.subtract
Verifying module
Operation name: stablehlo.exponential
Verifying module
Operation name: stablehlo.slice
Verifying module
Operation name: stablehlo.reshape
Verifying module
Operation name: stablehlo.slice
Verifying module
Operation name: stablehlo.reshape
Verifying module
Operation name: stablehlo.add
Verifying module
Operation name: stablehlo.broadcast_in_dim
Verifying module
Operation name: stablehlo.divide
Verifying module
Operation name: stablehlo.multiply
Verifying module
Operation name: stablehlo.divide
Verifying module
Operation name: stablehlo.slice
Verifying module
Operation name: stablehlo.slice
Verifying module
Operation name: stablehlo.concatenate
Verifying module
Operation name: stablehlo.dot_general
Verifying module
Operation name: stablehlo.slice
Verifying module
Operation name: stablehlo.slice
Verifying module
Operation name: stablehlo.slice
Verifying module
Operation name: stablehlo.concatenate
Verifying module
Operation name: stablehlo.dot_general
Verifying module
Operation name: stablehlo.divide
Verifying module
Operation name: stablehlo.maximum
Verifying module
Operation name: stablehlo.return
Verifying module
Operation name: stablehlo.reduce
Verifying module
Operation name: stablehlo.broadcast_in_dim
Verifying module
Operation name: stablehlo.compare
Verifying module
Operation name: stablehlo.convert
Verifying module
Operation name: stablehlo.add
Verifying module
Operation name: stablehlo.return
Verifying module
Operation name: stablehlo.reduce
Verifying module
Operation name: stablehlo.subtract
Verifying module
Operation name: stablehlo.exponential
Verifying module
Operation name: stablehlo.slice
Verifying module
Operation name: stablehlo.reshape
Verifying module
Operation name: stablehlo.slice
Verifying module
Operation name: stablehlo.reshape
Verifying module
Operation name: stablehlo.add
Verifying module
Operation name: stablehlo.broadcast_in_dim
Verifying module
Operation name: stablehlo.divide
Verifying module
Operation name: stablehlo.multiply
Verifying module
Operation name: stablehlo.divide
Verifying module
Operation name: stablehlo.slice
Verifying module
Operation name: stablehlo.slice
Verifying module
Operation name: stablehlo.concatenate
Verifying module
Operation name: stablehlo.dot_general
Verifying module
Operation name: stablehlo.slice
Verifying module
Operation name: stablehlo.slice
Verifying module
Operation name: stablehlo.slice
Verifying module
Operation name: stablehlo.concatenate
Verifying module
Operation name: stablehlo.dot_general
Verifying module
Operation name: stablehlo.divide
Verifying module
Operation name: stablehlo.maximum
Verifying module
Operation name: stablehlo.return
Verifying module
Operation name: stablehlo.reduce
Verifying module
Operation name: stablehlo.broadcast_in_dim
Verifying module
Operation name: stablehlo.compare
Verifying module
Operation name: stablehlo.convert
Verifying module
Operation name: stablehlo.add
Verifying module
Operation name: stablehlo.return
Verifying module
Operation name: stablehlo.reduce
Verifying module
Operation name: stablehlo.subtract
Verifying module
Operation name: stablehlo.exponential
Verifying module
Operation name: stablehlo.slice
Verifying module
Operation name: stablehlo.reshape
Verifying module
Operation name: stablehlo.slice
Verifying module
Operation name: stablehlo.reshape
Verifying module
Operation name: stablehlo.add
Verifying module
Operation name: stablehlo.broadcast_in_dim
Verifying module
Operation name: stablehlo.divide
Verifying module
Operation name: stablehlo.multiply
Verifying module
Operation name: stablehlo.divide
Verifying module
Operation name: stab= stablehlo.reshape %cst : (tensor<1xf32>) -> tensor<f32>
    return %0 : tensor<f32>
  }
}

module {
  func.func @main() -> tensor<1xf32> {
    %cst = stablehlo.constant dense<0.000000e+00> : tensor<2xf32>
    %0 = stablehlo.slice %cst [1:2] : (tensor<2xf32>) -> tensor<1xf32>
    return %0 : tensor<1xf32>
  }
}

module {
  func.func @main() -> tensor<f32> {
    %cst = stablehlo.constant dense<0.000000e+00> : tensor<1xf32>
    %0 = stablehlo.reshape %cst : (tensor<1xf32>) -> tensor<f32>
    return %0 : tensor<f32>
  }
}

module {
  func.func @main() -> tensor<f32> {
    %cst = stablehlo.constant dense<0.000000e+00> : tensor<f32>
    %cst_0 = stablehlo.constant dense<0.000000e+00> : tensor<f32>
    %0 = stablehlo.add %cst, %cst_0 : tensor<f32>
    return %0 : tensor<f32>
  }
}

module {
  func.func @main() -> tensor<2xf32> {
    %cst = stablehlo.constant dense<0.000000e+00> : tensor<f32>
    %0 = stablehlo.broadcast_in_dim %cst, dims = [] : (tensor<f32>) -> tensor<2xf32>
    return %0 : tensor<2xf32>
  }
}

module {
  func.func @main() -> tensor<2xf32> {
    %cst = stablehlo.constant dense<0.000000e+00> : tensor<2xf32>
    %cst_0 = stablehlo.constant dense<0.000000e+00> : tensor<2xf32>
    %0 = stablehlo.divide %cst, %cst_0 : tensor<2xf32>
    return %0 : tensor<2xf32>
  }
}

module {
  func.func @main() -> tensor<f32> {
    %cst = stablehlo.constant dense<0.000000e+00> : tensor<f32>
    %cst_0 = stablehlo.constant dense<0.000000e+00> : tensor<f32>
    %0 = stablehlo.multiply %cst, %cst_0 : tensor<f32>
    return %0 : tensor<f32>
  }
}

module {
  func.func @main() -> tensor<f32> {
    %cst = stablehlo.constant dense<0.000000e+00> : tensor<f32>
    %cst_0 = stablehlo.constant dense<0.000000e+00> : tensor<f32>
    %0 = stablehlo.divide %cst, %cst_0 : tensor<f32>
    return %0 : tensor<f32>
  }
}

module {
  func.func @main() -> tensor<1x48xf32> {
    %cst = stablehlo.constant dense<0.000000e+00> : tensor<1x288xf32>
    %0 = stablehlo.slice %cst [0:1, 144:192] : (tensor<1x288xf32>) -> tensor<1x48xf32>
    return %0 : tensor<1x48xf32>
  }
}

module {
  func.func @main() -> tensor<1x48xf32> {
    %cst = stablehlo.constant dense<0.000000e+00> : tensor<1x288xf32>
    %0 = stablehlo.slice %cst [0:1, 144:192] : (tensor<1x288xf32>) -> tensor<1x48xf32>
    return %0 : tensor<1x48xf32>
  }
}

module {
  func.func @main() -> tensor<2x48xf32> {
    %cst = stablehlo.constant dense<0.000000e+00> : tensor<1x48xf32>
    %cst_0 = stablehlo.constant dense<0.000000e+00> : tensor<1x48xf32>
    %0 = stablehlo.concatenate %cst, %cst_0, dim = 0 : (tensor<1x48xf32>, tensor<1x48xf32>) -> tensor<2x48xf32>
    return %0 : tensor<2x48xf32>
  }
}

module {
  func.func @main() -> tensor<48xf32> {
    %cst = stablehlo.constant dense<0.000000e+00> : tensor<2x48xf32>
    %cst_0 = stablehlo.constant dense<0.000000e+00> : tensor<2xf32>
    %0 = stablehlo.dot_general %cst, %cst_0, contracting_dims = [0] x [0], precision = [DEFAULT, DEFAULT] : (tensor<2x48xf32>, tensor<2xf32>) -> tensor<48xf32>
    return %0 : tensor<48xf32>
  }
}

module {
  func.func @main() -> tensor<48xf32> {
    %cst = stablehlo.constant dense<0.000000e+00> : tensor<288xf32>
    %0 = stablehlo.slice %cst [192:240] : (tensor<288xf32>) -> tensor<48xf32>
    return %0 : tensor<48xf32>
  }
}

module {
  func.func @main() -> tensor<1x48xf32> {
    %cst = stablehlo.constant dense<0.000000e+00> : tensor<1x288xf32>
    %0 = stablehlo.slice %cst [0:1, 192:240] : (tensor<1x288xf32>) -> tensor<1x48xf32>
    return %0 : tensor<1x48xf32>
  }
}

module {
  func.func @main() -> tensor<1x48xf32> {
    %cst = stablehlo.constant dense<0.000000e+00> : tensor<1x288xf32>
    %0 = stablehlo.slice %cst [0:1, 192:240] : (tensor<1x288xf32>) -> tensor<1x48xf32>
    return %0 : tensor<1x48xf32>
  }
}

module {
  func.func @main() -> tensor<2x48xf32> {
    %cst = stablehlo.constant dense<0.000000e+00> : tensor<1x48xf32>
    %cst_0 = stablehlo.constant dense<0.000000e+00> : tensor<1x48xf32>
    %0 = stablehlo.concatenate %cst, %cst_0, dim = 0 : (tensor<1x48xf32>, tensor<1x48xf32>) -> tensor<2x48xf32>
    return %0 : tensor<2x48xf32>
  }
}

module {
  func.func @main() -> tensor<2xf32> {
    %cst = stablehlo.constant dense<0.000000e+00> : tensor<2x48xf32>
    %cst_0 = stablehlo.constant dense<0.000000e+00> : tensor<48xf32>
    %0 = stablehlo.dot_general %cst, %cst_0, contracting_dims = [1] x [0], precision = [DEFAULT, DEFAULT] : (tensor<2x48xf32>, tensor<48xf32>) -> tensor<2xf32>
    return %0 : tensor<2xf32>
  }
}

module {
  func.func @main() -> tensor<2xf32> {
    %cst = stablehlo.constant dense<0.000000e+00> : tensor<2xf32>
    %cst_0 = stablehlo.constant dense<0.000000e+00> : tensor<2xf32>
    %0 = stablehlo.divide %cst, %cst_0 : tensor<2xf32>
    return %0 : tensor<2xf32>
  }
}

module {
  func.func @main() -> tensor<f32> {
    %cst = stablehlo.constant dense<0.000000e+00> : tensor<f32>
    %cst_0 = stablehlo.constant dense<0.000000e+00> : tensor<f32>
    %0 = stablehlo.maximum %cst, %cst_0 : tensor<f32>
    return %0 : tensor<f32>
  }
}

"builtin.module"() ({
  "func.func"() <{function_type = () -> (), sym_name = "main"}> ({
    %0 = "stablehlo.constant"() <{value = dense<0.000000e+00> : tensor<f32>}> : () -> tensor<f32>
    "stablehlo.return"(%0) : (tensor<f32>) -> ()
    "func.return"() : () -> ()
  }) : () -> ()
}) : () -> ()

module {
  func.func @main() -> tensor<f32> {
    %cst = stablehlo.constant dense<0.000000e+00> : tensor<2xf32>
    %cst_0 = stablehlo.constant dense<0.000000e+00> : tensor<f32>
    %0 = stablehlo.reduce(%cst init: %cst_0) applies stablehlo.maximum across dimensions = [0] : (tensor<2xf32>, tensor<f32>) -> tensor<f32>
    return %0 : tensor<f32>
  }
}

module {
  func.func @main() -> tensor<2xf32> {
    %cst = stablehlo.constant dense<0.000000e+00> : tensor<f32>
    %0 = stablehlo.broadcast_in_dim %cst, dims = [] : (tensor<f32>) -> tensor<2xf32>
    return %0 : tensor<2xf32>
  }
}

module {
  func.func @main() -> tensor<2xi1> {
    %cst = stablehlo.constant dense<0.000000e+00> : tensor<2xf32>
    %cst_0 = stablehlo.constant dense<0.000000e+00> : tensor<2xf32>
    %0 = stablehlo.compare  EQ, %cst, %cst_0,  FLOAT : (tensor<2xf32>, tensor<2xf32>) -> tensor<2xi1>
    return %0 : tensor<2xi1>
  }
}

module {
  func.func @main() -> tensor<2xf32> {
    %c = stablehlo.constant dense<false> : tensor<2xi1>
    %0 = stablehlo.convert %c : (tensor<2xi1>) -> tensor<2xf32>
    return %0 : tensor<2xf32>
  }
}

module {
  func.func @main() -> tensor<f32> {
    %cst = stablehlo.constant dense<0.000000e+00> : tensor<f32>
    %cst_0 = stablehlo.constant dense<0.000000e+00> : tensor<f32>
    %0 = stablehlo.add %cst, %cst_0 : tensor<f32>
    return %0 : tensor<f32>
  }
}

"builtin.module"() ({
  "func.func"() <{function_type = () -> (), sym_name = "main"}> ({
    %0 = "stablehlo.constant"() <{value = dense<0.000000e+00> : tensor<f32>}> : () -> tensor<f32>
    "stablehlo.return"(%0) : (tensor<f32>) -> ()
    "func.return"() : () -> ()
  }) : () -> ()
}) : () -> ()

module {
  func.func @main() -> tensor<f32> {
    %cst = stablehlo.constant dense<0.000000e+00> : tensor<2xf32>
    %cst_0 = stablehlo.constant dense<0.000000e+00> : tensor<f32>
    %0 = stablehlo.reduce(%cst init: %cst_0) applies stablehlo.add across dimensions = [0] : (tensor<2xf32>, tensor<f32>) -> tensor<f32>
    return %0 : tensor<f32>
  }
}

module {
  func.func @main() -> tensor<2xf32> {
    %cst = stablehlo.constant dense<0.000000e+00> : tensor<2xf32>
    %cst_0 = stablehlo.constant dense<0.000000e+00> : tensor<2xf32>
    %0 = stablehlo.subtract %cst, %cst_0 : tensor<2xf32>
    return %0 : tensor<2xf32>
  }
}

module {
  func.func @main() -> tensor<2xf32> {
    %cst = stablehlo.constant dense<0.000000e+00> : tensor<2xf32>
    %0 = stablehlo.exponential %cst : tensor<2xf32>
    return %0 : tensor<2xf32>
  }
}

module {
  func.func @main() -> tensor<1xf32> {
    %cst = stablehlo.constant dense<0.000000e+00> : tensor<2xf32>
    %0 = stablehlo.slice %cst [0:1] : (tensor<2xf32>) -> tensor<1xf32>
    return %0 : tensor<1xf32>
  }
}

module {
  func.func @main() -> tensor<f32> {
    %cst = stablehlo.constant dense<0.000000e+00> : tensor<1xf32>
    %0 = stablehlo.reshape %cst : (tensor<1xf32>) -> tensor<f32>
    return %0 : tensor<f32>
  }
}

module {
  func.func @main() -> tensor<1xf32> {
    %cst = stablehlo.constant dense<0.000000e+00> : tensor<2xf32>
    %0 = stablehlo.slice %cst [1:2] : (tensor<2xf32>) -> tensor<1xf32>
    return %0 : tensor<1xf32>
  }
}

module {
  func.func @main() -> tensor<f32> {
    %cst = stablehlo.constant dense<0.000000e+00> : tensor<1xf32>
    %0 = stablehlo.reshape %cst : (tensor<1xf32>) -> tensor<f32>
    return %0 : tensor<f32>
  }
}

module {
  func.func @main() -> tensor<f32> {
    %cst = stablehlo.constant dense<0.000000e+00> : tensor<f32>
    %cst_0 = stablehlo.constant dense<0.000000e+00> : tensor<f32>
    %0 = stablehlo.add %cst, %cst_0 : tensor<f32>
    return %0 : tensor<f32>
  }
}

module {
  func.func @main() -> tensor<2xf32> {
    %cst = stablehlo.constant dense<0.000000e+00> : tensor<f32>
    %0 = stablehlo.broadcast_in_dim %cst, dims = [] : (tensor<f32>) -> tensor<2xf32>
    return %0 : tensor<2xf32>
  }
}

module {
  func.func @main() -> tensor<2xf32> {
    %cst = stablehlo.constant dense<0.000000e+00> : tensor<2xf32>
    %cst_0 = stablehlo.constant dense<0.000000e+00> : tensor<2xf32>
    %0 = stablehlo.divide %cst, %cst_0 : tensor<2xf32>
    return %0 : tensor<2xf32>
  }
}

module {
  func.func @main() -> tensor<f32> {
    %cst = stablehlo.constant dense<0.000000e+00> : tensor<f32>
    %cst_0 = stablehlo.constant dense<0.000000e+00> : tensor<f32>
    %0 = stablehlo.multiply %cst, %cst_0 : tensor<f32>
    return %0 : tensor<f32>
  }
}

module {
  func.func @main() -> tensor<f32> {
    %cst = stablehlo.constant dense<0.000000e+00> : tensor<f32>
    %cst_0 = stablehlo.constant dense<0.000000e+00> : tensor<f32>
    %0 = stablehlo.divide %cst, %cst_0 : tensor<f32>
    return %0 : tensor<f32>
  }
}

module {
  func.func @main() -> tensor<1x48xf32> {
    %cst = stablehlo.constant dense<0.000000e+00> : tensor<1x288xf32>
    %0 = stablehlo.slice %cst [0:1, 192:240] : (tensor<1x288xf32>) -> tensor<1x48xf32>
    return %0 : tensor<1x48xf32>
  }
}

module {
  func.func @main() -> tensor<1x48xf32> {
    %cst = stablehlo.constant dense<0.000000e+00> : tensor<1x288xf32>
    %0 = stablehlo.slice %cst [0:1, 192:240] : (tensor<1x288xf32>) -> tensor<1x48xf32>
    return %0 : tensor<1x48xf32>
  }
}

module {
  func.func @main() -> tensor<2x48xf32> {
    %cst = stablehlo.constant dense<0.000000e+00> : tensor<1x48xf32>
    %cst_0 = stablehlo.constant dense<0.000000e+00> : tensor<1x48xf32>
    %0 = stablehlo.concatenate %cst, %cst_0, dim = 0 : (tensor<1x48xf32>, tensor<1x48xf32>) -> tensor<2x48xf32>
    return %0 : tensor<2x48xf32>
  }
}

module {
  func.func @main() -> tensor<48xf32> {
    %cst = stablehlo.constant dense<0.000000e+00> : tensor<2x48xf32>
    %cst_0 = stablehlo.constant dense<0.000000e+00> : tensor<2xf32>
    %0 = stablehlo.dot_general %cst, %cst_0, contracting_dims = [0] x [0], precision = [DEFAULT, DEFAULT] : (tensor<2x48xf32>, tensor<2xf32>) -> tensor<48xf32>
    return %0 : tensor<48xf32>
  }
}

module {
  func.func @main() -> tensor<48xf32> {
    %cst = stablehlo.constant dense<0.000000e+00> : tensor<288xf32>
    %0 = stablehlo.slice %cst [240:288] : (tensor<288xf32>) -> tensor<48xf32>
    return %0 : tensor<48xf32>
  }
}

module {
  func.func @main() -> tensor<1x48xf32> {
    %cst = stablehlo.constant dense<0.000000e+00> : tensor<1x288xf32>
    %0 = stablehlo.slice %cst [0:1, 240:288] : (tensor<1x288xf32>) -> tensor<1x48xf32>
    return %0 : tensor<1x48xf32>
  }
}

module {
  func.func @main() -> tensor<1x48xf32> {
    %cst = stablehlo.constant dense<0.000000e+00> : tensor<1x288xf32>
    %0 = stablehlo.slice %cst [0:1, 240:288] : (tensor<1x288xf32>) -> tensor<1x48xf32>
    return %0 : tensor<1x48xf32>
  }
}

module {
  func.func @main() -> tensor<2x48xf32> {
    %cst = stablehlo.constant dense<0.000000e+00> : tensor<1x48xf32>
    %cst_0 = stablehlo.constant dense<0.000000e+00> : tensor<1x48xf32>
    %0 = stablehlo.concatenate %cst, %cst_0, dim = 0 : (tensor<1x48xf32>, tensor<1x48xf32>) -> tensor<2x48xf32>
    return %0 : tensor<2x48xf32>
  }
}

module {
  func.func @main() -> tensor<2xf32> {
    %cst = stablehlo.constant dense<0.000000e+00> : tensor<2x48xf32>
    %cst_0 = stablehlo.constant dense<0.000000e+00> : tensor<48xf32>
    %0 = stablehlo.dot_general %cst, %cst_0, contracting_dims = [1] x [0], precision = [DEFAULT, DEFAULT] : (tensor<2x48xf32>, tensor<48xf32>) -> tensor<2xf32>
    return %0 : tensor<2xf32>
  }
}

module {
  func.func @main() -> tensor<2xf32> {
    %cst = stablehlo.constant dense<0.000000e+00> : tensor<2xf32>
    %cst_0 = stablehlo.constant dense<0.000000e+00> : tensor<2xf32>
    %0 = stablehlo.divide %cst, %cst_0 : tensor<2xf32>
    return %0 : tensor<2xf32>
  }
}

module {
  func.func @main() -> tensor<f32> {
    %cst = stablehlo.constant dense<0.000000e+00> : tensor<f32>
    %cst_0 = stablehlo.constant dense<0.000000e+00> : tensor<f32>
    %0 = stablehlo.maximum %cst, %cst_0 : tensor<f32>
    return %0 : tensor<f32>
  }
}

"builtin.module"() ({
  "func.func"() <{function_type = () -> (), sym_name = "main"}> ({
    %0 = "stablehlo.constant"() <{value = dense<0.000000e+00> : tensor<f32>}> : () -> tensor<f32>
    "stablehlo.return"(%0) : (tensor<f32>) -> ()
    "func.return"() : () -> ()
  }) : () -> ()
}) : () -> ()

module {
  func.func @main() -> tensor<f32> {
    %cst = stablehlo.constant dense<0.000000e+00> : tensor<2xf32>
    %cst_0 = stablehlo.constant dense<0.000000e+00> : tensor<f32>
    %0 = stablehlo.reduce(%cst init: %cst_0) applies stablehlo.maximum across dimensions = [0] : (tensor<2xf32>, tensor<f32>) -> tensor<f32>
    return %0 : tensor<f32>
  }
}

module {
  func.func @main() -> tensor<2xf32> {
    %cst = stablehlo.constant dense<0.000000e+00> : tensor<f32>
    %0 = stablehlo.broadcast_in_dim %cst, dims = [] : (tensor<f32>) -> tensor<2xf32>
    return %0 : tensor<2xf32>
  }
}

module {
  func.func @main() -> tensor<2xi1> {
    %cst = stablehlo.constant dense<0.000000e+00> : tensor<2xf32>
    %cst_0 = stablehlo.constant dense<0.000000e+00> : tensor<2xf32>
    %0 = stablehlo.compare  EQ, %cst, %cst_0,  FLOAT : (tensor<2xf32>, tensor<2xf32>) -> tensor<2xi1>
    return %0 : tensor<2xi1>
  }
}

module {
  func.func @main() -> tensor<2xf32> {
    %c = stablehlo.constant dense<false> : tensor<2xi1>
    %0 = stablehlo.convert %c : (tensor<2xi1>) -> tensor<2xf32>
    return %0 : tensor<2xf32>
  }
}

module {
  func.func @main() -> tensor<f32> {
    %cst = stablehlo.constant dense<0.000000e+00> : tensor<f32>
    %cst_0 = stablehlo.constant dense<0.000000e+00> : tensor<f32>
    %0 = stablehlo.add %cst, %cst_0 : tensor<f32>
    return %0 : tensor<f32>
  }
}

"builtin.module"() ({
  "func.func"() <{function_type = () -> (), sym_name = "main"}> ({
    %0 = "stablehlo.constant"() <{value = dense<0.000000e+00> : tensor<f32>}> : () -> tensor<f32>
    "stablehlo.return"(%0) : (tensor<f32>) -> ()
    "func.return"() : () -> ()
  }) : () -> ()
}) : () -> ()

module {
  func.func @main() -> tensor<f32> {
    %cst = stablehlo.constant dense<0.000000e+00> : tensor<2xf32>
    %cst_0 = stablehlo.constant dense<0.000000e+00> : tensor<f32>
    %0 = stablehlo.reduce(%cst init: %cst_0) applies stablehlo.add across dimensions = [0] : (tensor<2xf32>, tensor<f32>) -> tensor<f32>
    return %0 : tensor<f32>
  }
}

module {
  func.func @main() -> tensor<2xf32> {
    %cst = stablehlo.constant dense<0.000000e+00> : tensor<2xf32>
    %cst_0 = stablehlo.constant dense<0.000000e+00> : tensor<2xf32>
    %0 = stablehlo.subtract %cst, %cst_0 : tensor<2xf32>
    return %0 : tensor<2xf32>
  }
}

module {
  func.func @main() -> tensor<2xf32> {
    %cst = stablehlo.constant dense<0.000000e+00> : tensor<2xf32>
    %0 = stablehlo.exponential %cst : tensor<2xf32>
    return %0 : tensor<2xf32>
  }
}

module {
  func.func @main() -> tensor<1xf32> {
    %cst = stablehlo.constant dense<0.000000e+00> : tensor<2xf32>
    %0 = stablehlo.slice %cst [0:1] : (tensor<2xf32>) -> tensor<1xf32>
    return %0 : tensor<1xf32>
  }
}

module {
  func.func @main() -> tensor<f32> {
    %cst = stablehlo.constant dense<0.000000e+00> : tensor<1xf32>
    %0 = stablehlo.reshape %cst : (tensor<1xf32>) -> tensor<f32>
    return %0 : tensor<f32>
  }
}

module {
  func.func @main() -> tensor<1xf32> {
    %cst = stablehlo.constant dense<0.000000e+00> : tensor<2xf32>
    %0 = stablehlo.slice %cst [1:2] : (tensor<2xf32>) -> tensor<1xf32>
    return %0 : tensor<1xf32>
  }
}

module {
  func.func @main() -> tensor<f32> {
    %cst = stablehlo.constant dense<0.000000e+00> : tensor<1xf32>
    %0 = stablehlo.reshape %cst : (tensor<1xf32>) -> tensor<f32>
    return %0 : tensor<f32>
  }
}

module {
  func.func @main() -> tensor<f32> {
    %cst = stablehlo.constant dense<0.000000e+00> : tensor<f32>
    %cst_0 = stablehlo.constant dense<0.000000e+00> : tensor<f32>
    %0 = stablehlo.add %cst, %cst_0 : tensor<f32>
    return %0 : tensor<f32>
  }
}

module {
  func.func @main() -> tensor<2xf32> {
    %cst = stablehlo.constant dense<0.000000e+00> : tensor<f32>
    %0 = stablehlo.broadcast_in_dim %cst, dims = [] : (tensor<f32>) -> tensor<2xf32>
    return %0 : tensor<2xf32>
  }
}

module {
  func.func @main() -> tensor<2xf32> {
    %cst = stablehlo.constant dense<0.000000e+00> : tensor<2xf32>
    %cst_0 = stablehlo.constant dense<0.000000e+00> : tensor<2xf32>
    %0 = stablehlo.divide %cst, %cst_0 : tensor<2xf32>
    return %0 : tensor<2xf32>
  }
}

module {
  func.func @main() -> tensor<f32> {
    %cst = stablehlo.constant dense<0.000000e+00> : tensor<f32>
    %cst_0 = stablehlo.constant dense<0.000000e+00> : tensor<f32>
    %0 = stablehlo.multiply %cst, %cst_0 : tensor<f32>
    return %0 : tensor<f32>
  }
}

module {
  func.func @main() -> tensor<f32> {
    %cst = stablehlo.constant dense<0.000000e+00> : tensor<f32>
    %cst_0 = stablehlo.constant dense<0.000000e+00> : tensor<f32>
    %0 = stablehlo.divide %cst, %cst_0 : tensor<f32>
    return %0 : tensor<f32>
  }
}

module {
  func.func @main() -> tensor<1x48xf32> {
    %cst = stablehlo.constant dense<0.000000e+00> : tensor<1x288xf32>
    %0 = stablehlo.slice %cst [0:1, 240:288] : (tensor<1x288xf32>) -> tensor<1x48xf32>
    return %0 : tensor<1x48xf32>
  }
}

module {
  func.func @main() -> tensor<1x48xf32> {
    %cst = stablehlo.constant dense<0.000000e+00> : tensor<1x288xf32>
    %0 = stablehlo.slice %cst [0:1, 240:288] : (tensor<1x288xf32>) -> tensor<1x48xf32>
    return %0 : tensor<1x48xf32>
  }
}

module {
  func.func @main() -> tensor<2x48xf32> {
    %cst = stablehlo.constant dense<0.000000e+00> : tensor<1x48xf32>
    %cst_0 = stablehlo.constant dense<0.000000e+00> : tensor<1x48xf32>
    %0 = stablehlo.concatenate %cst, %cst_0, dim = 0 : (tensor<1x48xf32>, tensor<1x48xf32>) -> tensor<2x48xf32>
    return %0 : tensor<2x48xf32>
  }
}

module {
  func.func @main() -> tensor<48xf32> {
    %cst = stablehlo.constant dense<0.000000e+00> : tensor<2x48xf32>
    %cst_0 = stablehlo.constant dense<0.000000e+00> : tensor<2xf32>
    %0 = stablehlo.dot_general %cst, %cst_0, contracting_dims = [0] x [0], precision = [DEFAULT, DEFAULT] : (tensor<2x48xf32>, tensor<2xf32>) -> tensor<48xf32>
    return %0 : tensor<48xf32>
  }
}

module {
  func.func @main() -> tensor<288xf32> {
    %cst = stablehlo.constant dense<0.000000e+00> : tensor<48xf32>
    %cst_0 = stablehlo.constant dense<0.000000e+00> : tensor<48xf32>
    %cst_1 = stablehlo.constant dense<0.000000e+00> : tensor<48xf32>
    %cst_2 = stablehlo.constant dense<0.000000e+00> : tensor<48xf32>
    %cst_3 = stablehlo.constant dense<0.000000e+00> : tensor<48xf32>
    %cst_4 = stablehlo.constant dense<0.000000e+00> : tensor<48xf32>
    %0 = stablehlo.concatenate %cst, %cst_0, %cst_1, %cst_2, %cst_3, %cst_4, dim = 0 : (tensor<48xf32>, tensor<48xf32>, tensor<48xf32>, tensor<48xf32>, tensor<48xf32>, tensor<48xf32>) -> tensor<288xf32>
    return %0 : tensor<288xf32>
  }
}

module {
  func.func @main() -> tensor<1x288x288xf32> {
    %cst = stablehlo.constant dense<0.000000e+00> : tensor<6x288x288xf32>
    %0 = stablehlo.slice %cst [0:1, 0:288, 0:288] : (tensor<6x288x288xf32>) -> tensor<1x288x288xf32>
    return %0 : tensor<1x288x288xf32>
  }
}

module {
  func.func @main() -> tensor<288x288xf32> {
    %cst = stablehlo.constant denlehlo.slice
Verifying module
Operation name: stablehlo.slice
Verifying module
Operation name: stablehlo.concatenate
Verifying module
Operation name: stablehlo.dot_general
Verifying module
Operation name: stablehlo.slice
Verifying module
Operation name: stablehlo.slice
Verifying module
Operation name: stablehlo.slice
Verifying module
Operation name: stablehlo.concatenate
Verifying module
Operation name: stablehlo.dot_general
Verifying module
Operation name: stablehlo.divide
Verifying module
Operation name: stablehlo.maximum
Verifying module
Operation name: stablehlo.return
Verifying module
Operation name: stablehlo.reduce
Verifying module
Operation name: stablehlo.broadcast_in_dim
Verifying module
Operation name: stablehlo.compare
Verifying module
Operation name: stablehlo.convert
Verifying module
Operation name: stablehlo.add
Verifying module
Operation name: stablehlo.return
Verifying module
Operation name: stablehlo.reduce
Verifying module
Operation name: stablehlo.subtract
Verifying module
Operation name: stablehlo.exponential
Verifying module
Operation name: stablehlo.slice
Verifying module
Operation name: stablehlo.reshape
Verifying module
Operation name: stablehlo.slice
Verifying module
Operation name: stablehlo.reshape
Verifying module
Operation name: stablehlo.add
Verifying module
Operation name: stablehlo.broadcast_in_dim
Verifying module
Operation name: stablehlo.divide
Verifying module
Operation name: stablehlo.multiply
Verifying module
Operation name: stablehlo.divide
Verifying module
Operation name: stablehlo.slice
Verifying module
Operation name: stablehlo.slice
Verifying module
Operation name: stablehlo.concatenate
Verifying module
Operation name: stablehlo.dot_general
Verifying module
Operation name: stablehlo.slice
Verifying module
Operation name: stablehlo.slice
Verifying module
Operation name: stablehlo.slice
Verifying module
Operation name: stablehlo.concatenate
Verifying module
Operation name: stablehlo.dot_general
Verifying module
Operation name: stablehlo.divide
Verifying module
Operation name: stablehlo.maximum
Verifying module
Operation name: stablehlo.return
Verifying module
Operation name: stablehlo.reduce
Verifying module
Operation name: stablehlo.broadcast_in_dim
Verifying module
Operation name: stablehlo.compare
Verifying module
Operation name: stablehlo.convert
Verifying module
Operation name: stablehlo.add
Verifying module
Operation name: stablehlo.return
Verifying module
Operation name: stablehlo.reduce
Verifying module
Operation name: stablehlo.subtract
Verifying module
Operation name: stablehlo.exponential
Verifying module
Operation name: stablehlo.slice
Verifying module
Operation name: stablehlo.reshape
Verifying module
Operation name: stablehlo.slice
Verifying module
Operation name: stablehlo.reshape
Verifying module
Operation name: stablehlo.add
Verifying module
Operation name: stablehlo.broadcast_in_dim
Verifying module
Operation name: stablehlo.divide
Verifying module
Operation name: stablehlo.multiply
Verifying module
Operation name: stablehlo.divide
Verifying module
Operation name: stablehlo.slice
Verifying module
Operation name: stablehlo.slice
Verifying module
Operation name: stablehlo.concatenate
Verifying module
Operation name: stablehlo.dot_general
Verifying module
Operation name: stablehlo.concatenate
Verifying module
Operation name: stablehlo.slice
Verifying module
Operation name: stablehlo.reshape
Verifying module
Operation name: stablehlo.dot_general
Verifying module
Operation name: stablehlo.add
Verifying module
Operation name: stablehlo.slice
Verifying module
Operation name: stablehlo.reshape
Verifying module
Operation name: stablehlo.dot_general
Verifying module
Operation name: stablehlo.divide
Verifying module
Operation name: stablehlo.add
Verifying module
Operation name: stablehlo.sqrt
Verifying module
Operation name: stablehlo.divide
Verifying module
Operation name: stablehlo.divide
Verifying module
Operation name: stablehlo.multiply
Verifying module
Operation name: stablehlo.divide
Verifying module
Operation name: stablehlo.multiply
Verifying module
Operation name:se<0.000000e+00> : tensor<1x288x288xf32>
    %0 = stablehlo.reshape %cst : (tensor<1x288x288xf32>) -> tensor<288x288xf32>
    return %0 : tensor<288x288xf32>
  }
}

module {
  func.func @main() -> tensor<288xf32> {
    %cst = stablehlo.constant dense<0.000000e+00> : tensor<288x288xf32>
    %cst_0 = stablehlo.constant dense<0.000000e+00> : tensor<288xf32>
    %0 = stablehlo.dot_general %cst, %cst_0, contracting_dims = [1] x [0], precision = [DEFAULT, DEFAULT] : (tensor<288x288xf32>, tensor<288xf32>) -> tensor<288xf32>
    return %0 : tensor<288xf32>
  }
}

module {
  func.func @main() -> tensor<288xf32> {
    %cst = stablehlo.constant dense<0.000000e+00> : tensor<288xf32>
    %cst_0 = stablehlo.constant dense<0.000000e+00> : tensor<288xf32>
    %0 = stablehlo.add %cst, %cst_0 : tensor<288xf32>
    return %0 : tensor<288xf32>
  }
}

module {
  func.func @main() -> tensor<1x288xf32> {
    %cst = stablehlo.constant dense<0.000000e+00> : tensor<6x288xf32>
    %0 = stablehlo.slice %cst [0:1, 0:288] : (tensor<6x288xf32>) -> tensor<1x288xf32>
    return %0 : tensor<1x288xf32>
  }
}

module {
  func.func @main() -> tensor<288xf32> {
    %cst = stablehlo.constant dense<0.000000e+00> : tensor<1x288xf32>
    %0 = stablehlo.reshape %cst : (tensor<1x288xf32>) -> tensor<288xf32>
    return %0 : tensor<288xf32>
  }
}

module {
  func.func @main() -> tensor<f32> {
    %cst = stablehlo.constant dense<0.000000e+00> : tensor<288xf32>
    %cst_0 = stablehlo.constant dense<0.000000e+00> : tensor<288xf32>
    %0 = stablehlo.dot_general %cst, %cst_0, contracting_dims = [0] x [0], precision = [DEFAULT, DEFAULT] : (tensor<288xf32>, tensor<288xf32>) -> tensor<f32>
    return %0 : tensor<f32>
  }
}

module {
  func.func @main() -> tensor<f32> {
    %cst = stablehlo.constant dense<0.000000e+00> : tensor<f32>
    %cst_0 = stablehlo.constant dense<0.000000e+00> : tensor<f32>
    %0 = stablehlo.divide %cst, %cst_0 : tensor<f32>
    return %0 : tensor<f32>
  }
}

module {
  func.func @main() -> tensor<f32> {
    %cst = stablehlo.constant dense<0.000000e+00> : tensor<f32>
    %cst_0 = stablehlo.constant dense<0.000000e+00> : tensor<f32>
    %0 = stablehlo.add %cst, %cst_0 : tensor<f32>
    return %0 : tensor<f32>
  }
}

module {
  func.func @main() -> tensor<f32> {
    %cst = stablehlo.constant dense<0.000000e+00> : tensor<f32>
    %0 = stablehlo.sqrt %cst : tensor<f32>
    return %0 : tensor<f32>
  }
}

module {
  func.func @main() -> tensor<f32> {
    %cst = stablehlo.constant dense<0.000000e+00> : tensor<f32>
    %cst_0 = stablehlo.constant dense<0.000000e+00> : tensor<f32>
    %0 = stablehlo.divide %cst, %cst_0 : tensor<f32>
    return %0 : tensor<f32>
  }
}

module {
  func.func @main() -> tensor<f32> {
    %cst = stablehlo.constant dense<0.000000e+00> : tensor<f32>
    %cst_0 = stablehlo.constant dense<0.000000e+00> : tensor<f32>
    %0 = stablehlo.divide %cst, %cst_0 : tensor<f32>
    return %0 : tensor<f32>
  }
}

module {
  func.func @main() -> tensor<f32> {
    %cst = stablehlo.constant dense<0.000000e+00> : tensor<f32>
    %cst_0 = stablehlo.constant dense<0.000000e+00> : tensor<f32>
    %0 = stablehlo.multiply %cst, %cst_0 : tensor<f32>
    return %0 : tensor<f32>
  }
}

module {
  func.func @main() -> tensor<f32> {
    %cst = stablehlo.constant dense<0.000000e+00> : tensor<f32>
    %cst_0 = stablehlo.constant dense<0.000000e+00> : tensor<f32>
    %0 = stablehlo.divide %cst, %cst_0 : tensor<f32>
    return %0 : tensor<f32>
  }
}

module {
  func.func @main() -> tensor<288xf32> {
    %cst = stablehlo.constant dense<0.000000e+00> : tensor<288xf32>
    %cst_0 = stablehlo.constant dense<0.000000e+00> : tensor<288xf32>
    %0 = stablehlo.multiply %cst, %cst_0 : tensor<288xf32>
    return %0 : tensor<288xf32>
  }
}

module {
  func.func @main() -> tensor<288xf32> {
    %cst = stablehlo.constant dense<0.000000e+00> : tensor<f32>
    %0 = stablehlo.broadcast_in_dim %cst, dims = [] : (tensor<f32>) -> tensor<288xf32>
    return %0 : tensor<288xf32>
  }
}

module {
  func.func @main() -> tensor<288xf32> {
    %cst = stablehlo.constant dense<0.000000e+00> : tensor<288xf32>
    %cst_0 = stablehlo.constant dense<0.000000e+00> : tensor<288xf32>
    %0 = stablehlo.multiply %cst, %cst_0 : tensor<288xf32>
    return %0 : tensor<288xf32>
  }
}

module {
  func.func @main() -> tensor<1x768x288xf32> {
    %cst = stablehlo.constant dense<0.000000e+00> : tensor<6x768x288xf32>
    %0 = stablehlo.slice %cst [0:1, 0:768, 0:288] : (tensor<6x768x288xf32>) -> tensor<1x768x288xf32>
    return %0 : tensor<1x768x288xf32>
  }
}

module {
  func.func @main() -> tensor<768x288xf32> {
    %cst = stablehlo.constant dense<0.000000e+00> : tensor<1x768x288xf32>
    %0 = stablehlo.reshape %cst : (tensor<1x768x288xf32>) -> tensor<768x288xf32>
    return %0 : tensor<768x288xf32>
  }
}

module {
  func.func @main() -> tensor<768xf32> {
    %cst = stablehlo.constant dense<0.000000e+00> : tensor<768x288xf32>
    %cst_0 = stablehlo.constant dense<0.000000e+00> : tensor<288xf32>
    %0 = stablehlo.dot_general %cst, %cst_0, contracting_dims = [1] x [0], precision = [DEFAULT, DEFAULT] : (tensor<768x288xf32>, tensor<288xf32>) -> tensor<768xf32>
    return %0 : tensor<768xf32>
  }
}

module {
  func.func @main() -> tensor<1x768x288xf32> {
    %cst = stablehlo.constant dense<0.000000e+00> : tensor<6x768x288xf32>
    %0 = stablehlo.slice %cst [0:1, 0:768, 0:288] : (tensor<6x768x288xf32>) -> tensor<1x768x288xf32>
    return %0 : tensor<1x768x288xf32>
  }
}

module {
  func.func @main() -> tensor<768x288xf32> {
    %cst = stablehlo.constant dense<0.000000e+00> : tensor<1x768x288xf32>
    %0 = stablehlo.reshape %cst : (tensor<1x768x288xf32>) -> tensor<768x288xf32>
    return %0 : tensor<768x288xf32>
  }
}

module {
  func.func @main() -> tensor<768xf32> {
    %cst = stablehlo.constant dense<0.000000e+00> : tensor<768x288xf32>
    %cst_0 = stablehlo.constant dense<0.000000e+00> : tensor<288xf32>
    %0 = stablehlo.dot_general %cst, %cst_0, contracting_dims = [1] x [0], precision = [DEFAULT, DEFAULT] : (tensor<768x288xf32>, tensor<288xf32>) -> tensor<768xf32>
    return %0 : tensor<768xf32>
  }
}

module {
  func.func @main() -> tensor<768xf32> {
    %cst = stablehlo.constant dense<0.000000e+00> : tensor<768xf32>
    %0 = stablehlo.negate %cst : tensor<768xf32>
    return %0 : tensor<768xf32>
  }
}

module {
  func.func @main() -> tensor<768xf32> {
    %cst = stablehlo.constant dense<0.000000e+00> : tensor<768xf32>
    %0 = stablehlo.exponential %cst : tensor<768xf32>
    return %0 : tensor<768xf32>
  }
}

module {
  func.func @main() -> tensor<768xf32> {
    %cst = stablehlo.constant dense<0.000000e+00> : tensor<768xf32>
    %cst_0 = stablehlo.constant dense<0.000000e+00> : tensor<768xf32>
    %0 = stablehlo.add %cst, %cst_0 : tensor<768xf32>
    return %0 : tensor<768xf32>
  }
}

module {
  func.func @main() -> tensor<768xf32> {
    %cst = stablehlo.constant dense<0.000000e+00> : tensor<768xf32>
    %cst_0 = stablehlo.constant dense<0.000000e+00> : tensor<768xf32>
    %0 = stablehlo.divide %cst, %cst_0 : tensor<768xf32>
    return %0 : tensor<768xf32>
  }
}

module {
  func.func @main() -> tensor<768xf32> {
    %cst = stablehlo.constant dense<0.000000e+00> : tensor<768xf32>
    %cst_0 = stablehlo.constant dense<0.000000e+00> : tensor<768xf32>
    %0 = stablehlo.multiply %cst, %cst_0 : tensor<768xf32>
    return %0 : tensor<768xf32>
  }
}

module {
  func.func @main() -> tensor<768xf32> {
    %cst = stablehlo.constant dense<0.000000e+00> : tensor<768xf32>
    %cst_0 = stablehlo.constant dense<0.000000e+00> : tensor<768xf32>
    %0 = stablehlo.divide %cst, %cst_0 : tensor<768xf32>
    return %0 : tensor<768xf32>
  }
}

module {
  func.func @main() -> tensor<768xf32> {
    %cst = stablehlo.constant dense<0.000000e+00> : tensor<768xf32>
    %cst_0 = stablehlo.constant dense<0.000000e+00> : tensor<768xf32>
    %0 = stablehlo.multiply %cst, %cst_0 : tensor<768xf32>
    return %0 : tensor<768xf32>
  }
}

module {
  func.func @main() -> tensor<768xf32> {
    %cst = stablehlo.constant dense<0.000000e+00> : tensor<768xf32>
    %cst_0 = stablehlo.constant dense<0.000000e+00> : tensor<768xf32>
    %0 = stablehlo.multiply %cst, %cst_0 : tensor<768xf32>
    return %0 : tensor<768xf32>
  }
}

module {
  func.func @main() -> tensor<1x288x768xf32> {
    %cst = stablehlo.constant dense<0.000000e+00> : tensor<6x288x768xf32>
    %0 = stablehlo.slice %cst [0:1, 0:288, 0:768] : (tensor<6x288x768xf32>) -> tensor<1x288x768xf32>
    return %0 : tensor<1x288x768xf32>
  }
}

module {
  func.func @main() -> tensor<288x768xf32> {
    %cst = stablehlo.constant dense<0.000000e+00> : tensor<1x288x768xf32>
    %0 = stablehlo.reshape %cst : (tensor<1x288x768xf32>) -> tensor<288x768xf32>
    return %0 : tensor<288x768xf32>
  }
}

module {
  func.func @main() -> tensor<288xf32> {
    %cst = stablehlo.constant dense<0.000000e+00> : tensor<288x768xf32>
    %cst_0 = stablehlo.constant dense<0.000000e+00> : tensor<768xf32>
    %0 = stablehlo.dot_general %cst, %cst_0, contracting_dims = [1] x [0], precision = [DEFAULT, DEFAULT] : (tensor<288x768xf32>, tensor<768xf32>) -> tensor<288xf32>
    return %0 : tensor<288xf32>
  }
}

module {
  func.func @main() -> tensor<288xf32> {
    %cst = stablehlo.constant dense<0.000000e+00> : tensor<288xf32>
    %cst_0 = stablehlo.constant dense<0.000000e+00> : tensor<288xf32>
    %0 = stablehlo.add %cst, %cst_0 : tensor<288xf32>
    return %0 : tensor<288xf32>
  }
}

module {
  func.func @main() -> tensor<1x288xf32> {
    %cst = stablehlo.constant dense<0.000000e+00> : tensor<6x288xf32>
    %0 = stablehlo.slice %cst [1:2, 0:288] : (tensor<6x288xf32>) -> tensor<1x288xf32>
    return %0 : tensor<1x288xf32>
  }
}

module {
  func.func @main() -> tensor<288xf32> {
    %cst = stablehlo.constant dense<0.000000e+00> : tensor<1x288xf32>
    %0 = stablehlo.reshape %cst : (tensor<1x288xf32>) -> tensor<288xf32>
    return %0 : tensor<288xf32>
  }
}

module {
  func.func @main() -> tensor<f32> {
    %cst = stablehlo.constant dense<0.000000e+00> : tensor<288xf32>
    %cst_0 = stablehlo.constant dense<0.000000e+00> : tensor<288xf32>
    %0 = stablehlo.dot_general %cst, %cst_0, contracting_dims = [0] x [0], precision = [DEFAULT, DEFAULT] : (tensor<288xf32>, tensor<288xf32>) -> tensor<f32>
    return %0 : tensor<f32>
  }
}

module {
  func.func @main() -> tensor<f32> {
    %cst = stablehlo.constant dense<0.000000e+00> : tensor<f32>
    %cst_0 = stablehlo.constant dense<0.000000e+00> : tensor<f32>
    %0 = stablehlo.divide %cst, %cst_0 : tensor<f32>
    return %0 : tensor<f32>
  }
}

module {
  func.func @main() -> tensor<f32> {
    %cst = stablehlo.constant dense<0.000000e+00> : tensor<f32>
    %cst_0 = stablehlo.constant dense<0.000000e+00> : tensor<f32>
    %0 = stablehlo.add %cst, %cst_0 : tensor<f32>
    return %0 : tensor<f32>
  }
}

module {
  func.func @main() -> tensor<f32> {
    %cst = stablehlo.constant dense<0.000000e+00> : tensor<f32>
    %0 = stablehlo.sqrt %cst : tensor<f32>
    return %0 : tensor<f32>
  }
}

module {
  func.func @main() -> tensor<f32> {
    %cst = stablehlo.constant dense<0.000000e+00> : tensor<f32>
    %cst_0 = stablehlo.constant dense<0.000000e+00> : tensor<f32>
    %0 = stablehlo.divide %cst, %cst_0 : tensor<f32>
    return %0 : tensor<f32>
  }
}

module {
  func.func @main() -> tensor<f32> {
    %cst = stablehlo.constant dense<0.000000e+00> : tensor<f32>
    %cst_0 = stablehlo.constant dense<0.000000e+00> : tensor<f32>
    %0 = stablehlo.divide %cst, %cst_0 : tensor<f32>
    return %0 : tensor<f32>
  }
}

module {
  func.func @main() -> tensor<f32> {
    %cst = stablehlo.constant dense<0.000000e+00> : tensor<f32>
    %cst_0 = stablehlo.constant dense<0.000000e+00> : tensor<f32>
    %0 = stablehlo.multiply %cst, %cst_0 : tensor<f32>
    return %0 : tensor<f32>
  }
}

module {
  func.func @main() -> tensor<f32> {
    %cst = stablehlo.constant dense<0.000000e+00> : tensor<f32>
    %cst_0 = stablehlo.constant dense<0.000000e+00> : tensor<f32>
    %0 = stablehlo.divide %cst, %cst_0 : tensor<f32>
    return %0 : tensor<f32>
  }
}

module {
  func.func @main() -> tensor<288xf32> {
    %cst = stablehlo.constant dense<0.000000e+00> : tensor<288xf32>
    %cst_0 = stablehlo.constant dense<0.000000e+00> : tensor<288xf32>
    %0 = stablehlo.multiply %cst, %cst_0 : tensor<288xf32>
    return %0 : tensor<288xf32>
  }
}

module {
  func.func @main() -> tensor<288xf32> {
    %cst = stablehlo.constant dense<0.000000e+00> : tensor<f32>
    %0 = stablehlo.broadcast_in_dim %cst, dims = [] : (tensor<f32>) -> tensor<288xf32>
    return %0 : tensor<288xf32>
  }
}

module {
  func.func @main() -> tensor<288xf32> {
    %cst = stablehlo.constant dense<0.000000e+00> : tensor<288xf32>
    %cst_0 = stablehlo.constant dense<0.000000e+00> : tensor<288xf32>
    %0 = stablehlo.multiply %cst, %cst_0 : tensor<288xf32>
    return %0 : tensor<288xf32>
  }
}

module {
  func.func @main() -> tensor<1x288x288xf32> {
    %cst = stablehlo.constant dense<0.000000e+00> : tensor<6x288x288xf32>
    %0 = stablehlo.slice %cst [1:2, 0:288, 0:288] : (tensor<6x288x288xf32>) -> tensor<1x288x288xf32>
    return %0 : tensor<1x288x288xf32>
  }
}

module {
  func.func @main() -> tensor<288x288xf32> {
    %cst = stablehlo.constant dense<0.000000e+00> : tensor<1x288x288xf32>
    %0 = stablehlo.reshape %cst : (tensor<1x288x288xf32>) -> tensor<288x288xf32>
    return %0 : tensor<288x288xf32>
  }
}

module {
  func.func @main() -> tensor<288xf32> {
    %cst = stablehlo.constant dense<0.000000e+00> : tensor<288x288xf32>
    %cst_0 = stablehlo.constant dense<0.000000e+00> : tensor<288xf32>
    %0 = stablehlo.dot_general %cst, %cst_0, contracting_dims = [1] x [0], precision = [DEFAULT, DEFAULT] : (tensor<288x288xf32>, tensor<288xf32>) -> tensor<288xf32>
    return %0 : tensor<288xf32>
  }
}

module {
  func.func @main() -> tensor<1x288x288xf32> {
    %cst = stablehlo.constant dense<0.000000e+00> : tensor<6x288x288xf32>
    %0 = stablehlo.slice %cst [1:2, 0:288, 0:288] : (tensor<6x288x288xf32>) -> tensor<1x288x288xf32>
    return %0 : tensor<1x288x288xf32>
  }
}

module {
  func.func @main() -> tensor<288x288xf32> {
    %cst = stablehlo.constant dense<0.000000e+00> : tensor<1x288x288xf32>
    %0 = stablehlo.reshape %cst : (tensor<1x288x288xf32>) -> tensor<288x288xf32>
    return %0 : tensor<288x288xf32>
  }
}

module {
  func.func @main() -> tensor<288xf32> {
    %cst = stablehlo.constant dense<0.000000e+00> : tensor<288x288xf32>
    %cst_0 = stablehlo.constant dense<0.000000e+00> : tensor<288xf32>
    %0 = stablehlo.dot_general %cst, %cst_0, contracting_dims = [1] x [0], precision = [DEFAULT, DEFAULT] : (tensor<288x288xf32>, tensor<288xf32>) -> tensor<288xf32>
    return %0 : tensor<288xf32>
  }
}

module {
  func.func @main() -> tensor<1x288x288xf32> {
    %cst = stablehlo.constant dense<0.000000e+00> : tensor<6x288x288xf32>
    %0 = stablehlo.slice %cst [1:2, 0:288, 0:288] : (tensor<6x288x288xf32>) -> tensor<1x288x288xf32>
    return %0 : tensor<1x288x288xf32>
  }
}

module {
  func.func @main() -> tensor<288x288xf32> {
    %cst = stablehlo.constant dense<0.000000e+00> : tensor<1x288x288xf32>
    %0 = stablehlo.reshape %cst : (tensor<1x288x288xf32>) -> tensor<288x288xf32>
    return %0 : tensor<288x288xf32>
  }
}

module {
  func.func @main() -> tensor<288xf32> {
    %cst = stablehlo.constant dense<0.000000e+00> : tensor<288x288xf32>
    %cst_0 = stablehlo.constant dense<0.000000e+00> : tensor<288xf32>
    %0 = stablehlo.dot_general %cst, %cst_0, contracting_dims = [1] x [0], precision = [DEFAULT, DEFAULT] : (tensor<288x288xf32>, tensor<288xf32>) -> tensor<288xf32>
    return %0 : tensor<288xf32>
  }
}

module {
  func.func @main() -> tensor<144x2xf32> {
    %cst = stablehlo.constant dense<0.000000e+00> : tensor<288xf32>
    %0 = stablehlo.reshape %cst : (tensor<288xf32>) -> tensor<144x2xf32>
    return %0 : tensor<144x2xf32>
  }
}

module {
  func.func @main() -> tensor<144x2xf32> {
    %cst = stablehlo.constant dense<0.000000e+00> : tensor<288xf32>
    %0 = stablehlo.reshape %cst : (tensor<288xf32>) -> tensor<144x2xf32>
    return %0 : tensor<144x2xf32>
  }
}

module {
  func.func @main() -> tensor<144x2xf32> {
    %cst = stablehlo.constant dense<0.000000e+00> : tensor<144x2x2xf32>
    %cst_0 = stablehlo.constant dense<0.000000e+00> : tensor<144x2xf32>
    %0 = stablehlo.dot_general %cst, %cst_0, batching_dims = [0] x [0], contracting_dims = [2] x [1], precision = [DEFAULT, DEFAULT] : (tensor<144x2x2xf32>, tensor<144x2xf32>) -> tensor<144x2xf32>
    return %0 : tensor<144x2xf32>
  }
}

module {
  func.func @main() -> tensor<144x2xf32> {
    %cst = stablehlo.constant dense<0.000000e+00> : tensor<144x2x2xf32>
    %cst_0 = stablehlo.constant dense<0.000000e+00> : tensor<144x2xf32>
    %0 = stablehlo.dot_general %cst, %cst_0, batching_dims = [0] x [0], contracting_dims = [2] x [1], precision = [DEFAULT, DEFAULT] : (tensor<144x2x2xf32>, tensor<144x2xf32>) -> tensor<144x2xf32>
    return %0 : tensor<144x2xf32>
  }
}

module {
  func.func @main() -> tensor<288xf32> {
    %cst = stablehlo.constant dense<0.000000e+00> : tensor<144x2xf32>
    %0 = stablehlo.reshape %cst : (tensor<144x2xf32>) -> tensor<288xf32>
    return %0 : tensor<288xf32>
  }
}

module {
  func.func @main() -> tensor<1x1x288xf32> {
    %cst = stablehlo.constant dense<0.000000e+00> : tensor<6x1x288xf32>
    %0 = stablehlo.slice %cst [1:2, 0:1, 0:288] : (tensor<6x1x288xf32>) -> tensor<1x1x288xf32>
    return %0 : tensor<1x1x288xf32>
  }
}

module {
  func.func @main() -> tensor<1x288xf32> {
    %cst = stablehlo.constant dense<0.000000e+00> : tensor<1x1x288xf32>
    %0 = stablehlo.reshape %cst : (tensor<1x1x288xf32>) -> tensor<1x288xf32>
    return %0 : tensor<1x288xf32>
  }
}

module {
  func.func @main() -> tensor<1x288xf32> {
    %cst = stablehlo.constant dense<0.000000e+00> : tensor<144x2xf32>
    %0 = stablehlo.reshape %cst : (tensor<144x2xf32>) -> tensor<1x288xf32>
    return %0 : tensor<1x288xf32>
  }
}

module {
  func.func @main() -> tensor<1x1x288xf32> {
    %cst = stablehlo.constant dense<0.000000e+00> : tensor<6x1x288xf32>
    %0 = stablehlo.slice %cst [1:2, 0:1, 0:288] : (tensor<6x1x288xf32>) -> tensor<1x1x288xf32>
    return %0 : tensor<1x1x288xf32>
  }
}

module {
  func.func @main() -> tensor<1x288xf32> {
    %cst = stablehlo.constant dense<0.000000e+00> : tensor<1x1x288xf32>
    %0 = stablehlo.reshape %cst : (tensor<1x1x288xf32>) -> tensor<1x288xf32>
    return %0 : tensor<1x288xf32>
  }
}

module {
  func.func @main() -> tensor<1x288xf32> {
    %cst = stablehlo.constant dense<0.000000e+00> : tensor<288xf32>
    %0 = stablehlo.reshape %cst : (tensor<288xf32>) -> tensor<1x288xf32>
    return %0 : tensor<1x288xf32>
  }
}

module {
  func.func @main() -> tensor<48xf32> {
    %cst = stablehlo.constant dense<0.000000e+00> : tensor<288xf32>
    %0 = stablehlo.slice %cst [0:48] : (tensor<288xf32>) -> tensor<48xf32>
    return %0 : tensor<48xf32>
  }
}

module {
  func.func @main() -> tensor<1x48xf32> {
    %cst = stablehlo.constant dense<0.000000e+00> : tensor<1x288xf32>
    %0 = stablehlo.slice %cst [0:1, 0:48] : (tensor<1x288xf32>) -> tensor<1x48xf32>
    return %0 : tensor<1x48xf32>
  }
}

module {
  func.func @main() -> tensor<1x48xf32> {
    %cst = stablehlo.constant dense<0.000000e+00> : tensor<1x288xf32>
    %0 = stablehlo.slice %cst [0:1, 0:48] : (tensor<1x288xf32>) -> tensor<1x48xf32>
    return %0 : tensor<1x48xf32>
  }
}

module {
  func.func @main() -> tensor<2x48xf32> {
    %cst = stablehlo.constant dense<0.000000e+00> : tensor<1x48xf32>
    %cst_0 = stablehlo.constant dense<0.000000e+00> : tensor<1x48xf32>
    %0 = stablehlo.concatenate %cst, %cst_0, dim = 0 : (tensor<1x48xf32>, tensor<1x48xf32>) -> tensor<2x48xf32>
    return %0 : tensor<2x48xf32>
  }
}

module {
  func.func @main() -> tensor<2xf32> {
    %cst = stablehlo.constant dense<0.000000e+00> : tensor<2x48xf32>
    %cst_0 = stablehlo.constant dense<0.000000e+00> : tensor<48xf32>
    %0 = stablehlo.dot_general %cst, %cst_0, contracting_dims = [1] x [0], precision = [DEFAULT, DEFAULT] : (tensor<2x48xf32>, tensor<48xf32>) -> tensor<2xf32>
    return %0 : tensor<2xf32>
  }
}

module {
  func.func @main() -> tensor<2xf32> {
    %cst = stablehlo.constant dense<0.000000e+00> : tensor<2xf32>
    %cst_0 = stablehlo.constant dense<0.000000e+00> : tensor<2xf32>
    %0 = stablehlo.divide %cst, %cst_0 : tensor<2xf32>
    return %0 : tensor<2xf32>
  }
}

module {
  func.func @main() -> tensor<f32> {
    %cst = stablehlo.constant dense<0.000000e+00> : tensor<f32>
    %cst_0 = stablehlo.constant dense<0.000000e+00> : tensor<f32>
    %0 = stablehlo.maximum %cst, %cst_0 : tensor<f32>
    return %0 : tensor<f32>
  }
}

"builtin.module"() ({
  "func.func"() <{function_type = () -> (), sym_name = "main"}> ({
    %0 = "stablehlo.constant"() <{value = dense<0.000000e+00> : tensor<f32>}> : () -> tensor<f32>
    "stablehlo.return"(%0) : (tensor<f32>) -> ()
    "func.return"() : () -> ()
  }) : () -> ()
}) : () -> ()

module {
  func.func @main() -> tensor<f32> {
    %cst = stablehlo.constant dense<0.000000e+00> : tensor<2xf32>
    %cst_0 = stablehlo.constant dense<0.000000e+00> : tensor<f32>
    %0 = stablehlo.reduce(%cst init: %cst_0) applies stablehlo.maximum across dimensions = [0] : (tensor<2xf32>, tensor<f32>) -> tensor<f32>
    return %0 : tensor<f32>
  }
}

module {
  func.func @main() -> tensor<2xf32> {
    %cst = stablehlo.constant dense<0.000000e+00> : tensor<f32>
    %0 = stablehlo.broadcast_in_dim %cst, dims = [] : (tensor<f32>) -> tensor<2xf32>
    return %0 : tensor<2xf32>
  }
}

module {
  func.func @main() -> tensor<2xi1> {
    %cst = stablehlo.constant dense<0.000000e+00> : tensor<2xf32>
    %cst_0 = stablehlo.constant dense<0.000000e+00> : tensor<2xf32>
    %0 = stablehlo.compare  EQ, %cst, %cst_0,  FLOAT : (tensor<2xf32>, tensor<2xf32>) -> tensor<2xi1>
    return %0 : tensor<2xi1>
  }
}

module {
  func.func @main() -> tensor<2xf32> {
    %c = stablehlo.constant dense<false> : tensor<2xi1>
    %0 = stablehlo.convert %c : (tensor<2xi1>) -> tensor<2xf32>
    return %0 : tensor<2xf32>
  }
}

module {
  func.func @main() -> tensor<f32> {
    %cst = stablehlo.constant dense<0.000000e+00> : tensor<f32>
    %cst_0 = stablehlo.constant dense<0.000000e+00> : tensor<f32>
    %0 = stablehlo.add %cst, %cst_0 : tensor<f32>
    return %0 : tensor<f32>
  }
}

"builtin.module"() ({
  "func.func"() <{function_type = () -> (), sym_name = "main"}> ({
    %0 = "stablehlo.constant"() <{value = dense<0.000000e+00> : tensor<f32>}> : () -> tensor<f32>
    "stablehlo.return"(%0) : (tensor<f32>) -> ()
    "func.return"() : () -> ()
  }) : () -> ()
}) : () -> ()

module {
  func.func @main() -> tensor<f32> {
    %cst = stablehlo.constant dense<0.000000e+00> : tensor<2xf32>
    %cst_0 = stablehlo.constant dense<0.000000e+00> : tensor<f32>
    %0 = stablehlo.reduce(%cst init: %cst_0) applies stablehlo.add across dimensions = [0] : (tensor<2xf32>, tensor<f32>) -> tensor<f32>
    return %0 : tensor<f32>
  }
}

module {
  func.func @main() -> tensor<2xf32> {
    %cst = stablehlo.constant dense<0.000000e+00> : tensor<2xf32>
    %cst_0 = stablehlo.constant dense<0.000000e+00> : tensor<2xf32>
    %0 = stablehlo.subtract %cst, %cst_0 : tensor<2xf32>
    return %0 : tensor<2xf32>
  }
}

module {
  func.func @main() -> tensor<2xf32> {
    %cst = stablehlo.constant dense<0.000000e+00> : tensor<2xf32>
    %0 = stablehlo.exponential %cst : tensor<2xf32>
    return %0 : tensor<2xf32>
  }
}

module {
  func.func @main() -> tensor<1xf32> {
    %cst = stablehlo.constant dense<0.000000e+00> : tensor<2xf32>
    %0 = stablehlo.slice %cst [0:1] : (tensor<2xf32>) -> tensor<1xf32>
    return %0 : tensor<1xf32>
  }
}

module {
  func.func @main() -> tensor<f32> {
    %cst = stablehlo.constant dense<0.000000e+00> : tensor<1xf32>
    %0 = stablehlo.reshape %cst : (tensor<1xf32>) -> tensor<f32>
    return %0 : tensor<f32>
  }
}

module {
  func.func @main() -> tensor<1xf32> {
    %cst = stablehlo.constant dense<0.000000e+00> : tensor<2xf32>
    %0 = stablehlo.slice %cst [1:2] : (tensor<2xf32>) -> tensor<1xf32>
    return %0 : tensor<1xf32>
  }
}

module {
  func.func @main() -> tensor<f32> {
    %cst = stablehlo.constant dense<0.000000e+00> : tensor<1xf32>
    %0 = stablehlo.reshape %cst : (tensor<1xf32>) -> tensor<f32>
    return %0 : tensor<f32>
  }
}

module {
  func.func @main() -> tensor<f32> {
    %cst = stablehlo.constant dense<0.000000e+00> : tensor<f32>
    %cst_0 = stablehlo.constant dense<0.000000e+00> : tensor<f32>
    %0 = stablehl stablehlo.broadcast_in_dim
Verifying module
Operation name: stablehlo.multiply
Verifying module
Operation name: stablehlo.slice
Verifying module
Operation name: stablehlo.reshape
Verifying module
Operation name: stablehlo.dot_general
Verifying module
Operation name: stablehlo.slice
Verifying module
Operation name: stablehlo.reshape
Verifying module
Operation name: stablehlo.dot_general
Verifying module
Operation name: stablehlo.negate
Verifying module
Operation name: stablehlo.exponential
Verifying module
Operation name: stablehlo.add
Verifying module
Operation name: stablehlo.divide
Verifying module
Operation name: stablehlo.multiply
Verifying module
Operation name: stablehlo.divide
Verifying module
Operation name: stablehlo.multiply
Verifying module
Operation name: stablehlo.multiply
Verifying module
Operation name: stablehlo.slice
Verifying module
Operation name: stablehlo.reshape
Verifying module
Operation name: stablehlo.dot_general
Verifying module
Operation name: stablehlo.add
Verifying module
Operation name: stablehlo.slice
Verifying module
Operation name: stablehlo.reshape
Verifying module
Operation name: stablehlo.dot_general
Verifying module
Operation name: stablehlo.divide
Verifying module
Operation name: stablehlo.add
Verifying module
Operation name: stablehlo.sqrt
Verifying module
Operation name: stablehlo.divide
Verifying module
Operation name: stablehlo.divide
Verifying module
Operation name: stablehlo.multiply
Verifying module
Operation name: stablehlo.divide
Verifying module
Operation name: stablehlo.multiply
Verifying module
Operation name: stablehlo.broadcast_in_dim
Verifying module
Operation name: stablehlo.multiply
Verifying module
Operation name: stablehlo.slice
Verifying module
Operation name: stablehlo.reshape
Verifying module
Operation name: stablehlo.dot_general
Verifying module
Operation name: stablehlo.slice
Verifying module
Operation name: stablehlo.reshape
Verifying module
Operation name: stablehlo.dot_general
Verifying module
Operation name: stablehlo.slice
Verifying module
Operation name: stablehlo.reshape
Verifying module
Operation name: stablehlo.dot_general
Verifying module
Operation name: stablehlo.reshape
Verifying module
Operation name: stablehlo.reshape
Verifying module
Operation name: stablehlo.dot_general
Verifying module
Operation name: stablehlo.dot_general
Verifying module
Operation name: stablehlo.reshape
Verifying module
Operation name: stablehlo.slice
Verifying module
Operation name: stablehlo.reshape
Verifying module
Operation name: stablehlo.reshape
Verifying module
Operation name: stablehlo.slice
Verifying module
Operation name: stablehlo.reshape
Verifying module
Operation name: stablehlo.reshape
Verifying module
Operation name: stablehlo.slice
Verifying module
Operation name: stablehlo.slice
Verifying module
Operation name: stablehlo.slice
Verifying module
Operation name: stablehlo.concatenate
Verifying module
Operation name: stablehlo.dot_general
Verifying module
Operation name: stablehlo.divide
Verifying module
Operation name: stablehlo.maximum
Verifying module
Operation name: stablehlo.return
Verifying module
Operation name: stablehlo.reduce
Verifying module
Operation name: stablehlo.broadcast_in_dim
Verifying module
Operation name: stablehlo.compare
Verifying module
Operation name: stablehlo.convert
Verifying module
Operation name: stablehlo.add
Verifying module
Operation name: stablehlo.return
Verifying module
Operation name: stablehlo.reduce
Verifying module
Operation name: stablehlo.subtract
Verifying module
Operation name: stablehlo.exponential
Verifying module
Operation name: stablehlo.slice
Verifying module
Operation name: stablehlo.reshape
Verifying module
Operation name: stablehlo.slice
Verifying module
Operation name: stablehlo.reshape
Verifying module
Operation name: stablehlo.add
Verifying module
Operation name: stablehlo.broadcast_in_dim
Verifying module
Operation name: stablehlo.divide
Verifying module
Operation name: stablehlo.multiply
Verifying module
Operation name: stablehlo.divide
Verifying module
Operation name: stablehlo.slice
Verifying module
Oo.add %cst, %cst_0 : tensor<f32>
    return %0 : tensor<f32>
  }
}

module {
  func.func @main() -> tensor<2xf32> {
    %cst = stablehlo.constant dense<0.000000e+00> : tensor<f32>
    %0 = stablehlo.broadcast_in_dim %cst, dims = [] : (tensor<f32>) -> tensor<2xf32>
    return %0 : tensor<2xf32>
  }
}

module {
  func.func @main() -> tensor<2xf32> {
    %cst = stablehlo.constant dense<0.000000e+00> : tensor<2xf32>
    %cst_0 = stablehlo.constant dense<0.000000e+00> : tensor<2xf32>
    %0 = stablehlo.divide %cst, %cst_0 : tensor<2xf32>
    return %0 : tensor<2xf32>
  }
}

module {
  func.func @main() -> tensor<f32> {
    %cst = stablehlo.constant dense<0.000000e+00> : tensor<f32>
    %cst_0 = stablehlo.constant dense<0.000000e+00> : tensor<f32>
    %0 = stablehlo.multiply %cst, %cst_0 : tensor<f32>
    return %0 : tensor<f32>
  }
}

module {
  func.func @main() -> tensor<f32> {
    %cst = stablehlo.constant dense<0.000000e+00> : tensor<f32>
    %cst_0 = stablehlo.constant dense<0.000000e+00> : tensor<f32>
    %0 = stablehlo.divide %cst, %cst_0 : tensor<f32>
    return %0 : tensor<f32>
  }
}

module {
  func.func @main() -> tensor<1x48xf32> {
    %cst = stablehlo.constant dense<0.000000e+00> : tensor<1x288xf32>
    %0 = stablehlo.slice %cst [0:1, 0:48] : (tensor<1x288xf32>) -> tensor<1x48xf32>
    return %0 : tensor<1x48xf32>
  }
}

module {
  func.func @main() -> tensor<1x48xf32> {
    %cst = stablehlo.constant dense<0.000000e+00> : tensor<1x288xf32>
    %0 = stablehlo.slice %cst [0:1, 0:48] : (tensor<1x288xf32>) -> tensor<1x48xf32>
    return %0 : tensor<1x48xf32>
  }
}

module {
  func.func @main() -> tensor<2x48xf32> {
    %cst = stablehlo.constant dense<0.000000e+00> : tensor<1x48xf32>
    %cst_0 = stablehlo.constant dense<0.000000e+00> : tensor<1x48xf32>
    %0 = stablehlo.concatenate %cst, %cst_0, dim = 0 : (tensor<1x48xf32>, tensor<1x48xf32>) -> tensor<2x48xf32>
    return %0 : tensor<2x48xf32>
  }
}

module {
  func.func @main() -> tensor<48xf32> {
    %cst = stablehlo.constant dense<0.000000e+00> : tensor<2x48xf32>
    %cst_0 = stablehlo.constant dense<0.000000e+00> : tensor<2xf32>
    %0 = stablehlo.dot_general %cst, %cst_0, contracting_dims = [0] x [0], precision = [DEFAULT, DEFAULT] : (tensor<2x48xf32>, tensor<2xf32>) -> tensor<48xf32>
    return %0 : tensor<48xf32>
  }
}

module {
  func.func @main() -> tensor<48xf32> {
    %cst = stablehlo.constant dense<0.000000e+00> : tensor<288xf32>
    %0 = stablehlo.slice %cst [48:96] : (tensor<288xf32>) -> tensor<48xf32>
    return %0 : tensor<48xf32>
  }
}

module {
  func.func @main() -> tensor<1x48xf32> {
    %cst = stablehlo.constant dense<0.000000e+00> : tensor<1x288xf32>
    %0 = stablehlo.slice %cst [0:1, 48:96] : (tensor<1x288xf32>) -> tensor<1x48xf32>
    return %0 : tensor<1x48xf32>
  }
}

module {
  func.func @main() -> tensor<1x48xf32> {
    %cst = stablehlo.constant dense<0.000000e+00> : tensor<1x288xf32>
    %0 = stablehlo.slice %cst [0:1, 48:96] : (tensor<1x288xf32>) -> tensor<1x48xf32>
    return %0 : tensor<1x48xf32>
  }
}

module {
  func.func @main() -> tensor<2x48xf32> {
    %cst = stablehlo.constant dense<0.000000e+00> : tensor<1x48xf32>
    %cst_0 = stablehlo.constant dense<0.000000e+00> : tensor<1x48xf32>
    %0 = stablehlo.concatenate %cst, %cst_0, dim = 0 : (tensor<1x48xf32>, tensor<1x48xf32>) -> tensor<2x48xf32>
    return %0 : tensor<2x48xf32>
  }
}

module {
  func.func @main() -> tensor<2xf32> {
    %cst = stablehlo.constant dense<0.000000e+00> : tensor<2x48xf32>
    %cst_0 = stablehlo.constant dense<0.000000e+00> : tensor<48xf32>
    %0 = stablehlo.dot_general %cst, %cst_0, contracting_dims = [1] x [0], precision = [DEFAULT, DEFAULT] : (tensor<2x48xf32>, tensor<48xf32>) -> tensor<2xf32>
    return %0 : tensor<2xf32>
  }
}

module {
  func.func @main() -> tensor<2xf32> {
    %cst = stablehlo.constant dense<0.000000e+00> : tensor<2xf32>
    %cst_0 = stablehlo.constant dense<0.000000e+00> : tensor<2xf32>
    %0 = stablehlo.divide %cst, %cst_0 : tensor<2xf32>
    return %0 : tensor<2xf32>
  }
}

module {
  func.func @main() -> tensor<f32> {
    %cst = stablehlo.constant dense<0.000000e+00> : tensor<f32>
    %cst_0 = stablehlo.constant dense<0.000000e+00> : tensor<f32>
    %0 = stablehlo.maximum %cst, %cst_0 : tensor<f32>
    return %0 : tensor<f32>
  }
}

"builtin.module"() ({
  "func.func"() <{function_type = () -> (), sym_name = "main"}> ({
    %0 = "stablehlo.constant"() <{value = dense<0.000000e+00> : tensor<f32>}> : () -> tensor<f32>
    "stablehlo.return"(%0) : (tensor<f32>) -> ()
    "func.return"() : () -> ()
  }) : () -> ()
}) : () -> ()

module {
  func.func @main() -> tensor<f32> {
    %cst = stablehlo.constant dense<0.000000e+00> : tensor<2xf32>
    %cst_0 = stablehlo.constant dense<0.000000e+00> : tensor<f32>
    %0 = stablehlo.reduce(%cst init: %cst_0) applies stablehlo.maximum across dimensions = [0] : (tensor<2xf32>, tensor<f32>) -> tensor<f32>
    return %0 : tensor<f32>
  }
}

module {
  func.func @main() -> tensor<2xf32> {
    %cst = stablehlo.constant dense<0.000000e+00> : tensor<f32>
    %0 = stablehlo.broadcast_in_dim %cst, dims = [] : (tensor<f32>) -> tensor<2xf32>
    return %0 : tensor<2xf32>
  }
}

module {
  func.func @main() -> tensor<2xi1> {
    %cst = stablehlo.constant dense<0.000000e+00> : tensor<2xf32>
    %cst_0 = stablehlo.constant dense<0.000000e+00> : tensor<2xf32>
    %0 = stablehlo.compare  EQ, %cst, %cst_0,  FLOAT : (tensor<2xf32>, tensor<2xf32>) -> tensor<2xi1>
    return %0 : tensor<2xi1>
  }
}

module {
  func.func @main() -> tensor<2xf32> {
    %c = stablehlo.constant dense<false> : tensor<2xi1>
    %0 = stablehlo.convert %c : (tensor<2xi1>) -> tensor<2xf32>
    return %0 : tensor<2xf32>
  }
}

module {
  func.func @main() -> tensor<f32> {
    %cst = stablehlo.constant dense<0.000000e+00> : tensor<f32>
    %cst_0 = stablehlo.constant dense<0.000000e+00> : tensor<f32>
    %0 = stablehlo.add %cst, %cst_0 : tensor<f32>
    return %0 : tensor<f32>
  }
}

"builtin.module"() ({
  "func.func"() <{function_type = () -> (), sym_name = "main"}> ({
    %0 = "stablehlo.constant"() <{value = dense<0.000000e+00> : tensor<f32>}> : () -> tensor<f32>
    "stablehlo.return"(%0) : (tensor<f32>) -> ()
    "func.return"() : () -> ()
  }) : () -> ()
}) : () -> ()

module {
  func.func @main() -> tensor<f32> {
    %cst = stablehlo.constant dense<0.000000e+00> : tensor<2xf32>
    %cst_0 = stablehlo.constant dense<0.000000e+00> : tensor<f32>
    %0 = stablehlo.reduce(%cst init: %cst_0) applies stablehlo.add across dimensions = [0] : (tensor<2xf32>, tensor<f32>) -> tensor<f32>
    return %0 : tensor<f32>
  }
}

module {
  func.func @main() -> tensor<2xf32> {
    %cst = stablehlo.constant dense<0.000000e+00> : tensor<2xf32>
    %cst_0 = stablehlo.constant dense<0.000000e+00> : tensor<2xf32>
    %0 = stablehlo.subtract %cst, %cst_0 : tensor<2xf32>
    return %0 : tensor<2xf32>
  }
}

module {
  func.func @main() -> tensor<2xf32> {
    %cst = stablehlo.constant dense<0.000000e+00> : tensor<2xf32>
    %0 = stablehlo.exponential %cst : tensor<2xf32>
    return %0 : tensor<2xf32>
  }
}

module {
  func.func @main() -> tensor<1xf32> {
    %cst = stablehlo.constant dense<0.000000e+00> : tensor<2xf32>
    %0 = stablehlo.slice %cst [0:1] : (tensor<2xf32>) -> tensor<1xf32>
    return %0 : tensor<1xf32>
  }
}

module {
  func.func @main() -> tensor<f32> {
    %cst = stablehlo.constant dense<0.000000e+00> : tensor<1xf32>
    %0 = stablehlo.reshape %cst : (tensor<1xf32>) -> tensor<f32>
    return %0 : tensor<f32>
  }
}

module {
  func.func @main() -> tensor<1xf32> {
    %cst = stablehlo.constant dense<0.000000e+00> : tensor<2xf32>
    %0 = stablehlo.slice %cst [1:2] : (tensor<2xf32>) -> tensor<1xf32>
    return %0 : tensor<1xf32>
  }
}

module {
  func.func @main() -> tensor<f32> {
    %cst = stablehlo.constant dense<0.000000e+00> : tensor<1xf32>
    %0 = stablehlo.reshape %cst : (tensor<1xf32>) -> tensor<f32>
    return %0 : tensor<f32>
  }
}

module {
  func.func @main() -> tensor<f32> {
    %cst = stablehlo.constant dense<0.000000e+00> : tensor<f32>
    %cst_0 = stablehlo.constant dense<0.000000e+00> : tensor<f32>
    %0 = stablehlo.add %cst, %cst_0 : tensor<f32>
    return %0 : tensor<f32>
  }
}

module {
  func.func @main() -> tensor<2xf32> {
    %cst = stablehlo.constant dense<0.000000e+00> : tensor<f32>
    %0 = stablehlo.broadcast_in_dim %cst, dims = [] : (tensor<f32>) -> tensor<2xf32>
    return %0 : tensor<2xf32>
  }
}

module {
  func.func @main() -> tensor<2xf32> {
    %cst = stablehlo.constant dense<0.000000e+00> : tensor<2xf32>
    %cst_0 = stablehlo.constant dense<0.000000e+00> : tensor<2xf32>
    %0 = stablehlo.divide %cst, %cst_0 : tensor<2xf32>
    return %0 : tensor<2xf32>
  }
}

module {
  func.func @main() -> tensor<f32> {
    %cst = stablehlo.constant dense<0.000000e+00> : tensor<f32>
    %cst_0 = stablehlo.constant dense<0.000000e+00> : tensor<f32>
    %0 = stablehlo.multiply %cst, %cst_0 : tensor<f32>
    return %0 : tensor<f32>
  }
}

module {
  func.func @main() -> tensor<f32> {
    %cst = stablehlo.constant dense<0.000000e+00> : tensor<f32>
    %cst_0 = stablehlo.constant dense<0.000000e+00> : tensor<f32>
    %0 = stablehlo.divide %cst, %cst_0 : tensor<f32>
    return %0 : tensor<f32>
  }
}

module {
  func.func @main() -> tensor<1x48xf32> {
    %cst = stablehlo.constant dense<0.000000e+00> : tensor<1x288xf32>
    %0 = stablehlo.slice %cst [0:1, 48:96] : (tensor<1x288xf32>) -> tensor<1x48xf32>
    return %0 : tensor<1x48xf32>
  }
}

module {
  func.func @main() -> tensor<1x48xf32> {
    %cst = stablehlo.constant dense<0.000000e+00> : tensor<1x288xf32>
    %0 = stablehlo.slice %cst [0:1, 48:96] : (tensor<1x288xf32>) -> tensor<1x48xf32>
    return %0 : tensor<1x48xf32>
  }
}

module {
  func.func @main() -> tensor<2x48xf32> {
    %cst = stablehlo.constant dense<0.000000e+00> : tensor<1x48xf32>
    %cst_0 = stablehlo.constant dense<0.000000e+00> : tensor<1x48xf32>
    %0 = stablehlo.concatenate %cst, %cst_0, dim = 0 : (tensor<1x48xf32>, tensor<1x48xf32>) -> tensor<2x48xf32>
    return %0 : tensor<2x48xf32>
  }
}

module {
  func.func @main() -> tensor<48xf32> {
    %cst = stablehlo.constant dense<0.000000e+00> : tensor<2x48xf32>
    %cst_0 = stablehlo.constant dense<0.000000e+00> : tensor<2xf32>
    %0 = stablehlo.dot_general %cst, %cst_0, contracting_dims = [0] x [0], precision = [DEFAULT, DEFAULT] : (tensor<2x48xf32>, tensor<2xf32>) -> tensor<48xf32>
    return %0 : tensor<48xf32>
  }
}

module {
  func.func @main() -> tensor<48xf32> {
    %cst = stablehlo.constant dense<0.000000e+00> : tensor<288xf32>
    %0 = stablehlo.slice %cst [96:144] : (tensor<288xf32>) -> tensor<48xf32>
    return %0 : tensor<48xf32>
  }
}

module {
  func.func @main() -> tensor<1x48xf32> {
    %cst = stablehlo.constant dense<0.000000e+00> : tensor<1x288xf32>
    %0 = stablehlo.slice %cst [0:1, 96:144] : (tensor<1x288xf32>) -> tensor<1x48xf32>
    return %0 : tensor<1x48xf32>
  }
}

module {
  func.func @main() -> tensor<1x48xf32> {
    %cst = stablehlo.constant dense<0.000000e+00> : tensor<1x288xf32>
    %0 = stablehlo.slice %cst [0:1, 96:144] : (tensor<1x288xf32>) -> tensor<1x48xf32>
    return %0 : tensor<1x48xf32>
  }
}

module {
  func.func @main() -> tensor<2x48xf32> {
    %cst = stablehlo.constant dense<0.000000e+00> : tensor<1x48xf32>
    %cst_0 = stablehlo.constant dense<0.000000e+00> : tensor<1x48xf32>
    %0 = stablehlo.concatenate %cst, %cst_0, dim = 0 : (tensor<1x48xf32>, tensor<1x48xf32>) -> tensor<2x48xf32>
    return %0 : tensor<2x48xf32>
  }
}

module {
  func.func @main() -> tensor<2xf32> {
    %cst = stablehlo.constant dense<0.000000e+00> : tensor<2x48xf32>
    %cst_0 = stablehlo.constant dense<0.000000e+00> : tensor<48xf32>
    %0 = stablehlo.dot_general %cst, %cst_0, contracting_dims = [1] x [0], precision = [DEFAULT, DEFAULT] : (tensor<2x48xf32>, tensor<48xf32>) -> tensor<2xf32>
    return %0 : tensor<2xf32>
  }
}

module {
  func.func @main() -> tensor<2xf32> {
    %cst = stablehlo.constant dense<0.000000e+00> : tensor<2xf32>
    %cst_0 = stablehlo.constant dense<0.000000e+00> : tensor<2xf32>
    %0 = stablehlo.divide %cst, %cst_0 : tensor<2xf32>
    return %0 : tensor<2xf32>
  }
}

module {
  func.func @main() -> tensor<f32> {
    %cst = stablehlo.constant dense<0.000000e+00> : tensor<f32>
    %cst_0 = stablehlo.constant dense<0.000000e+00> : tensor<f32>
    %0 = stablehlo.maximum %cst, %cst_0 : tensor<f32>
    return %0 : tensor<f32>
  }
}

"builtin.module"() ({
  "func.func"() <{function_type = () -> (), sym_name = "main"}> ({
    %0 = "stablehlo.constant"() <{value = dense<0.000000e+00> : tensor<f32>}> : () -> tensor<f32>
    "stablehlo.return"(%0) : (tensor<f32>) -> ()
    "func.return"() : () -> ()
  }) : () -> ()
}) : () -> ()

module {
  func.func @main() -> tensor<f32> {
    %cst = stablehlo.constant dense<0.000000e+00> : tensor<2xf32>
    %cst_0 = stablehlo.constant dense<0.000000e+00> : tensor<f32>
    %0 = stablehlo.reduce(%cst init: %cst_0) applies stablehlo.maximum across dimensions = [0] : (tensor<2xf32>, tensor<f32>) -> tensor<f32>
    return %0 : tensor<f32>
  }
}

module {
  func.func @main() -> tensor<2xf32> {
    %cst = stablehlo.constant dense<0.000000e+00> : tensor<f32>
    %0 = stablehlo.broadcast_in_dim %cst, dims = [] : (tensor<f32>) -> tensor<2xf32>
    return %0 : tensor<2xf32>
  }
}

module {
  func.func @main() -> tensor<2xi1> {
    %cst = stablehlo.constant dense<0.000000e+00> : tensor<2xf32>
    %cst_0 = stablehlo.constant dense<0.000000e+00> : tensor<2xf32>
    %0 = stablehlo.compare  EQ, %cst, %cst_0,  FLOAT : (tensor<2xf32>, tensor<2xf32>) -> tensor<2xi1>
    return %0 : tensor<2xi1>
  }
}

module {
  func.func @main() -> tensor<2xf32> {
    %c = stablehlo.constant dense<false> : tensor<2xi1>
    %0 = stablehlo.convert %c : (tensor<2xi1>) -> tensor<2xf32>
    return %0 : tensor<2xf32>
  }
}

module {
  func.func @main() -> tensor<f32> {
    %cst = stablehlo.constant dense<0.000000e+00> : tensor<f32>
    %cst_0 = stablehlo.constant dense<0.000000e+00> : tensor<f32>
    %0 = stablehlo.add %cst, %cst_0 : tensor<f32>
    return %0 : tensor<f32>
  }
}

"builtin.module"() ({
  "func.func"() <{function_type = () -> (), sym_name = "main"}> ({
    %0 = "stablehlo.constant"() <{value = dense<0.000000e+00> : tensor<f32>}> : () -> tensor<f32>
    "stablehlo.return"(%0) : (tensor<f32>) -> ()
    "func.return"() : () -> ()
  }) : () -> ()
}) : () -> ()

module {
  func.func @main() -> tensor<f32> {
    %cst = stablehlo.constant dense<0.000000e+00> : tensor<2xf32>
    %cst_0 = stablehlo.constant dense<0.000000e+00> : tensor<f32>
    %0 = stablehlo.reduce(%cst init: %cst_0) applies stablehlo.add across dimensions = [0] : (tensor<2xf32>, tensor<f32>) -> tensor<f32>
    return %0 : tensor<f32>
  }
}

module {
  func.func @main() -> tensor<2xf32> {
    %cst = stablehlo.constant dense<0.000000e+00> : tensor<2xf32>
    %cst_0 = stablehlo.constant dense<0.000000e+00> : tensor<2xf32>
    %0 = stablehlo.subtract %cst, %cst_0 : tensor<2xf32>
    return %0 : tensor<2xf32>
  }
}

module {
  func.func @main() -> tensor<2xf32> {
    %cst = stablehlo.constant dense<0.000000e+00> : tensor<2xf32>
    %0 = stablehlo.exponential %cst : tensor<2xf32>
    return %0 : tensor<2xf32>
  }
}

module {
  func.func @main() -> tensor<1xf32> {
    %cst = stablehlo.constant dense<0.000000e+00> : tensor<2xf32>
    %0 = stablehlo.slice %cst [0:1] : (tensor<2xf32>) -> tensor<1xf32>
    return %0 : tensor<1xf32>
  }
}

module {
  func.func @main() -> tensor<f32> {
    %cst = stablehlo.constant dense<0.000000e+00> : tensor<1xf32>
    %0 = stablehlo.reshape %cst : (tensor<1xf32>) -> tensor<f32>
    return %0 : tensor<f32>
  }
}

module {
  func.func @main() -> tensor<1xf32> {
    %cst = stablehlo.constant dense<0.000000e+00> : tensor<2xf32>
    %0 = stablehlo.slice %cst [1:2] : (tensor<2xf32>) -> tensor<1xf32>
    return %0 : tensor<1xf32>
  }
}

module {
  func.func @main() -> tensor<f32> {
    %cst = stablehlo.constant dense<0.000000e+00> : tensor<1xf32>
    %0 = stablehlo.reshape %cst : (tensor<1xf32>) -> tensor<f32>
    return %0 : tensor<f32>
  }
}

module {
  func.func @main() -> tensor<f32> {
    %cst = stablehlo.constant dense<0.000000e+00> : tensor<f32>
    %cst_0 = stablehlo.constant dense<0.000000e+00> : tensor<f32>
    %0 = stablehlo.add %cst, %cst_0 : tensor<f32>
    return %0 : tensor<f32>
  }
}

module {
  func.func @main() -> tensor<2xf32> {
    %cst = stablehlo.constant dense<0.000000e+00> : tensor<f32>
    %0 = stablehlo.broadcast_in_dim %cst, dims = [] : (tensor<f32>) -> tensor<2xf32>
    return %0 : tensor<2xf32>
  }
}

module {
  func.func @main() -> tensor<2xf32> {
    %cst = stablehlo.constant dense<0.000000e+00> : tensor<2xf32>
    %cst_0 = stablehlo.constant dense<0.000000e+00> : tensor<2xf32>
    %0 = stablehlo.divide %cst, %cst_0 : tensor<2xf32>
    return %0 : tensor<2xf32>
  }
}

module {
  func.func @main() -> tensor<f32> {
    %cst = stablehlo.constant dense<0.000000e+00> : tensor<f32>
    %cst_0 = stablehlo.constant dense<0.000000e+00> : tensor<f32>
    %0 = stablehlo.multiply %cst, %cst_0 : tensor<f32>
    return %0 : tensor<f32>
  }
}

module {
  func.func @main() -> tensor<f32> {
    %cst = stablehlo.constant dense<0.000000e+00> : tensor<f32>
    %cst_0 = stablehlo.constant dense<0.000000e+00> : tensor<f32>
    %0 = stablehlo.divide %cst, %cst_0 : tensor<f32>
    return %0 : tensor<f32>
  }
}

module {
  func.func @main() -> tensor<1x48xf32> {
    %cst = stablehlo.constant dense<0.000000e+00> : tensor<1x288xf32>
    %0 = stablehlo.slice %cst [0:1, 96:144] : (tensor<1x288xf32>) -> tensor<1x48xf32>
    return %0 : tensor<1x48xf32>
  }
}

module {
  func.func @main() -> tensor<1x48xf32> {
    %cst = stablehlo.constant dense<0.000000e+00> : tensor<1x288xf32>
    %0 = stablehlo.slice %cst [0:1, 96:144] : (tensor<1x288xf32>) -> tensor<1x48xf32>
    return %0 : tensor<1x48xf32>
  }
}

module {
  func.func @main() -> tensor<2x48xf32> {
    %cst = stablehlo.constant dense<0.000000e+00> : tensor<1x48xf32>
    %cst_0 = stablehlo.constant dense<0.000000e+00> : tensor<1x48xf32>
    %0 = stablehlo.concatenate %cst, %cst_0, dim = 0 : (tensor<1x48xf32>, tensor<1x48xf32>) -> tensor<2x48xf32>
    return %0 : tensor<2x48xf32>
  }
}

module {
  func.func @main() -> tensor<48xf32> {
    %cst = stablehlo.constant dense<0.000000e+00> : tensor<2x48xf32>
    %cst_0 = stablehlo.constant dense<0.000000e+00> : tensor<2xf32>
    %0 = stablehlo.dot_general %cst, %cst_0, contracting_dims = [0] x [0], precision = [DEFAULT, DEFAULT] : (tensor<2x48xf32>, tensor<2xf32>) -> tensor<48xf32>
    return %0 : tensor<48xf32>
  }
}

module {
  func.func @main() -> tensor<48xf32> {
    %cst = stablehlo.constant dense<0.000000e+00> : tensor<288xf32>
    %0 = stablehlo.slice %cst [144:192] : (tensor<288xf32>) -> tensor<48xf32>
    return %0 : tensor<48xf32>
  }
}

module {
  func.func @main() -> tensor<1x48xf32> {
    %cst = stablehlo.constant dense<0.000000e+00> : tensor<1x288xf32>
    %0 = stablehlo.slice %cst [0:1, 144:192] : (tensor<1x288xf32>) -> tensor<1x48xf32>
    return %0 : tensor<1x48xf32>
  }
}

module {
  func.func @main() -> tensor<1x48xf32> {
    %cst = stablehlo.constant dense<0.000000e+00> : tensor<1x288xf32>
    %0 = stablehlo.slice %cst [0:1, 144:192] : (tensor<1x288xf32>) -> tensor<1x48xf32>
    return %0 : tensor<1x48xf32>
  }
}

module {
  func.func @main() -> tensor<2x48xf32> {
    %cst = stablehlo.constant dense<0.000000e+00> : tensor<1x48xf32>
    %cst_0 = stablehlo.constant dense<0.000000e+00> : tensor<1x48xf32>
    %0 = stablehlo.concatenate %cst, %cst_0, dim = 0 : (tensor<1x48xf32>, tensor<1x48xf32>) -> tensor<2x48xf32>
    return %0 : tensor<2x48xf32>
  }
}

module {
  func.func @main() -> tensor<2xf32> {
    %cst = stablehlo.constant dense<0.000000e+00> : tensor<2x48xf32>
    %cst_0 = stablehlo.constant dense<0.000000e+00> : tensor<48xf32>
    %0 = stablehlo.dot_general %cst, %cst_0, contracting_dims = [1] x [0], precision = [DEFAULT, DEFAULT] : (tensor<2x48xf32>, tensor<48xf32>) -> tensor<2xf32>
    return %0 : tensor<2xf32>
  }
}

module {
  func.func @main() -> tensor<2xf32> {
    %cst = stablehlo.constant dense<0.000000e+00> : tensor<2xf32>
    %cst_0 = stablehlo.constant dense<0.000000e+00> : tensor<2xf32>
    %0 = stablehlo.divide %cst, %cst_0 : tensor<2xf32>
    return %0 : tensor<2xf32>
  }
}

module {
  func.func @main() -> tensor<f32> {
    %cst = stablehlo.constant denperation name: stablehlo.slice
Verifying module
Operation name: stablehlo.concatenate
Verifying module
Operation name: stablehlo.dot_general
Verifying module
Operation name: stablehlo.slice
Verifying module
Operation name: stablehlo.slice
Verifying module
Operation name: stablehlo.slice
Verifying module
Operation name: stablehlo.concatenate
Verifying module
Operation name: stablehlo.dot_general
Verifying module
Operation name: stablehlo.divide
Verifying module
Operation name: stablehlo.maximum
Verifying module
Operation name: stablehlo.return
Verifying module
Operation name: stablehlo.reduce
Verifying module
Operation name: stablehlo.broadcast_in_dim
Verifying module
Operation name: stablehlo.compare
Verifying module
Operation name: stablehlo.convert
Verifying module
Operation name: stablehlo.add
Verifying module
Operation name: stablehlo.return
Verifying module
Operation name: stablehlo.reduce
Verifying module
Operation name: stablehlo.subtract
Verifying module
Operation name: stablehlo.exponential
Verifying module
Operation name: stablehlo.slice
Verifying module
Operation name: stablehlo.reshape
Verifying module
Operation name: stablehlo.slice
Verifying module
Operation name: stablehlo.reshape
Verifying module
Operation name: stablehlo.add
Verifying module
Operation name: stablehlo.broadcast_in_dim
Verifying module
Operation name: stablehlo.divide
Verifying module
Operation name: stablehlo.multiply
Verifying module
Operation name: stablehlo.divide
Verifying module
Operation name: stablehlo.slice
Verifying module
Operation name: stablehlo.slice
Verifying module
Operation name: stablehlo.concatenate
Verifying module
Operation name: stablehlo.dot_general
Verifying module
Operation name: stablehlo.slice
Verifying module
Operation name: stablehlo.slice
Verifying module
Operation name: stablehlo.slice
Verifying module
Operation name: stablehlo.concatenate
Verifying module
Operation name: stablehlo.dot_general
Verifying module
Operation name: stablehlo.divide
Verifying module
Operation name: stablehlo.maximum
Verifying module
Operation name: stablehlo.return
Verifying module
Operation name: stablehlo.reduce
Verifying module
Operation name: stablehlo.broadcast_in_dim
Verifying module
Operation name: stablehlo.compare
Verifying module
Operation name: stablehlo.convert
Verifying module
Operation name: stablehlo.add
Verifying module
Operation name: stablehlo.return
Verifying module
Operation name: stablehlo.reduce
Verifying module
Operation name: stablehlo.subtract
Verifying module
Operation name: stablehlo.exponential
Verifying module
Operation name: stablehlo.slice
Verifying module
Operation name: stablehlo.reshape
Verifying module
Operation name: stablehlo.slice
Verifying module
Operation name: stablehlo.reshape
Verifying module
Operation name: stablehlo.add
Verifying module
Operation name: stablehlo.broadcast_in_dim
Verifying module
Operation name: stablehlo.divide
Verifying module
Operation name: stablehlo.multiply
Verifying module
Operation name: stablehlo.divide
Verifying module
Operation name: stablehlo.slice
Verifying module
Operation name: stablehlo.slice
Verifying module
Operation name: stablehlo.concatenate
Verifying module
Operation name: stablehlo.dot_general
Verifying module
Operation name: stablehlo.slice
Verifying module
Operation name: stablehlo.slice
Verifying module
Operation name: stablehlo.slice
Verifying module
Operation name: stablehlo.concatenate
Verifying module
Operation name: stablehlo.dot_general
Verifying module
Operation name: stablehlo.divide
Verifying module
Operation name: stablehlo.maximum
Verifying module
Operation name: stablehlo.return
Verifying module
Operation name: stablehlo.reduce
Verifying module
Operation name: stablehlo.broadcast_in_dim
Verifying module
Operation name: stablehlo.compare
Verifying module
Operation name: stablehlo.convert
Verifying module
Operation name: stablehlo.add
Verifying module
Operation name: stablehlo.return
Verifying module
Operation name: stablehlo.reduce
Verifying module
Operation name: stablehlo.subtract
Verifying module
Operation name: stablehlo.exponentialse<0.000000e+00> : tensor<f32>
    %cst_0 = stablehlo.constant dense<0.000000e+00> : tensor<f32>
    %0 = stablehlo.maximum %cst, %cst_0 : tensor<f32>
    return %0 : tensor<f32>
  }
}

"builtin.module"() ({
  "func.func"() <{function_type = () -> (), sym_name = "main"}> ({
    %0 = "stablehlo.constant"() <{value = dense<0.000000e+00> : tensor<f32>}> : () -> tensor<f32>
    "stablehlo.return"(%0) : (tensor<f32>) -> ()
    "func.return"() : () -> ()
  }) : () -> ()
}) : () -> ()

module {
  func.func @main() -> tensor<f32> {
    %cst = stablehlo.constant dense<0.000000e+00> : tensor<2xf32>
    %cst_0 = stablehlo.constant dense<0.000000e+00> : tensor<f32>
    %0 = stablehlo.reduce(%cst init: %cst_0) applies stablehlo.maximum across dimensions = [0] : (tensor<2xf32>, tensor<f32>) -> tensor<f32>
    return %0 : tensor<f32>
  }
}

module {
  func.func @main() -> tensor<2xf32> {
    %cst = stablehlo.constant dense<0.000000e+00> : tensor<f32>
    %0 = stablehlo.broadcast_in_dim %cst, dims = [] : (tensor<f32>) -> tensor<2xf32>
    return %0 : tensor<2xf32>
  }
}

module {
  func.func @main() -> tensor<2xi1> {
    %cst = stablehlo.constant dense<0.000000e+00> : tensor<2xf32>
    %cst_0 = stablehlo.constant dense<0.000000e+00> : tensor<2xf32>
    %0 = stablehlo.compare  EQ, %cst, %cst_0,  FLOAT : (tensor<2xf32>, tensor<2xf32>) -> tensor<2xi1>
    return %0 : tensor<2xi1>
  }
}

module {
  func.func @main() -> tensor<2xf32> {
    %c = stablehlo.constant dense<false> : tensor<2xi1>
    %0 = stablehlo.convert %c : (tensor<2xi1>) -> tensor<2xf32>
    return %0 : tensor<2xf32>
  }
}

module {
  func.func @main() -> tensor<f32> {
    %cst = stablehlo.constant dense<0.000000e+00> : tensor<f32>
    %cst_0 = stablehlo.constant dense<0.000000e+00> : tensor<f32>
    %0 = stablehlo.add %cst, %cst_0 : tensor<f32>
    return %0 : tensor<f32>
  }
}

"builtin.module"() ({
  "func.func"() <{function_type = () -> (), sym_name = "main"}> ({
    %0 = "stablehlo.constant"() <{value = dense<0.000000e+00> : tensor<f32>}> : () -> tensor<f32>
    "stablehlo.return"(%0) : (tensor<f32>) -> ()
    "func.return"() : () -> ()
  }) : () -> ()
}) : () -> ()

module {
  func.func @main() -> tensor<f32> {
    %cst = stablehlo.constant dense<0.000000e+00> : tensor<2xf32>
    %cst_0 = stablehlo.constant dense<0.000000e+00> : tensor<f32>
    %0 = stablehlo.reduce(%cst init: %cst_0) applies stablehlo.add across dimensions = [0] : (tensor<2xf32>, tensor<f32>) -> tensor<f32>
    return %0 : tensor<f32>
  }
}

module {
  func.func @main() -> tensor<2xf32> {
    %cst = stablehlo.constant dense<0.000000e+00> : tensor<2xf32>
    %cst_0 = stablehlo.constant dense<0.000000e+00> : tensor<2xf32>
    %0 = stablehlo.subtract %cst, %cst_0 : tensor<2xf32>
    return %0 : tensor<2xf32>
  }
}

module {
  func.func @main() -> tensor<2xf32> {
    %cst = stablehlo.constant dense<0.000000e+00> : tensor<2xf32>
    %0 = stablehlo.exponential %cst : tensor<2xf32>
    return %0 : tensor<2xf32>
  }
}

module {
  func.func @main() -> tensor<1xf32> {
    %cst = stablehlo.constant dense<0.000000e+00> : tensor<2xf32>
    %0 = stablehlo.slice %cst [0:1] : (tensor<2xf32>) -> tensor<1xf32>
    return %0 : tensor<1xf32>
  }
}

module {
  func.func @main() -> tensor<f32> {
    %cst = stablehlo.constant dense<0.000000e+00> : tensor<1xf32>
    %0 = stablehlo.reshape %cst : (tensor<1xf32>) -> tensor<f32>
    return %0 : tensor<f32>
  }
}

module {
  func.func @main() -> tensor<1xf32> {
    %cst = stablehlo.constant dense<0.000000e+00> : tensor<2xf32>
    %0 = stablehlo.slice %cst [1:2] : (tensor<2xf32>) -> tensor<1xf32>
    return %0 : tensor<1xf32>
  }
}

module {
  func.func @main() -> tensor<f32> {
    %cst = stablehlo.constant dense<0.000000e+00> : tensor<1xf32>
    %0 = stablehlo.reshape %cst : (tensor<1xf32>) -> tensor<f32>
    return %0 : tensor<f32>
  }
}

module {
  func.func @main() -> tensor<f32> {
    %cst = stablehlo.constant dense<0.000000e+00> : tensor<f32>
    %cst_0 = stablehlo.constant dense<0.000000e+00> : tensor<f32>
    %0 = stablehlo.add %cst, %cst_0 : tensor<f32>
    return %0 : tensor<f32>
  }
}

module {
  func.func @main() -> tensor<2xf32> {
    %cst = stablehlo.constant dense<0.000000e+00> : tensor<f32>
    %0 = stablehlo.broadcast_in_dim %cst, dims = [] : (tensor<f32>) -> tensor<2xf32>
    return %0 : tensor<2xf32>
  }
}

module {
  func.func @main() -> tensor<2xf32> {
    %cst = stablehlo.constant dense<0.000000e+00> : tensor<2xf32>
    %cst_0 = stablehlo.constant dense<0.000000e+00> : tensor<2xf32>
    %0 = stablehlo.divide %cst, %cst_0 : tensor<2xf32>
    return %0 : tensor<2xf32>
  }
}

module {
  func.func @main() -> tensor<f32> {
    %cst = stablehlo.constant dense<0.000000e+00> : tensor<f32>
    %cst_0 = stablehlo.constant dense<0.000000e+00> : tensor<f32>
    %0 = stablehlo.multiply %cst, %cst_0 : tensor<f32>
    return %0 : tensor<f32>
  }
}

module {
  func.func @main() -> tensor<f32> {
    %cst = stablehlo.constant dense<0.000000e+00> : tensor<f32>
    %cst_0 = stablehlo.constant dense<0.000000e+00> : tensor<f32>
    %0 = stablehlo.divide %cst, %cst_0 : tensor<f32>
    return %0 : tensor<f32>
  }
}

module {
  func.func @main() -> tensor<1x48xf32> {
    %cst = stablehlo.constant dense<0.000000e+00> : tensor<1x288xf32>
    %0 = stablehlo.slice %cst [0:1, 144:192] : (tensor<1x288xf32>) -> tensor<1x48xf32>
    return %0 : tensor<1x48xf32>
  }
}

module {
  func.func @main() -> tensor<1x48xf32> {
    %cst = stablehlo.constant dense<0.000000e+00> : tensor<1x288xf32>
    %0 = stablehlo.slice %cst [0:1, 144:192] : (tensor<1x288xf32>) -> tensor<1x48xf32>
    return %0 : tensor<1x48xf32>
  }
}

module {
  func.func @main() -> tensor<2x48xf32> {
    %cst = stablehlo.constant dense<0.000000e+00> : tensor<1x48xf32>
    %cst_0 = stablehlo.constant dense<0.000000e+00> : tensor<1x48xf32>
    %0 = stablehlo.concatenate %cst, %cst_0, dim = 0 : (tensor<1x48xf32>, tensor<1x48xf32>) -> tensor<2x48xf32>
    return %0 : tensor<2x48xf32>
  }
}

module {
  func.func @main() -> tensor<48xf32> {
    %cst = stablehlo.constant dense<0.000000e+00> : tensor<2x48xf32>
    %cst_0 = stablehlo.constant dense<0.000000e+00> : tensor<2xf32>
    %0 = stablehlo.dot_general %cst, %cst_0, contracting_dims = [0] x [0], precision = [DEFAULT, DEFAULT] : (tensor<2x48xf32>, tensor<2xf32>) -> tensor<48xf32>
    return %0 : tensor<48xf32>
  }
}

module {
  func.func @main() -> tensor<48xf32> {
    %cst = stablehlo.constant dense<0.000000e+00> : tensor<288xf32>
    %0 = stablehlo.slice %cst [192:240] : (tensor<288xf32>) -> tensor<48xf32>
    return %0 : tensor<48xf32>
  }
}

module {
  func.func @main() -> tensor<1x48xf32> {
    %cst = stablehlo.constant dense<0.000000e+00> : tensor<1x288xf32>
    %0 = stablehlo.slice %cst [0:1, 192:240] : (tensor<1x288xf32>) -> tensor<1x48xf32>
    return %0 : tensor<1x48xf32>
  }
}

module {
  func.func @main() -> tensor<1x48xf32> {
    %cst = stablehlo.constant dense<0.000000e+00> : tensor<1x288xf32>
    %0 = stablehlo.slice %cst [0:1, 192:240] : (tensor<1x288xf32>) -> tensor<1x48xf32>
    return %0 : tensor<1x48xf32>
  }
}

module {
  func.func @main() -> tensor<2x48xf32> {
    %cst = stablehlo.constant dense<0.000000e+00> : tensor<1x48xf32>
    %cst_0 = stablehlo.constant dense<0.000000e+00> : tensor<1x48xf32>
    %0 = stablehlo.concatenate %cst, %cst_0, dim = 0 : (tensor<1x48xf32>, tensor<1x48xf32>) -> tensor<2x48xf32>
    return %0 : tensor<2x48xf32>
  }
}

module {
  func.func @main() -> tensor<2xf32> {
    %cst = stablehlo.constant dense<0.000000e+00> : tensor<2x48xf32>
    %cst_0 = stablehlo.constant dense<0.000000e+00> : tensor<48xf32>
    %0 = stablehlo.dot_general %cst, %cst_0, contracting_dims = [1] x [0], precision = [DEFAULT, DEFAULT] : (tensor<2x48xf32>, tensor<48xf32>) -> tensor<2xf32>
    return %0 : tensor<2xf32>
  }
}

module {
  func.func @main() -> tensor<2xf32> {
    %cst = stablehlo.constant dense<0.000000e+00> : tensor<2xf32>
    %cst_0 = stablehlo.constant dense<0.000000e+00> : tensor<2xf32>
    %0 = stablehlo.divide %cst, %cst_0 : tensor<2xf32>
    return %0 : tensor<2xf32>
  }
}

module {
  func.func @main() -> tensor<f32> {
    %cst = stablehlo.constant dense<0.000000e+00> : tensor<f32>
    %cst_0 = stablehlo.constant dense<0.000000e+00> : tensor<f32>
    %0 = stablehlo.maximum %cst, %cst_0 : tensor<f32>
    return %0 : tensor<f32>
  }
}

"builtin.module"() ({
  "func.func"() <{function_type = () -> (), sym_name = "main"}> ({
    %0 = "stablehlo.constant"() <{value = dense<0.000000e+00> : tensor<f32>}> : () -> tensor<f32>
    "stablehlo.return"(%0) : (tensor<f32>) -> ()
    "func.return"() : () -> ()
  }) : () -> ()
}) : () -> ()

module {
  func.func @main() -> tensor<f32> {
    %cst = stablehlo.constant dense<0.000000e+00> : tensor<2xf32>
    %cst_0 = stablehlo.constant dense<0.000000e+00> : tensor<f32>
    %0 = stablehlo.reduce(%cst init: %cst_0) applies stablehlo.maximum across dimensions = [0] : (tensor<2xf32>, tensor<f32>) -> tensor<f32>
    return %0 : tensor<f32>
  }
}

module {
  func.func @main() -> tensor<2xf32> {
    %cst = stablehlo.constant dense<0.000000e+00> : tensor<f32>
    %0 = stablehlo.broadcast_in_dim %cst, dims = [] : (tensor<f32>) -> tensor<2xf32>
    return %0 : tensor<2xf32>
  }
}

module {
  func.func @main() -> tensor<2xi1> {
    %cst = stablehlo.constant dense<0.000000e+00> : tensor<2xf32>
    %cst_0 = stablehlo.constant dense<0.000000e+00> : tensor<2xf32>
    %0 = stablehlo.compare  EQ, %cst, %cst_0,  FLOAT : (tensor<2xf32>, tensor<2xf32>) -> tensor<2xi1>
    return %0 : tensor<2xi1>
  }
}

module {
  func.func @main() -> tensor<2xf32> {
    %c = stablehlo.constant dense<false> : tensor<2xi1>
    %0 = stablehlo.convert %c : (tensor<2xi1>) -> tensor<2xf32>
    return %0 : tensor<2xf32>
  }
}

module {
  func.func @main() -> tensor<f32> {
    %cst = stablehlo.constant dense<0.000000e+00> : tensor<f32>
    %cst_0 = stablehlo.constant dense<0.000000e+00> : tensor<f32>
    %0 = stablehlo.add %cst, %cst_0 : tensor<f32>
    return %0 : tensor<f32>
  }
}

"builtin.module"() ({
  "func.func"() <{function_type = () -> (), sym_name = "main"}> ({
    %0 = "stablehlo.constant"() <{value = dense<0.000000e+00> : tensor<f32>}> : () -> tensor<f32>
    "stablehlo.return"(%0) : (tensor<f32>) -> ()
    "func.return"() : () -> ()
  }) : () -> ()
}) : () -> ()

module {
  func.func @main() -> tensor<f32> {
    %cst = stablehlo.constant dense<0.000000e+00> : tensor<2xf32>
    %cst_0 = stablehlo.constant dense<0.000000e+00> : tensor<f32>
    %0 = stablehlo.reduce(%cst init: %cst_0) applies stablehlo.add across dimensions = [0] : (tensor<2xf32>, tensor<f32>) -> tensor<f32>
    return %0 : tensor<f32>
  }
}

module {
  func.func @main() -> tensor<2xf32> {
    %cst = stablehlo.constant dense<0.000000e+00> : tensor<2xf32>
    %cst_0 = stablehlo.constant dense<0.000000e+00> : tensor<2xf32>
    %0 = stablehlo.subtract %cst, %cst_0 : tensor<2xf32>
    return %0 : tensor<2xf32>
  }
}

module {
  func.func @main() -> tensor<2xf32> {
    %cst = stablehlo.constant dense<0.000000e+00> : tensor<2xf32>
    %0 = stablehlo.exponential %cst : tensor<2xf32>
    return %0 : tensor<2xf32>
  }
}

module {
  func.func @main() -> tensor<1xf32> {
    %cst = stablehlo.constant dense<0.000000e+00> : tensor<2xf32>
    %0 = stablehlo.slice %cst [0:1] : (tensor<2xf32>) -> tensor<1xf32>
    return %0 : tensor<1xf32>
  }
}

module {
  func.func @main() -> tensor<f32> {
    %cst = stablehlo.constant dense<0.000000e+00> : tensor<1xf32>
    %0 = stablehlo.reshape %cst : (tensor<1xf32>) -> tensor<f32>
    return %0 : tensor<f32>
  }
}

module {
  func.func @main() -> tensor<1xf32> {
    %cst = stablehlo.constant dense<0.000000e+00> : tensor<2xf32>
    %0 = stablehlo.slice %cst [1:2] : (tensor<2xf32>) -> tensor<1xf32>
    return %0 : tensor<1xf32>
  }
}

module {
  func.func @main() -> tensor<f32> {
    %cst = stablehlo.constant dense<0.000000e+00> : tensor<1xf32>
    %0 = stablehlo.reshape %cst : (tensor<1xf32>) -> tensor<f32>
    return %0 : tensor<f32>
  }
}

module {
  func.func @main() -> tensor<f32> {
    %cst = stablehlo.constant dense<0.000000e+00> : tensor<f32>
    %cst_0 = stablehlo.constant dense<0.000000e+00> : tensor<f32>
    %0 = stablehlo.add %cst, %cst_0 : tensor<f32>
    return %0 : tensor<f32>
  }
}

module {
  func.func @main() -> tensor<2xf32> {
    %cst = stablehlo.constant dense<0.000000e+00> : tensor<f32>
    %0 = stablehlo.broadcast_in_dim %cst, dims = [] : (tensor<f32>) -> tensor<2xf32>
    return %0 : tensor<2xf32>
  }
}

module {
  func.func @main() -> tensor<2xf32> {
    %cst = stablehlo.constant dense<0.000000e+00> : tensor<2xf32>
    %cst_0 = stablehlo.constant dense<0.000000e+00> : tensor<2xf32>
    %0 = stablehlo.divide %cst, %cst_0 : tensor<2xf32>
    return %0 : tensor<2xf32>
  }
}

module {
  func.func @main() -> tensor<f32> {
    %cst = stablehlo.constant dense<0.000000e+00> : tensor<f32>
    %cst_0 = stablehlo.constant dense<0.000000e+00> : tensor<f32>
    %0 = stablehlo.multiply %cst, %cst_0 : tensor<f32>
    return %0 : tensor<f32>
  }
}

module {
  func.func @main() -> tensor<f32> {
    %cst = stablehlo.constant dense<0.000000e+00> : tensor<f32>
    %cst_0 = stablehlo.constant dense<0.000000e+00> : tensor<f32>
    %0 = stablehlo.divide %cst, %cst_0 : tensor<f32>
    return %0 : tensor<f32>
  }
}

module {
  func.func @main() -> tensor<1x48xf32> {
    %cst = stablehlo.constant dense<0.000000e+00> : tensor<1x288xf32>
    %0 = stablehlo.slice %cst [0:1, 192:240] : (tensor<1x288xf32>) -> tensor<1x48xf32>
    return %0 : tensor<1x48xf32>
  }
}

module {
  func.func @main() -> tensor<1x48xf32> {
    %cst = stablehlo.constant dense<0.000000e+00> : tensor<1x288xf32>
    %0 = stablehlo.slice %cst [0:1, 192:240] : (tensor<1x288xf32>) -> tensor<1x48xf32>
    return %0 : tensor<1x48xf32>
  }
}

module {
  func.func @main() -> tensor<2x48xf32> {
    %cst = stablehlo.constant dense<0.000000e+00> : tensor<1x48xf32>
    %cst_0 = stablehlo.constant dense<0.000000e+00> : tensor<1x48xf32>
    %0 = stablehlo.concatenate %cst, %cst_0, dim = 0 : (tensor<1x48xf32>, tensor<1x48xf32>) -> tensor<2x48xf32>
    return %0 : tensor<2x48xf32>
  }
}

module {
  func.func @main() -> tensor<48xf32> {
    %cst = stablehlo.constant dense<0.000000e+00> : tensor<2x48xf32>
    %cst_0 = stablehlo.constant dense<0.000000e+00> : tensor<2xf32>
    %0 = stablehlo.dot_general %cst, %cst_0, contracting_dims = [0] x [0], precision = [DEFAULT, DEFAULT] : (tensor<2x48xf32>, tensor<2xf32>) -> tensor<48xf32>
    return %0 : tensor<48xf32>
  }
}

module {
  func.func @main() -> tensor<48xf32> {
    %cst = stablehlo.constant dense<0.000000e+00> : tensor<288xf32>
    %0 = stablehlo.slice %cst [240:288] : (tensor<288xf32>) -> tensor<48xf32>
    return %0 : tensor<48xf32>
  }
}

module {
  func.func @main() -> tensor<1x48xf32> {
    %cst = stablehlo.constant dense<0.000000e+00> : tensor<1x288xf32>
    %0 = stablehlo.slice %cst [0:1, 240:288] : (tensor<1x288xf32>) -> tensor<1x48xf32>
    return %0 : tensor<1x48xf32>
  }
}

module {
  func.func @main() -> tensor<1x48xf32> {
    %cst = stablehlo.constant dense<0.000000e+00> : tensor<1x288xf32>
    %0 = stablehlo.slice %cst [0:1, 240:288] : (tensor<1x288xf32>) -> tensor<1x48xf32>
    return %0 : tensor<1x48xf32>
  }
}

module {
  func.func @main() -> tensor<2x48xf32> {
    %cst = stablehlo.constant dense<0.000000e+00> : tensor<1x48xf32>
    %cst_0 = stablehlo.constant dense<0.000000e+00> : tensor<1x48xf32>
    %0 = stablehlo.concatenate %cst, %cst_0, dim = 0 : (tensor<1x48xf32>, tensor<1x48xf32>) -> tensor<2x48xf32>
    return %0 : tensor<2x48xf32>
  }
}

module {
  func.func @main() -> tensor<2xf32> {
    %cst = stablehlo.constant dense<0.000000e+00> : tensor<2x48xf32>
    %cst_0 = stablehlo.constant dense<0.000000e+00> : tensor<48xf32>
    %0 = stablehlo.dot_general %cst, %cst_0, contracting_dims = [1] x [0], precision = [DEFAULT, DEFAULT] : (tensor<2x48xf32>, tensor<48xf32>) -> tensor<2xf32>
    return %0 : tensor<2xf32>
  }
}

module {
  func.func @main() -> tensor<2xf32> {
    %cst = stablehlo.constant dense<0.000000e+00> : tensor<2xf32>
    %cst_0 = stablehlo.constant dense<0.000000e+00> : tensor<2xf32>
    %0 = stablehlo.divide %cst, %cst_0 : tensor<2xf32>
    return %0 : tensor<2xf32>
  }
}

module {
  func.func @main() -> tensor<f32> {
    %cst = stablehlo.constant dense<0.000000e+00> : tensor<f32>
    %cst_0 = stablehlo.constant dense<0.000000e+00> : tensor<f32>
    %0 = stablehlo.maximum %cst, %cst_0 : tensor<f32>
    return %0 : tensor<f32>
  }
}

"builtin.module"() ({
  "func.func"() <{function_type = () -> (), sym_name = "main"}> ({
    %0 = "stablehlo.constant"() <{value = dense<0.000000e+00> : tensor<f32>}> : () -> tensor<f32>
    "stablehlo.return"(%0) : (tensor<f32>) -> ()
    "func.return"() : () -> ()
  }) : () -> ()
}) : () -> ()

module {
  func.func @main() -> tensor<f32> {
    %cst = stablehlo.constant dense<0.000000e+00> : tensor<2xf32>
    %cst_0 = stablehlo.constant dense<0.000000e+00> : tensor<f32>
    %0 = stablehlo.reduce(%cst init: %cst_0) applies stablehlo.maximum across dimensions = [0] : (tensor<2xf32>, tensor<f32>) -> tensor<f32>
    return %0 : tensor<f32>
  }
}

module {
  func.func @main() -> tensor<2xf32> {
    %cst = stablehlo.constant dense<0.000000e+00> : tensor<f32>
    %0 = stablehlo.broadcast_in_dim %cst, dims = [] : (tensor<f32>) -> tensor<2xf32>
    return %0 : tensor<2xf32>
  }
}

module {
  func.func @main() -> tensor<2xi1> {
    %cst = stablehlo.constant dense<0.000000e+00> : tensor<2xf32>
    %cst_0 = stablehlo.constant dense<0.000000e+00> : tensor<2xf32>
    %0 = stablehlo.compare  EQ, %cst, %cst_0,  FLOAT : (tensor<2xf32>, tensor<2xf32>) -> tensor<2xi1>
    return %0 : tensor<2xi1>
  }
}

module {
  func.func @main() -> tensor<2xf32> {
    %c = stablehlo.constant dense<false> : tensor<2xi1>
    %0 = stablehlo.convert %c : (tensor<2xi1>) -> tensor<2xf32>
    return %0 : tensor<2xf32>
  }
}

module {
  func.func @main() -> tensor<f32> {
    %cst = stablehlo.constant dense<0.000000e+00> : tensor<f32>
    %cst_0 = stablehlo.constant dense<0.000000e+00> : tensor<f32>
    %0 = stablehlo.add %cst, %cst_0 : tensor<f32>
    return %0 : tensor<f32>
  }
}

"builtin.module"() ({
  "func.func"() <{function_type = () -> (), sym_name = "main"}> ({
    %0 = "stablehlo.constant"() <{value = dense<0.000000e+00> : tensor<f32>}> : () -> tensor<f32>
    "stablehlo.return"(%0) : (tensor<f32>) -> ()
    "func.return"() : () -> ()
  }) : () -> ()
}) : () -> ()

module {
  func.func @main() -> tensor<f32> {
    %cst = stablehlo.constant dense<0.000000e+00> : tensor<2xf32>
    %cst_0 = stablehlo.constant dense<0.000000e+00> : tensor<f32>
    %0 = stablehlo.reduce(%cst init: %cst_0) applies stablehlo.add across dimensions = [0] : (tensor<2xf32>, tensor<f32>) -> tensor<f32>
    return %0 : tensor<f32>
  }
}

module {
  func.func @main() -> tensor<2xf32> {
    %cst = stablehlo.constant dense<0.000000e+00> : tensor<2xf32>
    %cst_0 = stablehlo.constant dense<0.000000e+00> : tensor<2xf32>
    %0 = stablehlo.subtract %cst, %cst_0 : tensor<2xf32>
    return %0 : tensor<2xf32>
  }
}

module {
  func.func @main() -> tensor<2xf32> {
    %cst = stablehlo.constant dense<0.000000e+00> : tensor<2xf32>
    %0 = stablehlo.exponential %cst : tensor<2xf32>
    return %0 : tensor<2xf32>
  }
}

module {
  func.func @main() -> tensor<1xf32> {
    %cst = stablehlo.constant dense<0.000000e+00> : tensor<2xf32>
    %0 = stablehlo.slice %cst [0:1] : (tensor<2xf32>) -> tensor<1xf32>
    return %0 : tensor<1xf32>
  }
}

module {
  func.func @main() -> tensor<f32> {
    %cst = stablehlo.constant dense<0.000000e+00> : tensor<1xf32>
    %0 = stablehlo.reshape %cst : (tensor<1xf32>) -> tensor<f32>
    return %0 : tensor<f32>
  }
}

module {
  func.func @main() -> tensor<1xf32> {
    %cst = stablehlo.constant dense<0.000000e+00> : tensor<2xf32>
    %0 = stablehlo.slice %cst [1:2] : (tensor<2xf32>) -> tensor<1xf32>
    return %0 : tensor<1xf32>
  }
}

module {
  func.func @main() -> tensor<f32> {
    %cst = stablehlo.constant dense<0.000000e+00> : tensor<1xf32>
    %0 = stablehlo.reshape %cst : (tensor<1xf32>) -> tensor<f32>
    return %0 : tensor<f32>
  }
}

module {
  func.func @main() -> tensor<f32> {
    %cst = stablehlo.constant dense<0.000000e+00> : tensor<f32>
    %cst_0 = stablehlo.constant dense<0.000000e+00> : tensor<f32>
    %0 = stablehlo.add %cst, %cst_0 : tensor<f32>
    return %0 : tensor<f32>
  }
}

module {
  func.func @main() -> tensor<2xf32> {
    %cst = stablehlo.constant dense<0.000000e+00> : tensor<f32>
    %0 = stablehlo.broadcast_in_dim %cst, dims = [] : (tensor<f32>) -> tensor<2xf32>
    return %0 : tensor<2xf32>
  }
}

module {
  func.func @main() -> tensor<2xf32> {
    %cst = stablehlo.constant dense<0.000000e+00> : tensor<2xf32>
    %cst_0 = stablehlo.constant dense<0.000000e+00> : tensor<2xf32>
    %0 = stablehlo.divide %cst, %cst_0 : tensor<2xf32>
    return %0 : tensor<2xf32>
  }
}

module {
  func.func @main() -> tensor<f32> {
    %cst = stablehlo.constant dense<0.000000e+00> : tensor<f32>
    %cst_0 = stablehlo.constant dense<0.000000e+00> : tensor<f32>
    %0 = stablehlo.multiply %cst, %cst_0 : tensor<f32>
    return %0 : tensor<f32>
  }
}

module {
  func.func @main() -> tensor<f32> {
    %cst = stablehlo.constant dense<0.000000e+00> : tensor<f32>
    %cst_0 = stablehlo.constant dense<0.000000e+00> : tensor<f32>
    %0 = stablehlo.divide %cst, %cst_0 : tensor<f32>
    return %0 : tensor<f32>
  }
}

module {
  func.func @main() -> tensor<1x48xf32> {
    %cst = stablehlo.constant dense<0.000000e+00> : tensor<1x288xf32>
    %0 = stablehlo.slice %cst [0:1, 240:288] : (tensor<1x288xf32>) -> tensor<1x48xf32>
    return %0 : tensor<1x48xf32>
  }
}

module {
  func.func @main() -> tensor<1x48xf32> {
    %cst = stablehlo.constant dense<0.000000e+00> : tensor<1x288xf32>
    %0 = stablehlo.slice %cst [0:1, 240:288] : (tensor<1x288xf32>) -> tensor<1x48xf32>
    return %0 : tensor<1x48xf32>
  }
}

module {
  func.func @main() -> tensor<2x48xf32> {
    %cst = stablehlo.constant dense<0.000000e+00> : tensor<1x48xf32>
    %cst_0 = stablehlo.constant dense<0.000000e+00> : tensor<1x48xf32>
    %0 = stablehlo.concatenate %cst, %cst_0, dim = 0 : (tensor<1x48xf32>, tensor<1x48xf32>) -> tensor<2x48xf32>
    return %0 : tensor<2x48xf32>
  }
}

module {
  func.func @main() -> tensor<48xf32> {
    %cst = stablehlo.constant dense<0.000000e+00> : tensor<2x48xf32>
    %cst_0 = stablehlo.constant dense<0.000000e+00> : tensor<2xf32>
    %0 = stablehlo.dot_general %cst, %cst_0, contracting_dims = [0] x [0], precision = [DEFAULT, DEFAULT] : (tensor<2x48xf32>, tensor<2xf32>) -> tensor<48xf32>
    return %0 : tensor<48xf32>
  }
}

module {
  func.func @main() -> tensor<288xf32> {
    %cst = stablehlo.constant dense<0.000000e+00> : tensor<48xf32>
    %cst_0 = stablehlo.constant dense<0.000000e+00> : tensor<48xf32>
    %cst_1 = stablehlo.constant dense<0.000000e+00> : tensor<48xf32>
    %cst_2 = stablehlo.constant dense<0.000000e+00> : tensor<48xf32>
    %cst_3 = stablehlo.constant dense<0.000000e+00> : tensor<48xf32>
    %cst_4 = stablehlo.constant dense<0.000000e+00> : tensor<48xf32>
    %0 = stablehlo.concatenate %cst, %cst_0, %cst_1, %cst_2, %cst_3, %cst_4, dim = 0 : (tensor<48xf32>, tensor<48xf32>, tensor<48xf32>, tensor<48xf32>, tensor<48xf32>, tensor<48xf32>) -> tensor<288xf32>
    return %0 : tensor<288xf32>
  }
}

module {
  func.func @main() -> tensor<1x288x288xf32> {
…
        %2618 = "stablehlo.dot_general"(%2617, %9) <{dot_dimension_numbers = #stablehlo.dot<lhs_batching_dimensions = [0], rhs_batching_dimensions = [0], lhs_contracting_dimensions = [1], rhs_contracting_dimensions = [1]>, precision_config = [#stablehlo<precision DEFAULT>, #stablehlo<precision DEFAULT>]}> : (tensor<144x2xf32>, tensor<144x2x2xf32>) -> tensor<144x2xf32>
        %2619 = "stablehlo.reshape"(%2618) : (tensor<144x2xf32>) -> tensor<288xf32>
        %2620 = "stablehlo.dot_general"(%2619, %27) <{dot_dimension_numbers = #stablehlo.dot<lhs_contracting_dimensions = [0], rhs_contracting_dimensions = [0]>, precision_config = [#stablehlo<precision DEFAULT>, #stablehlo<precision DEFAULT>]}> : (tensor<288xf32>, tensor<288x288xf32>) -> tensor<288xf32>
        %2621 = "stablehlo.add"(%2598, %2620) : (tensor<288xf32>, tensor<288xf32>) -> tensor<288xf32>
        %2622 = "stablehlo.dot_general"(%2619, %22) <{dot_dimension_numbers = #stablehlo.dot<>, precision_config = [#stablehlo<precision DEFAULT>, #stablehlo<precision DEFAULT>]}> : (tensor<288xf32>, tensor<288xf32>) -> tensor<288x288xf32>
        %2623 = "stablehlo.reshape"(%2622) : (tensor<288x288xf32>) -> tensor<1x288x288xf32>
        %2624 = "stablehlo.concatenate"(%2623, %2409, %2197, %1985, %1773, %1561) <{dimension = 0 : i64}> : (tensor<1x288x288xf32>, tensor<1x288x288xf32>, tensor<1x288x288xf32>, tensor<1x288x288xf32>, tensor<1x288x288xf32>, tensor<1x288x288xf32>) -> tensor<6x288x288xf32>
        %2625 = "stablehlo.reshape"(%2609) : (tensor<1x288xf32>) -> tensor<1x1x288xf32>
        %2626 = "stablehlo.concatenate"(%2625, %2410, %2198, %1986, %1774, %1562) <{dimension = 0 : i64}> : (tensor<1x1x288xf32>, tensor<1x1x288xf32>, tensor<1x1x288xf32>, tensor<1x1x288xf32>, tensor<1x1x288xf32>, tensor<1x1x288xf32>) -> tensor<6x1x288xf32>
        %2627 = "stablehlo.dot_general"(%62, %2470) <{dot_dimension_numbers = #stablehlo.dot<>, precision_config = [#stablehlo<precision DEFAULT>, #stablehlo<precision DEFAULT>]}> : (tensor<2xf32>, tensor<48xf32>) -> tensor<2x48xf32>
        %2628 = "stablehlo.slice"(%2627) <{limit_indices = array<i64: 1, 48>, start_indices = array<i64: 0, 0>, strides = array<i64: 1, 1>}> : (tensor<2x48xf32>) -> tensor<1x48xf32>
        %2629 = "stablehlo.slice"(%2575) <{limit_indices = array<i64: 1, 48>, start_indices = array<i64: 0, 0>, strides = array<i64: 1, 1>}> : (tensor<2x48xf32>) -> tensor<1x48xf32>
        %2630 = "stablehlo.slice"(%2555) <{limit_indices = array<i64: 1, 48>, start_indices = array<i64: 0, 0>, strides = array<i64: 1, 1>}> : (tensor<2x48xf32>) -> tensor<1x48xf32>
        %2631 = "stablehlo.slice"(%2535) <{limit_indices = array<i64: 1, 48>, start_indices = array<i64: 0, 0>, strides = array<i64: 1, 1>}> : (tensor<2x48xf32>) -> tensor<1x48xf32>
        %2632 = "stablehlo.slice"(%2515) <{limit_indices = array<i64: 1, 48>, start_indices = array<i64: 0, 0>, strides = array<i64: 1, 1>}> : (tensor<2x48xf32>) -> tensor<1x48xf32>
        %2633 = "stablehlo.slice"(%2495) <{limit_indices = array<i64: 1, 48>, start_indices = array<i64: 0, 0>, strides = array<i64: 1, 1>}> : (tensor<2x48xf32>) -> tensor<1x48xf32>
        %2634 = "stablehlo.concatenate"(%2628, %2629, %2630, %2631, %2632, %2633) <{dimension = 1 : i64}> : (tensor<1x48xf32>, tensor<1x48xf32>, tensor<1x48xf32>, tensor<1x48xf32>, tensor<1x48xf32>, tensor<1x48xf32>) -> tensor<1x288xf32>
        %2635 = "stablehlo.slice"(%2627) <{limit_indices = array<i64: 2, 48>, start_indices = array<i64: 1, 0>, strides = array<i64: 1, 1>}> : (tensor<2x48xf32>) -> tensor<1x48xf32>
        %2636 = "stablehlo.slice"(%2575) <{limit_indices = array<i64: 2, 48>, start_indices = array<i64: 1, 0>, strides = array<i64: 1, 1>}> : (tensor<2x48xf32>) -> tensor<1x48xf32>
        %2637 = "stablehlo.slice"(%2555) <{limit_indices = array<i64: 2, 48>, start_indices = array<i64: 1, 0>, strides = array<i64: 1, 1>}> : (tensor<2x48xf32>) -> tensor<1x48xf32>
        %2638 = "stablehlo.slice"(%2535) <{limit_indices = array<i64: 2, 48>, start_indices = array<i64: 1, 0>, strides = array<i64: 1, 1>}> : (tensor<2x48xf32>) -> tensor<1x48xf32>
        %2639 = "stablehlo.slice"(%2515) <{limit_indices = array<i64: 2, 48>, start_indices = array<i64: 1, 0>, strides = array<i64: 1, 1>}> : (tensor<2x48xf32>) -> tensor<1x48xf32>
        %2640 = "stablehlo.slice"(%2495) <{limit_indices = array<i64: 2, 48>, start_indices = array<i64: 1, 0>, strides = array<i64: 1, 1>}> : (tensor<2x48xf32>) -> tensor<1x48xf32>
        %2641 = "stablehlo.concatenate"(%2635, %2636, %2637, %2638, %2639, %2640) <{dimension = 1 : i64}> : (tensor<1x48xf32>, tensor<1x48xf32>, tensor<1x48xf32>, tensor<1x48xf32>, tensor<1x48xf32>, tensor<1x48xf32>) -> tensor<1x288xf32>
        %2642 = "stablehlo.reshape"(%2641) : (tensor<1x288xf32>) -> tensor<288xf32>
        %2643 = "stablehlo.dot_general"(%2642, %30) <{dot_dimension_numbers = #stablehlo.dot<lhs_contracting_dimensions = [0], rhs_contracting_dimensions = [0]>, precision_config = [#stablehlo<precision DEFAULT>, #stablehlo<precision DEFAULT>]}> : (tensor<288xf32>, tensor<288x288xf32>) -> tensor<288xf32>
        %2644 = "stablehlo.add"(%2621, %2643) : (tensor<288xf32>, tensor<288xf32>) -> tensor<288xf32>
        %2645 = "stablehlo.multiply"(%20, %2644) : (tensor<288xf32>, tensor<288xf32>) -> tensor<288xf32>
        %2646 = "stablehlo.reduce"(%2645, %3) <{dimensions = array<i64: 0>}> ({
        ^bb0(%arg14: tensor<f32>, %arg15: tensor<f32>):
          %2743 = "stablehlo.add"(%arg14, %arg15) : (tensor<f32>, tensor<f32>) -> tensor<f32>
          "stablehlo.return"(%2743) : (tensor<f32>) -> ()
        }) : (tensor<288xf32>, tensor<f32>) -> tensor<f32>
        %2647 = "stablehlo.multiply"(%2646, %19) : (tensor<f32>, tensor<f32>) -> tensor<f32>
        %2648 = "stablehlo.negate"(%2647) : (tensor<f32>) -> tensor<f32>
        %2649 = "stablehlo.multiply"(%2648, %16) : (tensor<f32>, tensor<f32>) -> tensor<f32>
        %2650 = "stablehlo.divide"(%2649, %6) : (tensor<f32>, tensor<f32>) -> tensor<f32>
        %2651 = "stablehlo.dot_general"(%2650, %arg0) <{dot_dimension_numbers = #stablehlo.dot<>, precision_config = [#stablehlo<precision DEFAULT>, #stablehlo<precision DEFAULT>]}> : (tensor<f32>, tensor<288xf32>) -> tensor<288xf32>
        %2652 = "stablehlo.add"(%2468, %2651) : (tensor<288xf32>, tensor<288xf32>) -> tensor<288xf32>
        %2653 = "stablehlo.add"(%2652, %2651) : (tensor<288xf32>, tensor<288xf32>) -> tensor<288xf32>
        %2654 = "stablehlo.multiply"(%2644, %21) : (tensor<288xf32>, tensor<288xf32>) -> tensor<288xf32>
        %2655 = "stablehlo.multiply"(%11, %2654) : (tensor<288xf32>, tensor<288xf32>) -> tensor<288xf32>
        %2656 = "stablehlo.add"(%2653, %2655) : (tensor<288xf32>, tensor<288xf32>) -> tensor<288xf32>
        %2657 = "stablehlo.multiply"(%2654, %arg0) : (tensor<288xf32>, tensor<288xf32>) -> tensor<288xf32>
        %2658 = "stablehlo.reshape"(%2657) : (tensor<288xf32>) -> tensor<1x288xf32>
        %2659 = "stablehlo.dot_general"(%2642, %22) <{dot_dimension_numbers = #stablehlo.dot<>, precision_config = [#stablehlo<precision DEFAULT>, #stablehlo<precision DEFAULT>]}> : (tensor<288xf32>, tensor<288xf32>) -> tensor<288x288xf32>
        %2660 = "stablehlo.reshape"(%2659) : (tensor<288x288xf32>) -> tensor<1x288x288xf32>
        %2661 = "stablehlo.reshape"(%2634) : (tensor<1x288xf32>) -> tensor<1x1x288xf32>
        %2662 = "stablehlo.dot_general"(%2468, %199) <{dot_dimension_numbers = #stablehlo.dot<>, precision_config = [#stablehlo<precision DEFAULT>, #stablehlo<precision DEFAULT>]}> : (tensor<288xf32>, tensor<288xf32>) -> tensor<288x288xf32>
        %2663 = "stablehlo.reshape"(%2662) : (tensor<288x288xf32>) -> tensor<1x288x288xf32>
        %2664 = "stablehlo.multiply"(%2466, %203) : (tensor<288xf32>, tensor<288xf32>) -> tensor<288xf32>
        %2665 = "stablehlo.reshape"(%2664) : (tensor<288xf32>) -> tensor<1x288xf32>
        %2666 = "stablehlo.dot_general"(%2454, %216) <{dot_dimension_numbers = #stablehlo.dot<>, precision_config = [#stablehlo<precision DEFAULT>, #stablehlo<precision DEFAULT>]}> : (tensor<768xf32>, tensor<288xf32>) -> tensor<768x288xf32>
        %2667 = "stablehlo.reshape"(%2666) : (tensor<768x288xf32>) -> tensor<1x768x288xf32>
        %2668 = "stablehlo.dot_general"(%2440, %230) <{dot_dimension_numbers = #stablehlo.dot<>, precision_config = [#stablehlo<precision DEFAULT>, #stablehlo<precision DEFAULT>]}> : (tensor<288xf32>, tensor<768xf32>) -> tensor<288x768xf32>
        %2669 = "stablehlo.reshape"(%2668) : (tensor<288x768xf32>) -> tensor<1x288x768xf32>
        %2670 = "stablehlo.multiply"(%2438, %234) : (tensor<288xf32>, tensor<288xf32>) -> tensor<288xf32>
        %2671 = "stablehlo.reshape"(%2670) : (tensor<288xf32>) -> tensor<1x288xf32>
        %2672 = "stablehlo.dot_general"(%2426, %247) <{dot_dimension_numbers = #stablehlo.dot<>, precision_config = [#stablehlo<precision DEFAULT>, #stablehlo<precision DEFAULT>]}> : (tensor<288xf32>, tensor<288xf32>) -> tensor<288x288xf32>
        %2673 = "stablehlo.reshape"(%2672) : (tensor<288x288xf32>) -> tensor<1x288x288xf32>
        %2674 = "stablehlo.reshape"(%2418) : (tensor<1x288xf32>) -> tensor<1x1x288xf32>
        %2675 = "stablehlo.dot_general"(%2255, %424) <{dot_dimension_numbers = #stablehlo.dot<>, precision_config = [#stablehlo<precision DEFAULT>, #stablehlo<precision DEFAULT>]}> : (tensor<288xf32>, tensor<288xf32>) -> tensor<288x288xf32>
        %2676 = "stablehlo.reshape"(%2675) : (tensor<288x288xf32>) -> tensor<1x288x288xf32>
        %2677 = "stablehlo.multiply"(%2253, %428) : (tensor<288xf32>, tensor<288xf32>) -> tensor<288xf32>
        %2678 = "stablehlo.reshape"(%2677) : (tensor<288xf32>) -> tensor<1x288xf32>
        %2679 = "stablehlo.dot_general"(%2241, %441) <{dot_dimension_numbers = #stablehlo.dot<>, precision_config = [#stablehlo<precision DEFAULT>, #stablehlo<precision DEFAULT>]}> : (tensor<768xf32>, tensor<288xf32>) -> tensor<768x288xf32>
        %2680 = "stablehlo.reshape"(%2679) : (tensor<768x288xf32>) -> tensor<1x768x288xf32>
        %2681 = "stablehlo.dot_general"(%2228, %455) <{dot_dimension_numbers = #stablehlo.dot<>, precision_config = [#stablehlo<precision DEFAULT>, #stablehlo<precision DEFAULT>]}> : (tensor<288xf32>, tensor<768xf32>) -> tensor<288x768xf32>
        %2682 = "stablehlo.reshape"(%2681) : (tensor<288x768xf32>) -> tensor<1x288x768xf32>
        %2683 = "stablehlo.multiply"(%2226, %459) : (tensor<288xf32>, tensor<288xf32>) -> tensor<288xf32>
        %2684 = "stablehlo.reshape"(%2683) : (tensor<288xf32>) -> tensor<1x288xf32>
        %2685 = "stablehlo.dot_general"(%2214, %472) <{dot_dimension_numbers = #stablehlo.dot<>, precision_config = [#stablehlo<precision DEFAULT>, #stablehlo<precision DEFAULT>]}> : (tensor<288xf32>, tensor<288xf32>) -> tensor<288x288xf32>
        %2686 = "stablehlo.reshape"(%2685) : (tensor<288x288xf32>) -> tensor<1x288x288xf32>
        %2687 = "stablehlo.reshape"(%2206) : (tensor<1x288xf32>) -> tensor<1x1x288xf32>
        %2688 = "stablehlo.dot_general"(%2043, %649) <{dot_dimension_numbers = #stablehlo.dot<>, precision_config = [#stablehlo<precision DEFAULT>, #stablehlo<precision DEFAULT>]}> : (tensor<288xf32>, tensor<288xf32>) -> tensor<288x288xf32>
        %2689 = "stablehlo.reshape"(%2688) : (tensor<288x288xf32>) -> tensor<1x288x288xf32>
        %2690 = "stablehlo.multiply"(%2041, %653) : (tensor<288xf32>, tensor<288xf32>) -> tensor<288xf32>
        %2691 = "stablehlo.reshape"(%2690) : (tensor<288xf32>) -> tensor<1x288xf32>
        %2692 = "stablehlo.dot_general"(%2029, %666) <{dot_dimension_numbers = #stablehlo.dot<>, precision_config = [#stablehlo<precision DEFAULT>, #stablehlo<precision DEFAULT>]}> : (tensor<768xf32>, tensor<288xf32>) -> tensor<768x288xf32>
        %2693 = "stablehlo.reshape"(%2692) : (tensor<768x288xf32>) -> tensor<1x768x288xf32>
        %2694 = "stablehlo.dot_general"(%2016, %680) <{dot_dimension_numbers = #stablehlo.dot<>, precision_config = [#stablehlo<precision DEFAULT>, #stablehlo<precision DEFAULT>]}> : (tensor<288xf32>, tensor<768xf32>) -> tensor<288x768xf32>
        %2695 = "stablehlo.reshape"(%2694) : (tensor<288x768xf32>) -> tensor<1x288x768xf32>
        %2696 = "stablehlo.multiply"(%2014, %684) : (tensor<288xf32>, tensor<288xf32>) -> tensor<288xf32>
        %2697 = "stablehlo.reshape"(%2696) : (tensor<288xf32>) -> tensor<1x288xf32>
        %2698 = "stablehlo.dot_general"(%2002, %697) <{dot_dimension_numbers = #stablehlo.dot<>, precision_config = [#stablehlo<precision DEFAULT>, #stablehlo<precision DEFAULT>]}> : (tensor<288xf32>, tensor<288xf32>) -> tensor<288x288xf32>
        %2699 = "stablehlo.reshape"(%2698) : (tensor<288x288xf32>) -> tensor<1x288x288xf32>
        %2700 = "stablehlo.reshape"(%1994) : (tensor<1x288xf32>) -> tensor<1x1x288xf32>
        %2701 = "stablehlo.dot_general"(%1831, %874) <{dot_dimension_numbers = #stablehlo.dot<>, precision_config = [#stablehlo<precision DEFAULT>, #stablehlo<precision DEFAULT>]}> : (tensor<288xf32>, tensor<288xf32>) -> tensor<288x288xf32>
        %2702 = "stablehlo.reshape"(%2701) : (tensor<288x288xf32>) -> tensor<1x288x288xf32>
        %2703 = "stablehlo.multiply"(%1829, %878) : (tensor<288xf32>, tensor<288xf32>) -> tensor<288xf32>
        %2704 = "stablehlo.reshape"(%2703) : (tensor<288xf32>) -> tensor<1x288xf32>
        %2705 = "stablehlo.dot_general"(%1817, %891) <{dot_dimension_numbers = #stablehlo.dot<>, precision_config = [#stablehlo<precision DEFAULT>, #stablehlo<precision DEFAULT>]}> : (tensor<768xf32>, tensor<288xf32>) -> tensor<768x288xf32>
        %2706 = "stablehlo.reshape"(%2705) : (tensor<768x288xf32>) -> tensor<1x768x288xf32>
        %2707 = "stablehlo.dot_general"(%1804, %905) <{dot_dimension_numbers = #stablehlo.dot<>, precision_config = [#stablehlo<precision DEFAULT>, #stablehlo<precision DEFAULT>]}> : (tensor<288xf32>, tensor<768xf32>) -> tensor<288x768xf32>
        %2708 = "stablehlo.reshape"(%2707) : (tensor<288x768xf32>) -> tensor<1x288x768xf32>
        %2709 = "stablehlo.multiply"(%1802, %909) : (tensor<288xf32>, tensor<288xf32>) -> tensor<288xf32>
        %2710 = "stablehlo.reshape"(%2709) : (tensor<288xf32>) -> tensor<1x288xf32>
        %2711 = "stablehlo.dot_general"(%1790, %922) <{dot_dimension_numbers = #stablehlo.dot<>, precision_config = [#stablehlo<precision DEFAULT>, #stablehlo<precision DEFAULT>]}> : (tensor<288xf32>, tensor<288xf32>) -> tensor<288x288xf32>
        %2712 = "stablehlo.reshape"(%2711) : (tensor<288x288xf32>) -> tensor<1x288x288xf32>
        %2713 = "stablehlo.reshape"(%1782) : (tensor<1x288xf32>) -> tensor<1x1x288xf32>
        %2714 = "stablehlo.dot_general"(%1619, %1099) <{dot_dimension_numbers = #stablehlo.dot<>, precision_config = [#stablehlo<precision DEFAULT>, #stablehlo<precision DEFAULT>]}> : (tensor<288xf32>, tensor<288xf32>) -> tensor<288x288xf32>
        %2715 = "stablehlo.reshape"(%2714) : (tensor<288x288xf32>) -> tensor<1x288x288xf32>
        %2716 = "stablehlo.multiply"(%1617, %1103) : (tensor<288xf32>, tensor<288xf32>) -> tensor<288xf32>
        %2717 = "stablehlo.reshape"(%2716) : (tensor<288xf32>) -> tensor<1x288xf32>
        %2718 = "stablehlo.dot_general"(%1605, %1116) <{dot_dimension_numbers = #stablehlo.dot<>, precision_config = [#stablehlo<precision DEFAULT>, #stablehlo<precision DEFAULT>]}> : (tensor<768xf32>, tensor<288xf32>) -> tensor<768x288xf32>
        %2719 = "stablehlo.reshape"(%2718) : (tensor<768x288xf32>) -> tensor<1x768x288xf32>
        %2720 = "stablehlo.dot_general"(%1592, %1130) <{dot_dimension_numbers = #stablehlo.dot<>, precision_config = [#stablehlo<precision DEFAULT>, #stablehlo<precision DEFAULT>]}> : (tensor<288xf32>, tensor<768xf32>) -> tensor<288x768xf32>
        %2721 = "stablehlo.reshape"(%2720) : (tensor<288x768xf32>) -> tensor<1x288x768xf32>
        %2722 = "stablehlo.multiply"(%1590, %1134) : (tensor<288xf32>, tensor<288xf32>) -> tensor<288xf32>
        %2723 = "stablehlo.reshape"(%2722) : (tensor<288xf32>) -> tensor<1x288xf32>
        %2724 = "stablehlo.concatenate"(%2658, %2671, %2684, %2697, %2710, %2723) <{dimension = 0 : i64}> : (tensor<1x288xf32>, tensor<1x288xf32>, tensor<1x288xf32>, tensor<1x288xf32>, tensor<1x288xf32>, tensor<1x288xf32>) -> tensor<6x288xf32>
        %2725 = "stablehlo.dot_general"(%1578, %1147) <{dot_dimension_numbers = #stablehlo.dot<>, precision_config = [#stablehlo<precision DEFAULT>, #stablehlo<precision DEFAULT>]}> : (tensor<288xf32>, tensor<288xf32>) -> tensor<288x288xf32>
        %2726 = "stablehlo.reshape"(%2725) : (tensor<288x288xf32>) -> tensor<1x288x288xf32>
        %2727 = "stablehlo.concatenate"(%2660, %2673, %2686, %2699, %2712, %2726) <{dimension = 0 : i64}> : (tensor<1x288x288xf32>, tensor<1x288x288xf32>, tensor<1x288x288xf32>, tensor<1x288x288xf32>, tensor<1x288x288xf32>, tensor<1x288x288xf32>) -> tensor<6x288x288xf32>
        %2728 = "stablehlo.reshape"(%1570) : (tensor<1x288xf32>) -> tensor<1x1x288xf32>
        %2729 = "stablehlo.concatenate"(%2661, %2674, %2687, %2700, %2713, %2728) <{dimension = 0 : i64}> : (tensor<1x1x288xf32>, tensor<1x1x288xf32>, tensor<1x1x288xf32>, tensor<1x1x288xf32>, tensor<1x1x288xf32>, tensor<1x1x288xf32>) -> tensor<6x1x288xf32>
        %2730 = "stablehlo.dot_general"(%1407, %1324) <{dot_dimension_numbers = #stablehlo.dot<>, precision_config = [#stablehlo<precision DEFAULT>, #stablehlo<precision DEFAULT>]}> : (tensor<288xf32>, tensor<288xf32>) -> tensor<288x288xf32>
        %2731 = "stablehlo.reshape"(%2730) : (tensor<288x288xf32>) -> tensor<1x288x288xf32>
        %2732 = "stablehlo.concatenate"(%2663, %2676, %2689, %2702, %2715, %2731) <{dimension = 0 : i64}> : (tensor<1x288x288xf32>, tensor<1x288x288xf32>, tensor<1x288x288xf32>, tensor<1x288x288xf32>, tensor<1x288x288xf32>, tensor<1x288x288xf32>) -> tensor<6x288x288xf32>
        %2733 = "stablehlo.multiply"(%1405, %1328) : (tensor<288xf32>, tensor<288xf32>) -> tensor<288xf32>
        %2734 = "stablehlo.reshape"(%2733) : (tensor<288xf32>) -> tensor<1x288xf32>
        %2735 = "stablehlo.concatenate"(%2665, %2678, %2691, %2704, %2717, %2734) <{dimension = 0 : i64}> : (tensor<1x288xf32>, tensor<1x288xf32>, tensor<1x288xf32>, tensor<1x288xf32>, tensor<1x288xf32>, tensor<1x288xf32>) -> tensor<6x288xf32>
    Jax2 rev (Array([… dtype=float32), {'rms_att_weight': Array([[-3.0143696e-07, -1.2328665e-07, -1.7465823e-08, ...,
        -1.4061717e-07, -1.5792592e-07, -5.4863358e-07],
       [-1.6369802e-06, -8.6754056e-07, -1.8289523e-06, ...,
        -1.0596178e-06, -1.2871564e-06, -1.0761667e-06],
       [-6.9325080e-07, -4.5352172e-07, -8.4269311e-07, ...,
        -8.1122982e-07, -1.5815522e-07,  1.1964835e-07],
       [ 5.1793427e-07, -5.5533786e-07, -2.4150373e-07, ...,
         9.4964332e-07, -1.0185217e-07, -1.0075292e-07],
       [-1.1727195e-06, -1.6750417e-06, -1.1069870e-06, ...,
        -2.1841936e-06, -2.1553085e-06, -1.5655169e-06],
       [-2.2943155e-07, -3.5378143e-08, -6.5307557e-07, ...,
        -7.1474807e-07, -5.4531517e-07,  5.6257981e-08]], dtype=float32), 'rms_ffn_weight': Array([[ 2.95414764e-04,  2.42857262e-04,  2.86784052e-04, ...,
         2.67516210e-04,  2.00823299e-04,  1.17813550e-04],
       [ 7.73553184e-05, -1.25005434e-04, -1.21706857e-04, ...,
        -1.22196643e-05, -3.80375750e-05, -1.78491362e-04],
       [-4.37740673e-04, -3.44874308e-04, -4.67159349e-04, ...,
        -4.63766919e-04, -2.63263530e-04, -3.33167176e-04],
       [ 1.32752233e-04,  9.45400825e-05,  1.38524949e-04, ...,
         1.74323704e-05,  8.29400742e-05, -2.30727273e-05],
       [-9.23259358e-05,  3.04452551e-05, -7.10105960e-05, ...,
        -1.10016546e-04, -1.20125704e-04, -1.12619549e-04],
       [ 9.48957895e-05,  2.31729471e-04,  2.89788470e-04, ...,
         3.06937902e-04,  2.39924557e-04,  1.72888089e-04]],      dtype=float32), 'rms_final_weight': Array([… dtype=float32), 'w1': Array([[[ 3.64633615e-06,  8.72685121e-07,  3.56683722e-06, ...,
          4.34024429e-07,  3.36852531e-06,  1.65969777e-06],
        [ 2.63794050e-06,  6.31343710e-07,  2.58042724e-06, ...,
          3.13994803e-07,  2.43695831e-06,  1.20070774e-06],
        [ 5.99563145e-06,  1.43494674e-06,  5.86491251e-06, ...,
          7.13661734e-07,  5.53883001e-06,  2.72902321e-06],
        ...,
        [-2.69627344e-06, -6.45304681e-07, -2.63748825e-06, ...,
         -3.20938199e-07, -2.49084701e-06, -1.22725908e-06],
        [ 4.82197811e-06,  1.15405385e-06,  4.71684734e-06, ...,
          5.73961415e-07,  4.45459636e-06,  2.19481308e-06],
        [ 2.64609454e-08,  6.33295238e-09,  2.58840345e-08, ...,
          3.14965387e-09,  2.44449119e-08,  1.20441923e-08]],

       [[ 6.17717888e-07,  1.09563098e-06,  1.04882361e-06, ...,
          8.52585856e-07,  1.04958804e-06,  1.77660084e-07],
        [ 2.71790918e-06,  4.82068845e-06,  4.61473974e-06, ...,
          3.75130958e-06,  4.61810305e-06,  7.81690176e-07],
        [ 4.20589959e-06,  7.45990064e-06,  7.14120006e-06, ...,
          5.80506230e-06,  7.14640510e-06,  1.20964694e-06],
        ...,
        [-1.76960100e-06, -3.13869759e-06, -3.00460670e-06, ...,
         -2.44243665e-06, -3.00679653e-06, -5.08949938e-07],
        [ 1.09699340e-06,  1.94571021e-06,  1.86258580e-06, ...,
          1.51409097e-06,  1.86394334e-06,  3.15503172e-07],
        [-8.96390975e-06, -1.58990661e-05, -1.52198290e-05, ...,
         -1.23721575e-05, -1.52309212e-05, -2.57808483e-06]],

       [[-1.93336447e-07, -6.80360870e-08, -4.80970357e-08, ...,
         -8.59555911e-08, -4.33284733e-08, -1.73667392e-08],
        [ 1.00252350e-06,  3.52793137e-07,  2.49401523e-07, ...,
          4.45712629e-07,  2.24674707e-07,  9.00531916e-08],
        [ 8.26453572e-08,  2.90833224e-08,  2.05599946e-08, ...,
          3.67433586e-08,  1.85215825e-08,  7.42374429e-09],
        ...,
        [-4.22935273e-06, -1.48833089e-06, -1.05215202e-06, ...,
         -1.88033107e-06, -9.47836782e-07, -3.79908016e-07],
        [ 1.25773568e-06,  4.42603607e-07,  3.12891615e-07, ...,
          5.59177579e-07,  2.81870086e-07,  1.12978007e-07],
        [-1.98665907e-06, -6.99115446e-07, -4.94228630e-07, ...,
         -8.83250152e-07, -4.45228522e-07, -1.78454655e-07]],

       [[ 1.61405887e-06,  3.88676108e-06,  1.28759098e-06, ...,
          3.81181007e-06,  2.52378095e-06,  4.18733225e-06],
        [ 1.04036246e-06,  2.50526227e-06,  8.29933413e-07, ...,
          2.45695151e-06,  1.62673564e-06,  2.69899897e-06],
        [ 2.18161540e-06,  5.25347514e-06,  1.74035063e-06, ...,
          5.15216880e-06,  3.41122609e-06,  5.65973687e-06],
        ...,
        [-4.35050924e-06, -1.04763167e-05, -3.47055288e-06, ...,
         -1.02742943e-05, -6.80256016e-06, -1.12864700e-05],
        [ 9.54388035e-09,  2.29823005e-08,  7.61348584e-09, ...,
          2.25391155e-08,  1.49230388e-08,  2.47595651e-08],
        [ 2.92645313e-06,  7.04709419e-06,  2.33453375e-06, ...,
          6.91120022e-06,  4.57587203e-06,  7.59205977e-06]],

       [[-1.22685060e-06, -3.18147659e-06, -9.29465898e-07, ...,
         -6.83750841e-07, -3.66203790e-06, -1.67669032e-06],
        [ 3.25078145e-06,  8.42994632e-06,  2.46280206e-06, ...,
          1.81173198e-06,  9.70328801e-06,  4.44272018e-06],
        [ 9.40266034e-07,  2.43830368e-06,  7.12348481e-07, ...,
          5.24030952e-07,  2.80660879e-06,  1.28502597e-06],
        ...,
        [ 2.98411942e-06,  7.73843658e-06,  2.26077805e-06, ...,
          1.66311543e-06,  8.90732554e-06,  4.07828293e-06],
        [ 4.92612116e-07,  1.27744477e-06,  3.73204472e-07, ...,
          2.74543567e-07,  1.47040259e-06,  6.73234354e-07],
        [-2.64967912e-06, -6.87116426e-06, -2.00740510e-06, ...,
         -1.47672449e-06, -7.90905142e-06, -3.62121614e-06]],

       [[ 1.07997903e-05,  1.15772727e-05,  1.09909579e-05, ...,
          2.53739813e-06,  1.04543878e-05,  5.79772086e-06],
        [-1.01716732e-05, -1.09039374e-05, -1.03517223e-05, ...,
         -2.38982284e-06, -9.84635972e-06, -5.46052479e-06],
        [-1.57906391e-06, -1.69274165e-06, -1.60701495e-06, ...,
         -3.70999231e-07, -1.52856171e-06, -8.47699027e-07],
        ...,
        [ 1.05452659e-06,  1.13044246e-06,  1.07319272e-06, ...,
          2.47759772e-07,  1.02080037e-06,  5.66108270e-07],
        [ 1.41518228e-06,  1.51706206e-06,  1.44023250e-06, ...,
          3.32495432e-07,  1.36992151e-06,  7.59721445e-07],
        [-7.34297373e-06, -7.87159843e-06, -7.47295189e-06, ...,
         -1.72522311e-06, -7.10812810e-06, -3.94197605e-06]]],      dtype=float32), 'w2': Array([[[-5.74465557e-05, -5.38376735e-05, -5.58964130e-05, ...,
         -5.03214651e-05, -5.12089464e-05, -5.16573673e-05],
        [-5.19956629e-05, -4.87292164e-05, -5.05926073e-05, ...,
         -4.55466470e-05, -4.63499164e-05, -4.67557875e-05],
        [-7.43175624e-05, -6.96488132e-05, -7.23121630e-05, ...,
         -6.50999646e-05, -6.62480743e-05, -6.68281937e-05],
        ...,
        [ 1.85051264e-04,  1.73426059e-04,  1.80057817e-04, ...,
          1.62099386e-04,  1.64958197e-04,  1.66402679e-04],
        [-1.23381105e-05, -1.15630110e-05, -1.20051773e-05, ...,
         -1.08078157e-05, -1.09984248e-05, -1.10947340e-05],
        [-1.11180387e-04, -1.04195860e-04, -1.08180284e-04, ...,
         -9.73907008e-05, -9.91082998e-05, -9.99761614e-05]],

       [[-5.27832017e-05, -5.08860903e-05, -5.84037953e-05, ...,
         -5.79213447e-05, -5.05039752e-05, -5.37620872e-05],
        [-4.73958862e-05, -4.56924026e-05, -5.24428106e-05, ...,
         -5.20096037e-05, -4.53492867e-05, -4.82748583e-05],
        [-6.78453362e-05, -6.54068645e-05, -7.50698091e-05, ...,
         -7.44496865e-05, -6.49157082e-05, -6.91035530e-05],
        ...,
        [ 1.69247956e-04,  1.63164921e-04,  1.87270241e-04, ...,
          1.85723271e-04,  1.61939679e-04,  1.72386732e-04],
        [-1.13198012e-05, -1.09129496e-05, -1.25251845e-05, ...,
         -1.24217186e-05, -1.08310014e-05, -1.15297307e-05],
        [-1.01789803e-04, -9.81313206e-05, -1.12628841e-04, ...,
         -1.11698457e-04, -9.73944261e-05, -1.03677536e-04]],

       [[-6.29638671e-05, -5.50060577e-05, -5.62734313e-05, ...,
         -5.55980114e-05, -5.51145604e-05, -5.87623581e-05],
        [-5.67860588e-05, -4.96090433e-05, -5.07520672e-05, ...,
         -5.01429167e-05, -4.97069013e-05, -5.29967911e-05],
        [-8.12159269e-05, -7.09512897e-05, -7.25860591e-05, ...,
         -7.17148432e-05, -7.10912500e-05, -7.57964735e-05],
        ...,
        [ 2.02039228e-04,  1.76504109e-04,  1.80570874e-04, ...,
          1.78403585e-04,  1.76852278e-04,  1.88557373e-04],
        [-1.37589886e-05, -1.20200320e-05, -1.22969814e-05, ...,
         -1.21493867e-05, -1.20437426e-05, -1.28408665e-05],
        [-1.21824298e-04, -1.06427295e-04, -1.08879452e-04, ...,
         -1.07572625e-04, -1.06637235e-04, -1.13695096e-04]],

       [[-5.23333874e-05, -4.88984006e-05, -5.27251104e-05, ...,
         -5.09480342e-05, -4.80538692e-05, -4.87045327e-05],
        [-4.72214706e-05, -4.41220109e-05, -4.75749293e-05, ...,
         -4.59714392e-05, -4.33599707e-05, -4.39470787e-05],
        [-6.74981347e-05, -6.30677823e-05, -6.80033700e-05, ...,
         -6.57113487e-05, -6.19785278e-05, -6.28177368e-05],
        ...,
        [ 1.67982813e-04,  1.56956987e-04,  1.69240186e-04, ...,
          1.63536024e-04,  1.54246154e-04,  1.56334689e-04],
        [-1.14248487e-05, -1.06749594e-05, -1.15103649e-05, ...,
         -1.11224135e-05, -1.04905912e-05, -1.06326370e-05],
        [-1.01212929e-04, -9.45696520e-05, -1.01970523e-04, ...,
         -9.85336592e-05, -9.29363232e-05, -9.41947146e-05]],

       [[-5.49333417e-05, -4.95117929e-05, -5.46458905e-05, ...,
         -5.63307367e-05, -6.19458006e-05, -6.00997482e-05],
        [-4.96023931e-05, -4.47069724e-05, -4.93428379e-05, ...,
         -5.08641824e-05, -5.59343389e-05, -5.42674316e-05],
        [-7.08599182e-05, -6.38665224e-05, -7.04891281e-05, ...,
         -7.26624567e-05, -7.99054687e-05, -7.75241933e-05],
        ...,
        [ 1.76331247e-04,  1.58928538e-04,  1.75408553e-04, ...,
          1.80816758e-04,  1.98840644e-04,  1.92914958e-04],
        [-1.19392580e-05, -1.07609339e-05, -1.18767830e-05, ...,
         -1.22429692e-05, -1.34633528e-05, -1.30621293e-05],
        [-1.06232139e-04, -9.57477459e-05, -1.05676263e-04, ...,
         -1.08934481e-04, -1.19793105e-04, -1.16223127e-04]],

       [[-5.45921284e-05, -5.96108148e-05, -5.57108215e-05, ...,
         -5.79298212e-05, -5.71885976e-05, -5.48706012e-05],
        [-4.93639964e-05, -5.39020584e-05, -5.03755582e-05, ...,
         -5.23820490e-05, -5.17118133e-05, -4.96158027e-05],
        [-7.05126222e-05, -7.69948892e-05, -7.19575546e-05, ...,
         -7.48236780e-05, -7.38662930e-05, -7.08723092e-05],
        ...,
        [ 1.75282272e-04,  1.91396073e-04,  1.78874136e-04, ...,
          1.85998812e-04,  1.83618919e-04,  1.76176385e-04],
        [-1.19150491e-05, -1.30104063e-05, -1.21592111e-05, ...,
         -1.26435207e-05, -1.24817443e-05, -1.19758279e-05],
        [-1.05577041e-04, -1.15282797e-04, -1.07740510e-04, ...,
         -1.12031885e-04, -1.10598419e-04, -1.06115585e-04]]],      dtype=float32), 'w3': Array([[[ 3.5490775e-06,  8.4940797e-07,  3.4716991e-06, ...,
          4.2244770e-07,  3.2786768e-06,  1.6154287e-06],
        [ 2.7477595e-06,  6.5762691e-07,  2.6878517e-06, ...,
          3.2706660e-07,  2.5384104e-06,  1.2506939e-06],
        [ 5.3019940e-06,  1.2689371e-06,  5.1863981e-06, ...,
          6.3109786e-07,  4.8980405e-06,  2.4133012e-06],
        ...,
        [-2.5464431e-06, -6.0944546e-07, -2.4909245e-06, ...,
         -3.0310386e-07, -2.3524321e-06, -1.1590610e-06],
        [ 4.5189145e-06,  1.0815211e-06,  4.4203916e-06, ...,
          5.3788767e-07,  4.1746230e-06,  2.0568682e-06],
        [ 2.6770024e-08,  6.4069248e-09,  2.6186374e-08, ...,
          3.1864436e-09,  2.4730442e-08,  1.2184874e-08]],

       [[ 6.6705354e-07,  1.1831364e-06,  1.1325907e-06, ...,
          9.2067989e-07,  1.1334162e-06,  1.9184938e-07],
        [ 2.3132554e-06,  4.1029639e-06,  3.9276779e-06, ...,
          3.1927987e-06,  3.9305405e-06,  6.6530885e-07],
        [ 3.9754595e-06,  7.0511746e-06,  6.7499354e-06, ...,
          5.4870043e-06,  6.7548553e-06,  1.1433707e-06],
        ...,
        [-1.8314257e-06, -3.2483547e-06, -3.1095790e-06, ...,
         -2.5277684e-06, -3.1118454e-06, -5.2673118e-07],
        [ 1.1988182e-06,  2.1263140e-06,  2.0354742e-06, ...,
          1.6546313e-06,  2.0369575e-06,  3.4478867e-07],
        [-9.2805594e-06, -1.6460699e-05, -1.5757467e-05, ...,
         -1.2809203e-05, -1.5768952e-05, -2.6691553e-06]],

       [[-1.9254314e-07, -6.7756915e-08, -4.7899679e-08, ...,
         -8.5602892e-08, -4.3150685e-08, -1.7295479e-08],
        [ 9.8565999e-07,  3.4685877e-07,  2.4520634e-07, ...,
          4.3821527e-07,  2.2089544e-07,  8.8538393e-08],
        [ 8.2081016e-08,  2.8884729e-08,  2.0419604e-08, ...,
          3.6492459e-08,  1.8395109e-08,  7.3730515e-09],
        ...,
        [-4.2611964e-06, -1.4995367e-06, -1.0600738e-06, ...,
         -1.8944883e-06, -9.5497319e-07, -3.8276841e-07],
        [ 1.3054347e-06,  4.5938916e-07,  3.2475791e-07, ...,
          5.8038415e-07,  2.9255989e-07,  1.1726265e-07],
        [-1.9165298e-06, -6.7443659e-07, -4.7678228e-07, ...,
         -8.5207131e-07, -4.2951189e-07, -1.7215518e-07]],

       [[ 1.7120665e-06,  4.1227700e-06,  1.3657750e-06, ...,
          4.0432678e-06,  2.6770281e-06,  4.4415920e-06],
        [ 1.0612503e-06,  2.5555612e-06,  8.4659627e-07, ...,
          2.5062807e-06,  1.6593963e-06,  2.7531878e-06],
        [ 1.9702500e-06,  4.7444933e-06,  1.5717370e-06, ...,
          4.6530017e-06,  3.0807300e-06,  5.1113943e-06],
        ...,
        [-4.3448213e-06, -1.0462620e-05, -3.4660154e-06, ...,
         -1.0260861e-05, -6.7936667e-06, -1.1271714e-05],
        [ 9.7296962e-09,  2.3429756e-08,  7.7617175e-09, ...,
          2.2977945e-08,  1.5213585e-08,  2.5241626e-08],
        [ 3.0418371e-06,  7.3249462e-06,  2.4265794e-06, ...,
          7.1836944e-06,  4.7562889e-06,  7.8913981e-06]],

       [[-1.1891536e-06, -3.0837207e-06, -9.0090657e-07, ...,
         -6.6274151e-07, -3.5495161e-06, -1.6251713e-06],
        [ 3.3974245e-06,  8.8102224e-06,  2.5738996e-06, ...,
          1.8934595e-06,  1.0141005e-05,  4.6431319e-06],
        [ 9.6939925e-07,  2.5138522e-06,  7.3441993e-07, ...,
          5.4026754e-07,  2.8935690e-06,  1.3248413e-06],
        ...,
        [ 3.1900177e-06,  8.2723736e-06,  2.4167673e-06, ...,
          1.7778671e-06,  9.5219139e-06,  4.3596765e-06],
        [ 5.0431458e-07,  1.3077916e-06,  3.8207031e-07, ...,
          2.8106561e-07,  1.5053333e-06,  6.8922765e-07],
        [-2.6572388e-06, -6.8907680e-06, -2.0131324e-06, ...,
         -1.4809377e-06, -7.9316169e-06, -3.6315478e-06]],

       [[ 1.0838507e-05,  1.1618777e-05,  1.1030359e-05, ...,
          2.5464944e-06,  1.0491865e-05,  5.8185051e-06],
        [-9.9084527e-06, -1.0621768e-05, -1.0083842e-05, ...,
         -2.3279795e-06, -9.5915566e-06, -5.3192184e-06],
        [-1.5034987e-06, -1.6117364e-06, -1.5301122e-06, ...,
         -3.5324527e-07, -1.4554133e-06, -8.0713289e-07],
        ...,
        [ 9.9419424e-07,  1.0657668e-06,  1.0117925e-06, ...,
          2.3358479e-07,  9.6239762e-07,  5.3371969e-07],
        [ 1.3294299e-06,  1.4251364e-06,  1.3529623e-06, ...,
          3.1234802e-07,  1.2869117e-06,  7.1368646e-07],
        [-6.6477387e-06, -7.1263130e-06, -6.7654105e-06, ...,
         -1.5618784e-06, -6.4351284e-06, -3.5687483e-06]]], dtype=float32), 'wcls': Array([[0., 0., 0., ..., 0., 0., 0.],
       [0., 0., 0., ..., 0., 0., 0.],
       [0., 0., 0., ..., 0., 0., 0.],
       ...,
       [0., 0., 0., ..., 0., 0., 0.],
       [0., 0., 0., ..., 0., 0., 0.],
       [0., 0., 0., ..., 0., 0., 0.]], dtype=float32), 'wk': Array([[[0., 0., 0., ..., 0., 0., 0.],
        [0., 0., 0., ..., 0., 0., 0.],
        [0., 0., 0., ..., 0., 0., 0.],
        ...,
        [0., 0., 0., ..., 0., 0., 0.],
        [0., 0., 0., ..., 0., 0., 0.],
        [0., 0., 0., ..., 0., 0., 0.]],

       [[0., 0., 0., ..., 0., 0., 0.],
        [0., 0., 0., ..., 0., 0., 0.],
        [0., 0., 0., ..., 0., 0., 0.],
        ...,
        [0., 0., 0., ..., 0., 0., 0.],
        [0., 0., 0., ..., 0., 0., 0.],
        [0., 0., 0., ..., 0., 0., 0.]],

       [[0., 0., 0., ..., 0., 0., 0.],
        [0., 0., 0., ..., 0., 0., 0.],
        [0., 0., 0., ..., 0., 0., 0.],
        ...,
        [0., 0., 0., ..., 0., 0., 0.],
        [0., 0., 0., ..., 0., 0., 0.],
        [0., 0., 0., ..., 0., 0., 0.]],

       [[0., 0., 0., ..., 0., 0., 0.],
        [0., 0., 0., ..., 0., 0., 0.],
        [0., 0., 0., ..., 0., 0., 0.],
        ...,
        [0., 0., 0., ..., 0., 0., 0.],
        [0., 0., 0., ..., 0., 0., 0.],
        [0., 0., 0., ..., 0., 0., 0.]],

       [[0., 0., 0., ..., 0., 0., 0.],
        [0., 0., 0., ..., 0., 0., 0.],
        [0., 0., 0., ..., 0., 0., 0.],
        ...,
        [0., 0., 0., ..., 0., 0., 0.],
        [0., 0., 0., ..., 0., 0., 0.],
        [0., 0., 0., ..., 0., 0., 0.]],

       [[0., 0., 0., ..., 0., 0., 0.],
        [0., 0., 0., ..., 0., 0., 0.],
        [0., 0., 0., ..., 0., 0., 0.],
        ...,
        [0., 0., 0., ..., 0., 0., 0.],
        [0., 0., 0., ..., 0., 0., 0.],
        [0., 0., 0., ..., 0., 0., 0.]]], dtype=float32), 'wo': Array([[[ 2.5211170e-07,  2.6817838e-07,  2.6122720e-07, ...,
          2.5612391e-07,  2.4704889e-07,  2.6379772e-07],
        [-9.1684535e-07, -9.7527436e-07, -9.4999530e-07, ...,
         -9.3143638e-07, -8.9843360e-07, -9.5934342e-07],
        [-7.3938693e-08, -7.8650679e-08, -7.6612054e-08, ...,
         -7.5115381e-08, -7.2453879e-08, -7.7365932e-08],
        ...,
        [ 1.6139436e-06,  1.7167976e-06,  1.6722981e-06, ...,
          1.6396285e-06,  1.5815330e-06,  1.6887539e-06],
        [ 7.8728803e-08,  8.3746059e-08,  8.1575365e-08, ...,
          7.9981724e-08,  7.7147803e-08,  8.2378079e-08],
        [-1.7059546e-06, -1.8146721e-06, -1.7676358e-06, ...,
         -1.7331038e-06, -1.6716962e-06, -1.7850297e-06]],

       [[-7.4160255e-07, -6.9608097e-07, -7.4464560e-07, ...,
         -7.3699795e-07, -7.0854247e-07, -7.5860277e-07],
        [-6.7127183e-07, -6.3006735e-07, -6.7402630e-07, ...,
         -6.6710396e-07, -6.4134707e-07, -6.8665986e-07],
        [-9.5938697e-07, -9.0049713e-07, -9.6332360e-07, ...,
         -9.5343012e-07, -9.1661821e-07, -9.8137957e-07],
        ...,
        [ 2.3889731e-06,  2.2423314e-06,  2.3987759e-06, ...,
          2.3741402e-06,  2.2824747e-06,  2.4437372e-06],
        [-1.5926791e-07, -1.4949161e-07, -1.5992144e-07, ...,
         -1.5827902e-07, -1.5216789e-07, -1.6291891e-07],
        [-1.4353344e-06, -1.3472296e-06, -1.4412241e-06, ...,
         -1.4264225e-06, -1.3713483e-06, -1.4682374e-06]],

       [[-7.6595751e-07, -7.4974855e-07, -7.9625852e-07, ...,
         -7.5697875e-07, -7.5542829e-07, -7.7191658e-07],
        [-6.8777882e-07, -6.7322424e-07, -7.1498715e-07, ...,
         -6.7971649e-07, -6.7832428e-07, -6.9312966e-07],
        [-9.8451960e-07, -9.6368547e-07, -1.0234669e-06, ...,
         -9.7297880e-07, -9.7098587e-07, -9.9217903e-07],
        ...,
        [ 2.4560272e-06,  2.4040535e-06,  2.5531870e-06, ...,
          2.4272372e-06,  2.4222654e-06,  2.4751350e-06],
        [-1.6426739e-07, -1.6079120e-07, -1.7076576e-07, ...,
         -1.6234181e-07, -1.6200929e-07, -1.6554537e-07],
        [-1.4771156e-06, -1.4458573e-06, -1.5355498e-06, ...,
         -1.4598004e-06, -1.4568103e-06, -1.4886074e-06]],

       [[-7.5559569e-07, -7.3336469e-07, -8.4079471e-07, ...,
         -7.8980622e-07, -8.3589470e-07, -7.9112533e-07],
        [-6.8145312e-07, -6.6140353e-07, -7.5829206e-07, ...,
         -7.1230676e-07, -7.5387283e-07, -7.1349643e-07],
        [-9.7462794e-07, -9.4595254e-07, -1.0845245e-06, ...,
         -1.0187554e-06, -1.0782039e-06, -1.0204569e-06],
        ...,
        [ 2.4245667e-06,  2.3532314e-06,  2.6979546e-06, ...,
          2.5343420e-06,  2.6822313e-06,  2.5385748e-06],
        [-1.6511213e-07, -1.6025422e-07, -1.8372974e-07, ...,
         -1.7258778e-07, -1.8265899e-07, -1.7287603e-07],
        [-1.4619472e-06, -1.4189339e-06, -1.6267926e-06, ...,
         -1.5281387e-06, -1.6173119e-06, -1.5306910e-06]],

       [[-7.1280272e-07, -7.6736785e-07, -7.6152338e-07, ...,
         -7.0458771e-07, -7.8551102e-07, -7.5898555e-07],
        [-6.4317248e-07, -6.9240741e-07, -6.8713382e-07, ...,
         -6.3575993e-07, -7.0877826e-07, -6.8484388e-07],
        [-9.1934436e-07, -9.8972032e-07, -9.8218231e-07, ...,
         -9.0874897e-07, -1.0131206e-06, -9.7890904e-07],
        ...,
        [ 2.2879751e-06,  2.4631199e-06,  2.4443602e-06, ...,
          2.2616064e-06,  2.5213565e-06,  2.4362141e-06],
        [-1.5560721e-07, -1.6751898e-07, -1.6624310e-07, ...,
         -1.5381386e-07, -1.7147968e-07, -1.6568907e-07],
        [-1.3785524e-06, -1.4840807e-06, -1.4727776e-06, ...,
         -1.3626646e-06, -1.5191694e-06, -1.4678693e-06]],

       [[-6.9852308e-07, -6.9982849e-07, -6.9935174e-07, ...,
         -7.2070242e-07, -7.0936545e-07, -7.6198722e-07],
        [-6.3073657e-07, -6.3191533e-07, -6.3148480e-07, ...,
         -6.5076358e-07, -6.4052682e-07, -6.8804201e-07],
        [-9.0104254e-07, -9.0272641e-07, -9.0211142e-07, ...,
         -9.2965223e-07, -9.1502841e-07, -9.8290661e-07],
        ...,
        [ 2.2422000e-06,  2.2463903e-06,  2.2448598e-06, ...,
          2.3133937e-06,  2.2770032e-06,  2.4459146e-06],
        [-1.5181728e-07, -1.5210099e-07, -1.5199737e-07, ...,
         -1.5663774e-07, -1.5417376e-07, -1.6561060e-07],
        [-1.3508316e-06, -1.3533560e-06, -1.3524340e-06, ...,
         -1.3937228e-06, -1.3717989e-06, -1.4735610e-06]]], dtype=float32), 'wq': Array([[[0., 0., 0., ..., 0., 0., 0.],
        [0., 0., 0., ..., 0., 0., 0.],
        [0., 0., 0., ..., 0., 0., 0.],
        ...,
        [0., 0., 0., ..., 0., 0., 0.],
        [0., 0., 0., ..., 0., 0., 0.],
        [0., 0., 0., ..., 0., 0., 0.]],

       [[0., 0., 0., ..., 0., 0., 0.],
        [0., 0., 0., ..., 0., 0., 0.],
        [0., 0., 0., ..., 0., 0., 0.],
        ...,
        [0., 0., 0., ..., 0., 0., 0.],
        [0., 0., 0., ..., 0., 0., 0.],
        [0., 0., 0., ..., 0., 0., 0.]],

       [[0., 0., 0., ..., 0., 0., 0.],
        [0., 0., 0., ..., 0., 0., 0.],
        [0., 0., 0., ..., 0., 0., 0.],
        ...,
        [0., 0., 0., ..., 0., 0., 0.],
        [0., 0., 0., ..., 0., 0., 0.],
        [0., 0., 0., ..., 0., 0., 0.]],

       [[0., 0., 0., ..., 0., 0., 0.],
        [0., 0., 0., ..., 0., 0., 0.],
        [0., 0., 0., ..., 0., 0., 0.],
        ...,
        [0., 0., 0., ..., 0., 0., 0.],
        [0., 0., 0., ..., 0., 0., 0.],
        [0., 0., 0., ..., 0., 0., 0.]],

       [[0., 0., 0., ..., 0., 0., 0.],
        [0., 0., 0., ..., 0., 0., 0.],
        [0., 0., 0., ..., 0., 0., 0.],
        ...,
        [0., 0., 0., ..., 0., 0., 0.],
        [0., 0., 0., ..., 0., 0., 0.],
        [0., 0., 0., ..., 0., 0., 0.]],

       [[0., 0., 0., ..., 0., 0., 0.],
        [0., 0., 0., ..., 0., 0., 0.],
        [0., 0., 0., ..., 0., 0., 0.],
        ...,
        [0., 0., 0., ..., 0., 0., 0.],
        [0., 0., 0., ..., 0., 0., 0.],
        [0., 0., 0., ..., 0., 0., 0.]]], dtype=float32), 'wv': Array([[[ 8.33273450e-09,  3.17081650e-08,  1.31639965e-07, ...,
          3.71325157e-08,  1.14651563e-07,  1.41336827e-07],
        [-5.48908363e-10, -2.08873518e-09, -8.67161631e-09, ...,
         -2.44605736e-09, -7.55252660e-09, -9.31038446e-09],
        [-3.52132046e-10, -1.33995148e-09, -5.56295765e-09, ...,
         -1.56917856e-09, -4.84504659e-09, -5.97273608e-09],
        ...,
        [ 3.26836269e-09,  1.24369466e-08,  5.16333678e-08, ...,
          1.45645496e-08,  4.49699762e-08,  5.54367823e-08],
        [-3.82936260e-09, -1.45716932e-08, -6.04960064e-08, ...,
         -1.70644903e-08, -5.26888719e-08, -6.49522605e-08],
        [ 4.67006744e-09,  1.77707875e-08,  7.37774002e-08, ...,
          2.08108570e-08,  6.42562838e-08,  7.92119934e-08]],

       [[ 8.92418299e-08,  2.81410006e-08,  1.04813047e-07, ...,
          2.29284804e-08,  8.77959536e-08,  3.70077409e-08],
        [-8.53703384e-08, -2.69201870e-08, -1.00266043e-07, ...,
         -2.19337952e-08, -8.39871888e-08, -3.54022696e-08],
        [-1.01619402e-09, -3.20440730e-10, -1.19350296e-09, ...,
         -2.61085903e-10, -9.99729854e-10, -4.21406021e-10],
        ...,
        [ 1.55103237e-08,  4.89093566e-09,  1.82166175e-08, ...,
          3.98499411e-09,  1.52590296e-08,  6.43198428e-09],
        [-6.92746340e-08, -2.18446630e-08, -8.13619039e-08, ...,
         -1.77984045e-08, -6.81522678e-08, -2.87275341e-08],
        [-5.58610367e-08, -1.76148962e-08, -6.56078569e-08, ...,
         -1.43521115e-08, -5.49559900e-08, -2.31650432e-08]],

       [[-1.03414184e-08, -2.38561952e-08, -4.19625970e-08, ...,
         -1.85441991e-08, -2.38427145e-08, -2.57376076e-08],
        [ 1.53663073e-08,  3.54479042e-08,  6.23521927e-08, ...,
          2.75548135e-08,  3.54278740e-08,  3.82434919e-08],
        [ 2.45966021e-08,  5.67408946e-08,  9.98061580e-08, ...,
          4.41065495e-08,  5.67088350e-08,  6.12157507e-08],
        ...,
        [-2.26730901e-09, -5.23036192e-09, -9.20010823e-09, ...,
         -4.06573131e-09, -5.22740651e-09, -5.64285330e-09],
        [-1.50363799e-09, -3.46868068e-09, -6.10134387e-09, ...,
         -2.69631872e-09, -3.46672069e-09, -3.74223719e-09],
        [-5.25526289e-09, -1.21231505e-08, -2.13243929e-08, ...,
         -9.42372047e-09, -1.21163000e-08, -1.30792399e-08]],

       [[-3.51821718e-08, -1.46095033e-07, -6.23099528e-09, ...,
         -2.80888859e-08, -8.54807638e-08, -9.40197609e-08],
        [ 2.19111591e-08,  9.09867452e-08,  3.88061094e-09, ...,
          1.74935195e-08,  5.32366933e-08,  5.85547077e-08],
        [-1.05956994e-08, -4.39989627e-08, -1.87656846e-09, ...,
         -8.45943759e-09, -2.57439616e-08, -2.83156218e-08],
        ...,
        [-2.85509654e-11, -1.18558746e-10, -5.05656454e-12, ...,
         -2.27946342e-11, -6.93691701e-11, -7.62987243e-11],
        [-1.16440768e-08, -4.83523799e-08, -2.06224282e-09, ...,
         -9.29644539e-09, -2.82911632e-08, -3.11172741e-08],
        [-2.45677150e-08, -1.02018170e-07, -4.35110437e-09, ...,
         -1.96144700e-08, -5.96912244e-08, -6.56540067e-08]],

       [[-8.10783263e-09, -2.19628369e-08, -5.13717531e-08, ...,
         -2.78277379e-09, -2.97822993e-08, -3.15677724e-08],
        [ 1.68333401e-08,  4.55988598e-08,  1.06657140e-07, ...,
          5.77754644e-09,  6.18334894e-08,  6.55404619e-08],
        [ 2.82066654e-08,  7.64074031e-08,  1.78719276e-07, ...,
          9.68110481e-09,  1.03610844e-07,  1.09822409e-07],
        ...,
        [ 1.28267896e-09,  3.47457485e-09,  8.12713807e-09, ...,
          4.40241676e-10,  4.71163286e-09,  4.99409936e-09],
        [ 7.93404953e-10,  2.14920859e-09,  5.02706543e-09, ...,
          2.72312811e-10,  2.91439473e-09,  3.08911519e-09],
        [ 8.42940917e-09,  2.28339374e-08,  5.34092841e-08, ...,
          2.89314550e-09,  3.09635375e-08,  3.28198304e-08]],

       [[ 1.68797047e-08,  1.01267938e-09,  7.71280018e-09, ...,
          5.63233726e-09,  7.93342014e-09,  1.14855983e-08],
        [-4.72173625e-08, -2.83275381e-09, -2.15749072e-08, ...,
         -1.57552584e-08, -2.21920438e-08, -3.21285043e-08],
        [ 9.21601551e-09,  5.52904778e-10,  4.21105018e-09, ...,
          3.07515480e-09,  4.33150449e-09,  6.27093044e-09],
        ...,
        [ 4.72499515e-08,  2.83470913e-09,  2.15897984e-08, ...,
          1.57661333e-08,  2.22073613e-08,  3.21506803e-08],
        [-1.35296252e-09, -8.11695017e-11, -6.18205653e-10, ...,
         -4.51449905e-10, -6.35889064e-10, -9.20607590e-10],
        [ 7.78290996e-08,  4.66927164e-09,  3.55622518e-08, ...,
          2.59696336e-08,  3.65794861e-08,  5.29579047e-08]]],      dtype=float32)}, Array([[[-0.,  0.,  0., ...,  0.,  0.,  0.]],

       [[-0.,  0.,  0., ...,  0.,  0.,  0.]],

       [[-0.,  0.,  0., ...,  0.,  0.,  0.]],

       [[-0.,  0.,  0., ...,  0.,  0.,  0.]],

       [[-0.,  0.,  0., ...,  0.,  0.,  0.]],

       [[-0.,  0.,  0., ...,  0.,  0.,  0.]]], dtype=float32), Array([[[ 0., -0., -0., ...,  0., -0.,  0.]],

       [[ 0., -0., -0., ...,  0., -0., -0.]],

       [[-0.,  0.,  0., ..., -0., -0., -0.]],

       [[-0.,  0., -0., ..., -0., -0., -0.]],

       [[-0.,  0.,  0., ...,  0.,  0.,  0.]],

       [[ 0., -0.,  0., ...,  0., -0.,  0.]]], dtype=float32))
blehlo.reshape
Verifying module
Operation name: stablehlo.dot_general
Verifying module
Operation name: stablehlo.reshape
Verifying module
Operation name: stablehlo.multiply
Verifying module
Operation name: stablehlo.reshape
Verifying module
Operation name: stablehlo.dot_general
Verifying module
Operation name: stablehlo.reshape
Verifying module
Operation name: stablehlo.dot_general
Verifying module
Operation name: stablehlo.reshape
Verifying module
Operation name: stablehlo.multiply
Verifying module
Operation name: stablehlo.reshape
Verifying module
Operation name: stablehlo.concatenate
Verifying module
Operation name: stablehlo.dot_general
Verifying module
Operation name: stablehlo.reshape
Verifying module
Operation name: stablehlo.concatenate
Verifying module
Operation name: stablehlo.reshape
Verifying module
Operation name: stablehlo.concatenate
Verifying module
Operation name: stablehlo.dot_general
Verifying module
Operation name: stablehlo.reshape
Verifying module
Operation name: stablehlo.concatenate
Verifying module
Operation name: stablehlo.multiply
Verifying module
Operation name: stablehlo.reshape
Verifying module
Operation name: stablehlo.concatenate
Verifying module
Operation name: stablehlo.dot_general
Verifying module
Operation name: stablehlo.reshape
Verifying module
Operation name: stablehlo.concatenate
Verifying module
Operation name: stablehlo.dot_general
Verifying module
Operation name: stablehlo.reshape
Verifying module
Operation name: stablehlo.concatenate
Verifying module
Operation name: stablehlo.multiply
Verifying module
Operation name: func.return
Verifying module
Operation name: func.func
Verifying module
Operation name: builtin.module
Verifying module
    %2736 = "stablehlo.dot_general"(%1393, %1341) <{dot_dimension_numbers = #stablehlo.dot<>, precision_config = [#stablehlo<precision DEFAULT>, #stablehlo<precision DEFAULT>]}> : (tensor<768xf32>, tensor<288xf32>) -> tensor<768x288xf32>
        %2737 = "stablehlo.reshape"(%2736) : (tensor<768x288xf32>) -> tensor<1x768x288xf32>
        %2738 = "stablehlo.concatenate"(%2667, %2680, %2693, %2706, %2719, %2737) <{dimension = 0 : i64}> : (tensor<1x768x288xf32>, tensor<1x768x288xf32>, tensor<1x768x288xf32>, tensor<1x768x288xf32>, tensor<1x768x288xf32>, tensor<1x768x288xf32>) -> tensor<6x768x288xf32>
        %2739 = "stablehlo.dot_general"(%1380, %1355) <{dot_dimension_numbers = #stablehlo.dot<>, precision_config = [#stablehlo<precision DEFAULT>, #stablehlo<precision DEFAULT>]}> : (tensor<288xf32>, tensor<768xf32>) -> tensor<288x768xf32>
        %2740 = "stablehlo.reshape"(%2739) : (tensor<288x768xf32>) -> tensor<1x288x768xf32>
        %2741 = "stablehlo.concatenate"(%2669, %2682, %2695, %2708, %2721, %2740) <{dimension = 0 : i64}> : (tensor<1x288x768xf32>, tensor<1x288x768xf32>, tensor<1x288x768xf32>, tensor<1x288x768xf32>, tensor<1x288x768xf32>, tensor<1x288x768xf32>) -> tensor<6x288x768xf32>
        %2742 = "stablehlo.multiply"(%1378, %1359) : (tensor<288xf32>, tensor<288xf32>) -> tensor<288xf32>
        "func.return"(%2656, %2724, %2735, %2742, %2738, %2741, %2446, %0, %2624, %2732, %2601, %2727, %2626, %2729) : (tensor<288xf32>, tensor<6x288xf32>, tensor<6x288xf32>, tensor<288xf32>, tensor<6x768x288xf32>, tensor<6x288x768xf32>, tensor<6x768x288xf32>, tensor<32000x288xf32>, tensor<6x288x288xf32>, tensor<6x288x288xf32>, tensor<6x288x288xf32>, tensor<6x288x288xf32>, tensor<6x1x288xf32>, tensor<6x1x288xf32>) -> ()
      }) : () -> ()
    }) {mhlo.num_partitions = 1 : i32, mhlo.num_replicas = 1 : i32} : () -> ()
    "func.return"() : () -> ()
  }) : () -> ()
}) : () -> ()

