Operation name: stablehlo.constant
Cost: 0

Operation name: stablehlo.constant
Cost: 0

Operation name: stablehlo.constant
Cost: 0

Operation name: stablehlo.constant
Cost: 0

Operation name: stablehlo.constant
Cost: 0

Operation name: stablehlo.constant
Cost: 0

Operation name: stablehlo.constant
Cost: 0

Operation name: stablehlo.constant
Cost: 0

Operation name: stablehlo.constant
Cost: 0

Operation name: stablehlo.constant
Cost: 0

Operation name: stablehlo.slice
cache miss
2887246636
%0 = stablehlo.slice %arg1 [0:1, 0:288] : (tensor<6x288xf32>) -> tensor<1x288xf32>
Cost: 619

Operation name: stablehlo.reshape
cache miss
1377738304
%1 = stablehlo.reshape %0 : (tensor<1x288xf32>) -> tensor<288xf32>
Cost: 345

Operation name: stablehlo.dot_general
cache miss
2778462547
%2 = stablehlo.dot_general %arg0, %arg0, contracting_dims = [0] x [0], precision = [DEFAULT, DEFAULT] : (tensor<288xf32>, tensor<288xf32>) -> tensor<f32>
Cost: 387

Operation name: stablehlo.divide
cache miss
719102371
%3 = stablehlo.divide %2, %cst_5 : tensor<f32>
Cost: 279

Operation name: stablehlo.add
cache miss
1937139428
%4 = stablehlo.add %3, %cst_4 : tensor<f32>
Cost: 282

Operation name: stablehlo.sqrt
cache miss
1884932271
%5 = stablehlo.sqrt %4 : tensor<f32>
Cost: 278

Operation name: stablehlo.divide
cache miss
719102371
%6 = stablehlo.divide %cst_6, %5 : tensor<f32>
Cost: 377

Operation name: stablehlo.divide
cache miss
719102371
%7 = stablehlo.divide %cst_7, %5 : tensor<f32>
Cost: 273

Operation name: stablehlo.multiply
cache miss
1284973678
%8 = stablehlo.multiply %5, %5 : tensor<f32>
Cost: 172

Operation name: stablehlo.divide
cache miss
719102371
%9 = stablehlo.divide %cst_7, %8 : tensor<f32>
Cost: 377

Operation name: stablehlo.multiply
cache miss
2511610444
%10 = stablehlo.multiply %1, %arg0 : tensor<288xf32>
Cost: 484

Operation name: stablehlo.broadcast_in_dim
cache miss
2616490109
%11 = stablehlo.broadcast_in_dim %7, dims = [] : (tensor<f32>) -> tensor<288xf32>
Cost: 344

Operation name: stablehlo.multiply
cache miss
2511610444
%12 = stablehlo.multiply %10, %11 : tensor<288xf32>
Cost: 215

Operation name: stablehlo.slice
cache miss
1602837588
%13 = stablehlo.slice %arg9 [0:1, 0:288, 0:288] : (tensor<6x288x288xf32>) -> tensor<1x288x288xf32>
Cost: 36475

Operation name: stablehlo.reshape
cache miss
3219454195
%14 = stablehlo.reshape %13 : (tensor<1x288x288xf32>) -> tensor<288x288xf32>
Cost: 46273

Operation name: stablehlo.dot_general
cache miss
1061109412
%15 = stablehlo.dot_general %14, %12, contracting_dims = [1] x [0], precision = [DEFAULT, DEFAULT] : (tensor<288x288xf32>, tensor<288xf32>) -> tensor<288xf32>
Cost: 436

Operation name: stablehlo.slice
cache miss
1602837588
%16 = stablehlo.slice %arg7 [0:1, 0:288, 0:288] : (tensor<6x288x288xf32>) -> tensor<1x288x288xf32>
Cost: 63631

Operation name: stablehlo.reshape
cache miss
3219454195
%17 = stablehlo.reshape %16 : (tensor<1x288x288xf32>) -> tensor<288x288xf32>
Cost: 42731

Operation name: stablehlo.dot_general
cache miss
1061109412
%18 = stablehlo.dot_general %17, %12, contracting_dims = [1] x [0], precision = [DEFAULT, DEFAULT] : (tensor<288x288xf32>, tensor<288xf32>) -> tensor<288xf32>
Cost: 323

Operation name: stablehlo.slice
cache miss
1602837588
%19 = stablehlo.slice %arg10 [0:1, 0:288, 0:288] : (tensor<6x288x288xf32>) -> tensor<1x288x288xf32>
Cost: 21736

Operation name: stablehlo.reshape
cache miss
3219454195
%20 = stablehlo.reshape %19 : (tensor<1x288x288xf32>) -> tensor<288x288xf32>
Cost: 18491

Operation name: stablehlo.dot_general
cache miss
1061109412
%21 = stablehlo.dot_general %20, %12, contracting_dims = [1] x [0], precision = [DEFAULT, DEFAULT] : (tensor<288x288xf32>, tensor<288xf32>) -> tensor<288xf32>
Cost: 212

Operation name: stablehlo.reshape
cache miss
2392077026
%22 = stablehlo.reshape %15 : (tensor<288xf32>) -> tensor<144x2xf32>
Cost: 437

Operation name: stablehlo.reshape
cache miss
2392077026
%23 = stablehlo.reshape %18 : (tensor<288xf32>) -> tensor<144x2xf32>
Cost: 340

Operation name: stablehlo.dot_general
cache miss
865228849
%24 = stablehlo.dot_general %cst_8, %23, batching_dims = [0] x [0], contracting_dims = [2] x [1], precision = [DEFAULT, DEFAULT] : (tensor<144x2x2xf32>, tensor<144x2xf32>) -> tensor<144x2xf32>
Cost: 560

Operation name: stablehlo.dot_general
cache miss
865228849
%25 = stablehlo.dot_general %cst_8, %22, batching_dims = [0] x [0], contracting_dims = [2] x [1], precision = [DEFAULT, DEFAULT] : (tensor<144x2x2xf32>, tensor<144x2xf32>) -> tensor<144x2xf32>
Cost: 557

Operation name: stablehlo.reshape
cache miss
1377738304
%26 = stablehlo.reshape %25 : (tensor<144x2xf32>) -> tensor<288xf32>
Cost: 212

Operation name: stablehlo.slice
cache miss
4163773663
%27 = stablehlo.slice %arg11 [0:1, 0:1, 0:288] : (tensor<6x1x288xf32>) -> tensor<1x1x288xf32>
Cost: 353

Operation name: stablehlo.reshape
cache miss
2960881163
%28 = stablehlo.reshape %27 : (tensor<1x1x288xf32>) -> tensor<1x288xf32>
Cost: 546

Operation name: stablehlo.reshape
cache miss
2960881163
%29 = stablehlo.reshape %24 : (tensor<144x2xf32>) -> tensor<1x288xf32>
Cost: 344

Operation name: stablehlo.slice
cache miss
4163773663
%30 = stablehlo.slice %arg12 [0:1, 0:1, 0:288] : (tensor<6x1x288xf32>) -> tensor<1x1x288xf32>
Cost: 467

Operation name: stablehlo.reshape
cache miss
2960881163
%31 = stablehlo.reshape %30 : (tensor<1x1x288xf32>) -> tensor<1x288xf32>
Cost: 348

Operation name: stablehlo.reshape
cache miss
2960881163
%32 = stablehlo.reshape %21 : (tensor<288xf32>) -> tensor<1x288xf32>
Cost: 469

Operation name: stablehlo.slice
cache miss
2839717066
%33 = stablehlo.slice %26 [0:48] : (tensor<288xf32>) -> tensor<48xf32>
Cost: 369

Operation name: stablehlo.slice
cache miss
3729170049
%34 = stablehlo.slice %28 [0:1, 0:48] : (tensor<1x288xf32>) -> tensor<1x48xf32>
Cost: 174

Operation name: stablehlo.slice
cache miss
3729170049
%35 = stablehlo.slice %29 [0:1, 0:48] : (tensor<1x288xf32>) -> tensor<1x48xf32>
Cost: 274

Operation name: stablehlo.concatenate
cache miss
895440948
%36 = stablehlo.concatenate %34, %35, dim = 0 : (tensor<1x48xf32>, tensor<1x48xf32>) -> tensor<2x48xf32>
Cost: 297

Operation name: stablehlo.dot_general
cache miss
1097263507
%37 = stablehlo.dot_general %36, %33, contracting_dims = [1] x [0], precision = [DEFAULT, DEFAULT] : (tensor<2x48xf32>, tensor<48xf32>) -> tensor<2xf32>
Cost: 272

Operation name: stablehlo.divide
cache miss
1531341356
%38 = stablehlo.divide %37, %cst_1 : tensor<2xf32>
Cost: 285

Operation name: stablehlo.maximum
cache miss
641216813
%2733 = stablehlo.maximum %arg14, %arg15 : tensor<f32>
Cost: 282

Operation name: stablehlo.return
Cost: 0

Operation name: stablehlo.reduce
cache miss
555889745
%39 = stablehlo.reduce(%38 init: %cst_3) applies stablehlo.maximum across dimensions = [0] : (tensor<2xf32>, tensor<f32>) -> tensor<f32>
Cost: 281

Operation name: stablehlo.broadcast_in_dim
cache miss
1703569158
%40 = stablehlo.broadcast_in_dim %39, dims = [] : (tensor<f32>) -> tensor<2xf32>
Cost: 284

Operation name: stablehlo.compare
Cost: 0

Operation name: stablehlo.convert
cache miss
1629337212
%42 = stablehlo.convert %41 : (tensor<2xi1>) -> tensor<2xf32>
Cost: 372

Operation name: stablehlo.add
cache miss
1937139428
%2733 = stablehlo.add %arg14, %arg15 : tensor<f32>
Cost: 393

Operation name: stablehlo.return
Cost: 0

Operation name: stablehlo.reduce
cache miss
555889745
%43 = stablehlo.reduce(%42 init: %cst_2) applies stablehlo.add across dimensions = [0] : (tensor<2xf32>, tensor<f32>) -> tensor<f32>
Cost: 283

Operation name: stablehlo.subtract
cache miss
3818527485
%44 = stablehlo.subtract %38, %40 : tensor<2xf32>
Cost: 286

Operation name: stablehlo.exponential
cache miss
3699945286
%45 = stablehlo.exponential %44 : tensor<2xf32>
Cost: 452

Operation name: stablehlo.slice
cache miss
2078395662
%46 = stablehlo.slice %45 [0:1] : (tensor<2xf32>) -> tensor<1xf32>
Cost: 280

Operation name: stablehlo.reshape
cache miss
1900484018
%47 = stablehlo.reshape %46 : (tensor<1xf32>) -> tensor<f32>
Cost: 394

Operation name: stablehlo.slice
cache miss
4032994822
%48 = stablehlo.slice %45 [1:2] : (tensor<2xf32>) -> tensor<1xf32>
Cost: 252

Operation name: stablehlo.reshape
cache miss
1900484018
%49 = stablehlo.reshape %48 : (tensor<1xf32>) -> tensor<f32>
Cost: 277

Operation name: stablehlo.add
cache miss
1937139428
%50 = stablehlo.add %47, %49 : tensor<f32>
Cost: 247

Operation name: stablehlo.broadcast_in_dim
cache miss
1703569158
%51 = stablehlo.broadcast_in_dim %50, dims = [] : (tensor<f32>) -> tensor<2xf32>
Cost: 383

Operation name: stablehlo.divide
cache miss
1531341356
%52 = stablehlo.divide %45, %51 : tensor<2xf32>
Cost: 173

Operation name: stablehlo.multiply
cache miss
1284973678
%53 = stablehlo.multiply %50, %50 : tensor<f32>
Cost: 172

Operation name: stablehlo.divide
cache miss
719102371
%54 = stablehlo.divide %cst_7, %53 : tensor<f32>
Cost: 213

Operation name: stablehlo.slice
cache miss
3729170049
%55 = stablehlo.slice %31 [0:1, 0:48] : (tensor<1x288xf32>) -> tensor<1x48xf32>
Cost: 300

Operation name: stablehlo.slice
cache miss
3729170049
%56 = stablehlo.slice %32 [0:1, 0:48] : (tensor<1x288xf32>) -> tensor<1x48xf32>
Cost: 173

Operation name: stablehlo.concatenate
cache miss
895440948
%57 = stablehlo.concatenate %55, %56, dim = 0 : (tensor<1x48xf32>, tensor<1x48xf32>) -> tensor<2x48xf32>
Cost: 374

Operation name: stablehlo.dot_general
cache miss
2902940993
%58 = stablehlo.dot_general %57, %52, contracting_dims = [0] x [0], precision = [DEFAULT, DEFAULT] : (tensor<2x48xf32>, tensor<2xf32>) -> tensor<48xf32>
Cost: 351

Operation name: stablehlo.slice
cache miss
4032389970
%59 = stablehlo.slice %26 [48:96] : (tensor<288xf32>) -> tensor<48xf32>
Cost: 176

Operation name: stablehlo.slice
cache miss
3581210888
%60 = stablehlo.slice %28 [0:1, 48:96] : (tensor<1x288xf32>) -> tensor<1x48xf32>
Cost: 174

Operation name: stablehlo.slice
cache miss
3581210888
%61 = stablehlo.slice %29 [0:1, 48:96] : (tensor<1x288xf32>) -> tensor<1x48xf32>
Cost: 372

Operation name: stablehlo.concatenate
cache miss
895440948
%62 = stablehlo.concatenate %60, %61, dim = 0 : (tensor<1x48xf32>, tensor<1x48xf32>) -> tensor<2x48xf32>
Cost: 372

Operation name: stablehlo.dot_general
cache miss
1097263507
%63 = stablehlo.dot_general %62, %59, contracting_dims = [1] x [0], precision = [DEFAULT, DEFAULT] : (tensor<2x48xf32>, tensor<48xf32>) -> tensor<2xf32>
Cost: 277

Operation name: stablehlo.divide
cache miss
1531341356
%64 = stablehlo.divide %63, %cst_1 : tensor<2xf32>
Cost: 369

Operation name: stablehlo.maximum
cache miss
641216813
%2733 = stablehlo.maximum %arg14, %arg15 : tensor<f32>
Cost: 275

Operation name: stablehlo.return
Cost: 0

Operation name: stablehlo.reduce
cache miss
555889745
%65 = stablehlo.reduce(%64 init: %cst_3) applies stablehlo.maximum across dimensions = [0] : (tensor<2xf32>, tensor<f32>) -> tensor<f32>
Cost: 277

Operation name: stablehlo.broadcast_in_dim
cache miss
1703569158
%66 = stablehlo.broadcast_in_dim %65, dims = [] : (tensor<f32>) -> tensor<2xf32>
Cost: 173

Operation name: stablehlo.compare
Cost: 0

Operation name: stablehlo.convert
cache miss
1629337212
%68 = stablehlo.convert %67 : (tensor<2xi1>) -> tensor<2xf32>
Cost: 170

Operation name: stablehlo.add
cache miss
1937139428
%2733 = stablehlo.add %arg14, %arg15 : tensor<f32>
Cost: 393

Operation name: stablehlo.return
Cost: 0

Operation name: stablehlo.reduce
cache miss
555889745
%69 = stablehlo.reduce(%68 init: %cst_2) applies stablehlo.add across dimensions = [0] : (tensor<2xf32>, tensor<f32>) -> tensor<f32>
Cost: 272

Operation name: stablehlo.subtract
cache miss
3818527485
%70 = stablehlo.subtract %64, %66 : tensor<2xf32>
Cost: 274

Operation name: stablehlo.exponential
cache miss
3699945286
%71 = stablehlo.exponential %70 : tensor<2xf32>
Cost: 274

Operation name: stablehlo.slice
cache miss
2078395662
%72 = stablehlo.slice %71 [0:1] : (tensor<2xf32>) -> tensor<1xf32>
Cost: 364

Operation name: stablehlo.reshape
cache miss
1900484018
%73 = stablehlo.reshape %72 : (tensor<1xf32>) -> tensor<f32>
Cost: 305

Operation name: stablehlo.slice
cache miss
4032994822
%74 = stablehlo.slice %71 [1:2] : (tensor<2xf32>) -> tensor<1xf32>
Cost: 300

Operation name: stablehlo.reshape
cache miss
1900484018
%75 = stablehlo.reshape %74 : (tensor<1xf32>) -> tensor<f32>
Cost: 301

Operation name: stablehlo.add
cache miss
1937139428
%76 = stablehlo.add %73, %75 : tensor<f32>
Cost: 170

Operation name: stablehlo.broadcast_in_dim
cache miss
1703569158
%77 = stablehlo.broadcast_in_dim %76, dims = [] : (tensor<f32>) -> tensor<2xf32>
Cost: 394

Operation name: stablehlo.divide
cache miss
1531341356
%78 = stablehlo.divide %71, %77 : tensor<2xf32>
Cost: 173

Operation name: stablehlo.multiply
cache miss
1284973678
%79 = stablehlo.multiply %76, %76 : tensor<f32>
Cost: 459

Operation name: stablehlo.divide
cache miss
719102371
%80 = stablehlo.divide %cst_7, %79 : tensor<f32>
Cost: 386

Operation name: stablehlo.slice
cache miss
3581210888
%81 = stablehlo.slice %31 [0:1, 48:96] : (tensor<1x288xf32>) -> tensor<1x48xf32>
Cost: 391

Operation name: stablehlo.slice
cache miss
3581210888
%82 = stablehlo.slice %32 [0:1, 48:96] : (tensor<1x288xf32>) -> tensor<1x48xf32>
Cost: 387

Operation name: stablehlo.concatenate
cache miss
895440948
%83 = stablehlo.concatenate %81, %82, dim = 0 : (tensor<1x48xf32>, tensor<1x48xf32>) -> tensor<2x48xf32>
Cost: 378

Operation name: stablehlo.dot_general
cache miss
2902940993
%84 = stablehlo.dot_general %83, %78, contracting_dims = [0] x [0], precision = [DEFAULT, DEFAULT] : (tensor<2x48xf32>, tensor<2xf32>) -> tensor<48xf32>
Cost: 266

Operation name: stablehlo.slice
cache miss
1375222232
%85 = stablehlo.slice %26 [96:144] : (tensor<288xf32>) -> tensor<48xf32>
Cost: 483

Operation name: stablehlo.slice
cache miss
1957506058
%86 = stablehlo.slice %28 [0:1, 96:144] : (tensor<1x288xf32>) -> tensor<1x48xf32>
Cost: 541

Operation name: stablehlo.slice
cache miss
1957506058
%87 = stablehlo.slice %29 [0:1, 96:144] : (tensor<1x288xf32>) -> tensor<1x48xf32>
Cost: 309

Operation name: stablehlo.concatenate
cache miss
895440948
%88 = stablehlo.concatenate %86, %87, dim = 0 : (tensor<1x48xf32>, tensor<1x48xf32>) -> tensor<2x48xf32>
Cost: 393

Operation name: stablehlo.dot_general
cache miss
1097263507
%89 = stablehlo.dot_general %88, %85, contracting_dims = [1] x [0], precision = [DEFAULT, DEFAULT] : (tensor<2x48xf32>, tensor<48xf32>) -> tensor<2xf32>
Cost: 276

Operation name: stablehlo.divide
cache miss
1531341356
%90 = stablehlo.divide %89, %cst_1 : tensor<2xf32>
Cost: 332

Operation name: stablehlo.maximum
cache miss
641216813
%2733 = stablehlo.maximum %arg14, %arg15 : tensor<f32>
Cost: 278

Operation name: stablehlo.return
Cost: 0

Operation name: stablehlo.reduce
cache miss
555889745
%91 = stablehlo.reduce(%90 init: %cst_3) applies stablehlo.maximum across dimensions = [0] : (tensor<2xf32>, tensor<f32>) -> tensor<f32>
Cost: 271

Operation name: stablehlo.broadcast_in_dim
cache miss
1703569158
%92 = stablehlo.broadcast_in_dim %91, dims = [] : (tensor<f32>) -> tensor<2xf32>
Cost: 602

Operation name: stablehlo.compare
Cost: 0

Operation name: stablehlo.convert
cache miss
1629337212
%94 = stablehlo.convert %93 : (tensor<2xi1>) -> tensor<2xf32>
Cost: 269

Operation name: stablehlo.add
cache miss
1937139428
%2733 = stablehlo.add %arg14, %arg15 : tensor<f32>
Cost: 277

Operation name: stablehlo.return
Cost: 0

Operation name: stablehlo.reduce
cache miss
555889745
%95 = stablehlo.reduce(%94 init: %cst_2) applies stablehlo.add across dimensions = [0] : (tensor<2xf32>, tensor<f32>) -> tensor<f32>
Cost: 364

Operation name: stablehlo.subtract
cache miss
3818527485
%96 = stablehlo.subtract %90, %92 : tensor<2xf32>
Cost: 368

Operation name: stablehlo.exponential
cache miss
3699945286
%97 = stablehlo.exponential %96 : tensor<2xf32>
Cost: 273

Operation name: stablehlo.slice
cache miss
2078395662
%98 = stablehlo.slice %97 [0:1] : (tensor<2xf32>) -> tensor<1xf32>
Cost: 360

Operation name: stablehlo.reshape
cache miss
1900484018
%99 = stablehlo.reshape %98 : (tensor<1xf32>) -> tensor<f32>
Cost: 274

Operation name: stablehlo.slice
cache miss
4032994822
%100 = stablehlo.slice %97 [1:2] : (tensor<2xf32>) -> tensor<1xf32>
Cost: 364

Operation name: stablehlo.reshape
cache miss
1900484018
%101 = stablehlo.reshape %100 : (tensor<1xf32>) -> tensor<f32>
Cost: 383

Operation name: stablehlo.add
cache miss
1937139428
%102 = stablehlo.add %99, %101 : tensor<f32>
Cost: 171

Operation name: stablehlo.broadcast_in_dim
cache miss
1703569158
%103 = stablehlo.broadcast_in_dim %102, dims = [] : (tensor<f32>) -> tensor<2xf32>
Cost: 395

Operation name: stablehlo.divide
cache miss
1531341356
%104 = stablehlo.divide %97, %103 : tensor<2xf32>
Cost: 363

Operation name: stablehlo.multiply
cache miss
1284973678
%105 = stablehlo.multiply %102, %102 : tensor<f32>
Cost: 272

Operation name: stablehlo.divide
cache miss
719102371
%106 = stablehlo.divide %cst_7, %105 : tensor<f32>
Cost: 272

Operation name: stablehlo.slice
cache miss
1957506058
%107 = stablehlo.slice %31 [0:1, 96:144] : (tensor<1x288xf32>) -> tensor<1x48xf32>
Cost: 175

Operation name: stablehlo.slice
cache miss
1957506058
%108 = stablehlo.slice %32 [0:1, 96:144] : (tensor<1x288xf32>) -> tensor<1x48xf32>
Cost: 175

Operation name: stablehlo.concatenate
cache miss
895440948
%109 = stablehlo.concatenate %107, %108, dim = 0 : (tensor<1x48xf32>, tensor<1x48xf32>) -> tensor<2x48xf32>
Cost: 372

Operation name: stablehlo.dot_general
cache miss
2902940993
%110 = stablehlo.dot_general %109, %104, contracting_dims = [0] x [0], precision = [DEFAULT, DEFAULT] : (tensor<2x48xf32>, tensor<2xf32>) -> tensor<48xf32>
Cost: 264

Operation name: stablehlo.slice
cache miss
3469783879
%111 = stablehlo.slice %26 [144:192] : (tensor<288xf32>) -> tensor<48xf32>
Cost: 370

Operation name: stablehlo.slice
cache miss
3339692416
%112 = stablehlo.slice %28 [0:1, 144:192] : (tensor<1x288xf32>) -> tensor<1x48xf32>
Cost: 277

Operation name: stablehlo.slice
cache miss
3339692416
%113 = stablehlo.slice %29 [0:1, 144:192] : (tensor<1x288xf32>) -> tensor<1x48xf32>
Cost: 379

Operation name: stablehlo.concatenate
cache miss
895440948
%114 = stablehlo.concatenate %112, %113, dim = 0 : (tensor<1x48xf32>, tensor<1x48xf32>) -> tensor<2x48xf32>
Cost: 399

Operation name: stablehlo.dot_general
cache miss
1097263507
%115 = stablehlo.dot_general %114, %111, contracting_dims = [1] x [0], precision = [DEFAULT, DEFAULT] : (tensor<2x48xf32>, tensor<48xf32>) -> tensor<2xf32>
Cost: 279

Operation name: stablehlo.divide
cache miss
1531341356
%116 = stablehlo.divide %115, %cst_1 : tensor<2xf32>
Cost: 285

Operation name: stablehlo.maximum
cache miss
641216813
%2733 = stablehlo.maximum %arg14, %arg15 : tensor<f32>
Cost: 370

Operation name: stablehlo.return
Cost: 0

Operation name: stablehlo.reduce
cache miss
555889745
%117 = stablehlo.reduce(%116 init: %cst_3) applies stablehlo.maximum across dimensions = [0] : (tensor<2xf32>, tensor<f32>) -> tensor<f32>
Cost: 275

Operation name: stablehlo.broadcast_in_dim
cache miss
1703569158
%118 = stablehlo.broadcast_in_dim %117, dims = [] : (tensor<f32>) -> tensor<2xf32>
Cost: 451

Operation name: stablehlo.compare
Cost: 0

Operation name: stablehlo.convert
cache miss
1629337212
%120 = stablehlo.convert %119 : (tensor<2xi1>) -> tensor<2xf32>
Cost: 364

Operation name: stablehlo.add
cache miss
1937139428
%2733 = stablehlo.add %arg14, %arg15 : tensor<f32>
Cost: 275

Operation name: stablehlo.return
Cost: 0

Operation name: stablehlo.reduce
cache miss
555889745
%121 = stablehlo.reduce(%120 init: %cst_2) applies stablehlo.add across dimensions = [0] : (tensor<2xf32>, tensor<f32>) -> tensor<f32>
Cost: 400

Operation name: stablehlo.subtract
cache miss
3818527485
%122 = stablehlo.subtract %116, %118 : tensor<2xf32>
Cost: 410

Operation name: stablehlo.exponential
cache miss
3699945286
%123 = stablehlo.exponential %122 : tensor<2xf32>
Cost: 548

Operation name: stablehlo.slice
cache miss
2078395662
%124 = stablehlo.slice %123 [0:1] : (tensor<2xf32>) -> tensor<1xf32>
Cost: 364

Operation name: stablehlo.reshape
cache miss
1900484018
%125 = stablehlo.reshape %124 : (tensor<1xf32>) -> tensor<f32>
Cost: 464

Operation name: stablehlo.slice
cache miss
4032994822
%126 = stablehlo.slice %123 [1:2] : (tensor<2xf32>) -> tensor<1xf32>
Cost: 277

Operation name: stablehlo.reshape
cache miss
1900484018
%127 = stablehlo.reshape %126 : (tensor<1xf32>) -> tensor<f32>
Cost: 417

Operation name: stablehlo.add
cache miss
1937139428
%128 = stablehlo.add %125, %127 : tensor<f32>
Cost: 350

Operation name: stablehlo.broadcast_in_dim
cache miss
1703569158
%129 = stablehlo.broadcast_in_dim %128, dims = [] : (tensor<f32>) -> tensor<2xf32>
Cost: 406

Operation name: stablehlo.divide
cache miss
1531341356
%130 = stablehlo.divide %123, %129 : tensor<2xf32>
Cost: 361

Operation name: stablehlo.multiply
cache miss
1284973678
%131 = stablehlo.multiply %128, %128 : tensor<f32>
Cost: 397

Operation name: stablehlo.divide
cache miss
719102371
%132 = stablehlo.divide %cst_7, %131 : tensor<f32>
Cost: 273

Operation name: stablehlo.slice
cache miss
3339692416
%133 = stablehlo.slice %31 [0:1, 144:192] : (tensor<1x288xf32>) -> tensor<1x48xf32>
Cost: 364

Operation name: stablehlo.slice
cache miss
3339692416
%134 = stablehlo.slice %32 [0:1, 144:192] : (tensor<1x288xf32>) -> tensor<1x48xf32>
Cost: 578

Operation name: stablehlo.concatenate
cache miss
895440948
%135 = stablehlo.concatenate %133, %134, dim = 0 : (tensor<1x48xf32>, tensor<1x48xf32>) -> tensor<2x48xf32>
Cost: 371

Operation name: stablehlo.dot_general
cache miss
2902940993
%136 = stablehlo.dot_general %135, %130, contracting_dims = [0] x [0], precision = [DEFAULT, DEFAULT] : (tensor<2x48xf32>, tensor<2xf32>) -> tensor<48xf32>
Cost: 167

Operation name: stablehlo.slice
cache miss
1801550340
%137 = stablehlo.slice %26 [192:240] : (tensor<288xf32>) -> tensor<48xf32>
Cost: 274

Operation name: stablehlo.slice
cache miss
3411559083
%138 = stablehlo.slice %28 [0:1, 192:240] : (tensor<1x288xf32>) -> tensor<1x48xf32>
Cost: 389

Operation name: stablehlo.slice
cache miss
3411559083
%139 = stablehlo.slice %29 [0:1, 192:240] : (tensor<1x288xf32>) -> tensor<1x48xf32>
Cost: 302

Operation name: stablehlo.concatenate
cache miss
895440948
%140 = stablehlo.concatenate %138, %139, dim = 0 : (tensor<1x48xf32>, tensor<1x48xf32>) -> tensor<2x48xf32>
Cost: 322

Operation name: stablehlo.dot_general
cache miss
1097263507
%141 = stablehlo.dot_general %140, %137, contracting_dims = [1] x [0], precision = [DEFAULT, DEFAULT] : (tensor<2x48xf32>, tensor<48xf32>) -> tensor<2xf32>
Cost: 392

Operation name: stablehlo.divide
cache miss
1531341356
%142 = stablehlo.divide %141, %cst_1 : tensor<2xf32>
Cost: 329

Operation name: stablehlo.maximum
cache miss
641216813
%2733 = stablehlo.maximum %arg14, %arg15 : tensor<f32>
Cost: 277

Operation name: stablehlo.return
Cost: 0

Operation name: stablehlo.reduce
cache miss
555889745
%143 = stablehlo.reduce(%142 init: %cst_3) applies stablehlo.maximum across dimensions = [0] : (tensor<2xf32>, tensor<f32>) -> tensor<f32>
Cost: 475

Operation name: stablehlo.broadcast_in_dim
cache miss
1703569158
%144 = stablehlo.broadcast_in_dim %143, dims = [] : (tensor<f32>) -> tensor<2xf32>
Cost: 358

Operation name: stablehlo.compare
Cost: 0

Operation name: stablehlo.convert
cache miss
1629337212
%146 = stablehlo.convert %145 : (tensor<2xi1>) -> tensor<2xf32>
Cost: 286

Operation name: stablehlo.add
cache miss
1937139428
%2733 = stablehlo.add %arg14, %arg15 : tensor<f32>
Cost: 272

Operation name: stablehlo.return
Cost: 0

Operation name: stablehlo.reduce
cache miss
555889745
%147 = stablehlo.reduce(%146 init: %cst_2) applies stablehlo.add across dimensions = [0] : (tensor<2xf32>, tensor<f32>) -> tensor<f32>
Cost: 173

Operation name: stablehlo.subtract
cache miss
3818527485
%148 = stablehlo.subtract %142, %144 : tensor<2xf32>
Cost: 359

Operation name: stablehlo.exponential
cache miss
3699945286
%149 = stablehlo.exponential %148 : tensor<2xf32>
Cost: 351

Operation name: stablehlo.slice
cache miss
2078395662
%150 = stablehlo.slice %149 [0:1] : (tensor<2xf32>) -> tensor<1xf32>
Cost: 483

Operation name: stablehlo.reshape
cache miss
1900484018
%151 = stablehlo.reshape %150 : (tensor<1xf32>) -> tensor<f32>
Cost: 172

Operation name: stablehlo.slice
cache miss
4032994822
%152 = stablehlo.slice %149 [1:2] : (tensor<2xf32>) -> tensor<1xf32>
Cost: 188

Operation name: stablehlo.reshape
cache miss
1900484018
%153 = stablehlo.reshape %152 : (tensor<1xf32>) -> tensor<f32>
Cost: 370

Operation name: stablehlo.add
cache miss
1937139428
%154 = stablehlo.add %151, %153 : tensor<f32>
Cost: 298

Operation name: stablehlo.broadcast_in_dim
cache miss
1703569158
%155 = stablehlo.broadcast_in_dim %154, dims = [] : (tensor<f32>) -> tensor<2xf32>
Cost: 276

Operation name: stablehlo.divide
cache miss
1531341356
%156 = stablehlo.divide %149, %155 : tensor<2xf32>
Cost: 299

Operation name: stablehlo.multiply
cache miss
1284973678
%157 = stablehlo.multiply %154, %154 : tensor<f32>
Cost: 277

Operation name: stablehlo.divide
cache miss
719102371
%158 = stablehlo.divide %cst_7, %157 : tensor<f32>
Cost: 301

Operation name: stablehlo.slice
cache miss
3411559083
%159 = stablehlo.slice %31 [0:1, 192:240] : (tensor<1x288xf32>) -> tensor<1x48xf32>
Cost: 176

Operation name: stablehlo.slice
cache miss
3411559083
%160 = stablehlo.slice %32 [0:1, 192:240] : (tensor<1x288xf32>) -> tensor<1x48xf32>
Cost: 173

Operation name: stablehlo.concatenate
cache miss
895440948
%161 = stablehlo.concatenate %159, %160, dim = 0 : (tensor<1x48xf32>, tensor<1x48xf32>) -> tensor<2x48xf32>
Cost: 176

Operation name: stablehlo.dot_general
cache miss
2902940993
%162 = stablehlo.dot_general %161, %156, contracting_dims = [0] x [0], precision = [DEFAULT, DEFAULT] : (tensor<2x48xf32>, tensor<2xf32>) -> tensor<48xf32>
Cost: 166

Operation name: stablehlo.slice
cache miss
2798019243
%163 = stablehlo.slice %26 [240:288] : (tensor<288xf32>) -> tensor<48xf32>
Cost: 180

Operation name: stablehlo.slice
cache miss
1619767244
%164 = stablehlo.slice %28 [0:1, 240:288] : (tensor<1x288xf32>) -> tensor<1x48xf32>
Cost: 305

Operation name: stablehlo.slice
cache miss
1619767244
%165 = stablehlo.slice %29 [0:1, 240:288] : (tensor<1x288xf32>) -> tensor<1x48xf32>
Cost: 274

Operation name: stablehlo.concatenate
cache miss
895440948
%166 = stablehlo.concatenate %164, %165, dim = 0 : (tensor<1x48xf32>, tensor<1x48xf32>) -> tensor<2x48xf32>
Cost: 177

Operation name: stablehlo.dot_general
cache miss
1097263507
%167 = stablehlo.dot_general %166, %163, contracting_dims = [1] x [0], precision = [DEFAULT, DEFAULT] : (tensor<2x48xf32>, tensor<48xf32>) -> tensor<2xf32>
Cost: 174

Operation name: stablehlo.divide
cache miss
1531341356
%168 = stablehlo.divide %167, %cst_1 : tensor<2xf32>
Cost: 174

Operation name: stablehlo.maximum
cache miss
641216813
%2733 = stablehlo.maximum %arg14, %arg15 : tensor<f32>
Cost: 187

Operation name: stablehlo.return
Cost: 0

Operation name: stablehlo.reduce
cache miss
555889745
%169 = stablehlo.reduce(%168 init: %cst_3) applies stablehlo.maximum across dimensions = [0] : (tensor<2xf32>, tensor<f32>) -> tensor<f32>
Cost: 273

Operation name: stablehlo.broadcast_in_dim
cache miss
1703569158
%170 = stablehlo.broadcast_in_dim %169, dims = [] : (tensor<f32>) -> tensor<2xf32>
Cost: 276

Operation name: stablehlo.compare
Cost: 0

Operation name: stablehlo.convert
cache miss
1629337212
%172 = stablehlo.convert %171 : (tensor<2xi1>) -> tensor<2xf32>
Cost: 170

Operation name: stablehlo.add
cache miss
1937139428
%2733 = stablehlo.add %arg14, %arg15 : tensor<f32>
Cost: 174

Operation name: stablehlo.return
Cost: 0

Operation name: stablehlo.reduce
cache miss
555889745
%173 = stablehlo.reduce(%172 init: %cst_2) applies stablehlo.add across dimensions = [0] : (tensor<2xf32>, tensor<f32>) -> tensor<f32>
Cost: 174

Operation name: stablehlo.subtract
cache miss
3818527485
%174 = stablehlo.subtract %168, %170 : tensor<2xf32>
Cost: 384

Operation name: stablehlo.exponential
cache miss
3699945286
%175 = stablehlo.exponential %174 : tensor<2xf32>
Cost: 369

Operation name: stablehlo.slice
cache miss
2078395662
%176 = stablehlo.slice %175 [0:1] : (tensor<2xf32>) -> tensor<1xf32>
Cost: 386

Operation name: stablehlo.reshape
cache miss
1900484018
%177 = stablehlo.reshape %176 : (tensor<1xf32>) -> tensor<f32>
Cost: 276

Operation name: stablehlo.slice
cache miss
4032994822
%178 = stablehlo.slice %175 [1:2] : (tensor<2xf32>) -> tensor<1xf32>
Cost: 243

Operation name: stablehlo.reshape
cache miss
1900484018
%179 = stablehlo.reshape %178 : (tensor<1xf32>) -> tensor<f32>
Cost: 277

Operation name: stablehlo.add
cache miss
1937139428
%180 = stablehlo.add %177, %179 : tensor<f32>
Cost: 273

Operation name: stablehlo.broadcast_in_dim
cache miss
1703569158
%181 = stablehlo.broadcast_in_dim %180, dims = [] : (tensor<f32>) -> tensor<2xf32>
Cost: 270

Operation name: stablehlo.divide
cache miss
1531341356
%182 = stablehlo.divide %175, %181 : tensor<2xf32>
Cost: 373

Operation name: stablehlo.multiply
cache miss
1284973678
%183 = stablehlo.multiply %180, %180 : tensor<f32>
Cost: 367

Operation name: stablehlo.divide
cache miss
719102371
%184 = stablehlo.divide %cst_7, %183 : tensor<f32>
Cost: 384

Operation name: stablehlo.slice
cache miss
1619767244
%185 = stablehlo.slice %31 [0:1, 240:288] : (tensor<1x288xf32>) -> tensor<1x48xf32>
Cost: 393

Operation name: stablehlo.slice
cache miss
1619767244
%186 = stablehlo.slice %32 [0:1, 240:288] : (tensor<1x288xf32>) -> tensor<1x48xf32>
Cost: 173

Operation name: stablehlo.concatenate
cache miss
895440948
%187 = stablehlo.concatenate %185, %186, dim = 0 : (tensor<1x48xf32>, tensor<1x48xf32>) -> tensor<2x48xf32>
Cost: 371

Operation name: stablehlo.dot_general
cache miss
2902940993
%188 = stablehlo.dot_general %187, %182, contracting_dims = [0] x [0], precision = [DEFAULT, DEFAULT] : (tensor<2x48xf32>, tensor<2xf32>) -> tensor<48xf32>
Cost: 360

Operation name: stablehlo.concatenate
cache miss
292037604
%189 = stablehlo.concatenate %58, %84, %110, %136, %162, %188, dim = 0 : (tensor<48xf32>, tensor<48xf32>, tensor<48xf32>, tensor<48xf32>, tensor<48xf32>, tensor<48xf32>) -> tensor<288xf32>
Cost: 254

Operation name: stablehlo.slice
cache miss
1602837588
%190 = stablehlo.slice %arg8 [0:1, 0:288, 0:288] : (tensor<6x288x288xf32>) -> tensor<1x288x288xf32>
Cost: 37512

Operation name: stablehlo.reshape
cache miss
3219454195
%191 = stablehlo.reshape %190 : (tensor<1x288x288xf32>) -> tensor<288x288xf32>
Cost: 55159

Operation name: stablehlo.dot_general
cache miss
1061109412
%192 = stablehlo.dot_general %191, %189, contracting_dims = [1] x [0], precision = [DEFAULT, DEFAULT] : (tensor<288x288xf32>, tensor<288xf32>) -> tensor<288xf32>
Cost: 450

Operation name: stablehlo.add
cache miss
3847999983
%193 = stablehlo.add %arg0, %192 : tensor<288xf32>
Cost: 507

Operation name: stablehlo.slice
cache miss
2887246636
%194 = stablehlo.slice %arg2 [0:1, 0:288] : (tensor<6x288xf32>) -> tensor<1x288xf32>
Cost: 386

Operation name: stablehlo.reshape
cache miss
1377738304
%195 = stablehlo.reshape %194 : (tensor<1x288xf32>) -> tensor<288xf32>
Cost: 387

Operation name: stablehlo.dot_general
cache miss
2778462547
%196 = stablehlo.dot_general %193, %193, contracting_dims = [0] x [0], precision = [DEFAULT, DEFAULT] : (tensor<288xf32>, tensor<288xf32>) -> tensor<f32>
Cost: 272

Operation name: stablehlo.divide
cache miss
719102371
%197 = stablehlo.divide %196, %cst_5 : tensor<f32>
Cost: 372

Operation name: stablehlo.add
cache miss
1937139428
%198 = stablehlo.add %197, %cst_4 : tensor<f32>
Cost: 280

Operation name: stablehlo.sqrt
cache miss
1884932271
%199 = stablehlo.sqrt %198 : tensor<f32>
Cost: 287

Operation name: stablehlo.divide
cache miss
719102371
%200 = stablehlo.divide %cst_6, %199 : tensor<f32>
Cost: 322

Operation name: stablehlo.divide
cache miss
719102371
%201 = stablehlo.divide %cst_7, %199 : tensor<f32>
Cost: 376

Operation name: stablehlo.multiply
cache miss
1284973678
%202 = stablehlo.multiply %199, %199 : tensor<f32>
Cost: 367

Operation name: stablehlo.divide
cache miss
719102371
%203 = stablehlo.divide %cst_7, %202 : tensor<f32>
Cost: 273

Operation name: stablehlo.multiply
cache miss
2511610444
%204 = stablehlo.multiply %195, %193 : tensor<288xf32>
Cost: 505

Operation name: stablehlo.broadcast_in_dim
cache miss
2616490109
%205 = stablehlo.broadcast_in_dim %201, dims = [] : (tensor<f32>) -> tensor<288xf32>
Cost: 391

Operation name: stablehlo.multiply
cache miss
2511610444
%206 = stablehlo.multiply %204, %205 : tensor<288xf32>
Cost: 508

Operation name: stablehlo.slice
cache miss
726165347
%207 = stablehlo.slice %arg4 [0:1, 0:768, 0:288] : (tensor<6x768x288xf32>) -> tensor<1x768x288xf32>
Cost: 93856

Operation name: stablehlo.reshape
cache miss
3265769957
%208 = stablehlo.reshape %207 : (tensor<1x768x288xf32>) -> tensor<768x288xf32>
Cost: 108036

Operation name: stablehlo.dot_general
cache miss
2529236298
%209 = stablehlo.dot_general %208, %206, contracting_dims = [1] x [0], precision = [DEFAULT, DEFAULT] : (tensor<768x288xf32>, tensor<288xf32>) -> tensor<768xf32>
Cost: 3443

Operation name: stablehlo.slice
cache miss
726165347
%210 = stablehlo.slice %arg6 [0:1, 0:768, 0:288] : (tensor<6x768x288xf32>) -> tensor<1x768x288xf32>
Cost: 78689

Operation name: stablehlo.reshape
cache miss
3265769957
%211 = stablehlo.reshape %210 : (tensor<1x768x288xf32>) -> tensor<768x288xf32>
Cost: 94200

Operation name: stablehlo.dot_general
cache miss
2529236298
%212 = stablehlo.dot_general %211, %206, contracting_dims = [1] x [0], precision = [DEFAULT, DEFAULT] : (tensor<768x288xf32>, tensor<288xf32>) -> tensor<768xf32>
Cost: 3452

Operation name: stablehlo.negate
cache miss
4256221255
%213 = stablehlo.negate %209 : tensor<768xf32>
Cost: 278

Operation name: stablehlo.exponential
cache miss
6921514
%214 = stablehlo.exponential %213 : tensor<768xf32>
Cost: 459

Operation name: stablehlo.add
cache miss
389450582
%215 = stablehlo.add %cst_0, %214 : tensor<768xf32>
Cost: 414

Operation name: stablehlo.divide
cache miss
2134516102
%216 = stablehlo.divide %cst_0, %215 : tensor<768xf32>
Cost: 400

Operation name: stablehlo.multiply
cache miss
4137946040
%217 = stablehlo.multiply %215, %215 : tensor<768xf32>
Cost: 479

Operation name: stablehlo.divide
cache miss
2134516102
%218 = stablehlo.divide %cst_0, %217 : tensor<768xf32>
Cost: 404

Operation name: stablehlo.multiply
cache miss
4137946040
%219 = stablehlo.multiply %209, %216 : tensor<768xf32>
Cost: 446

Operation name: stablehlo.multiply
cache miss
4137946040
%220 = stablehlo.multiply %219, %212 : tensor<768xf32>
Cost: 593

Operation name: stablehlo.slice
cache miss
3777828501
%221 = stablehlo.slice %arg5 [0:1, 0:288, 0:768] : (tensor<6x288x768xf32>) -> tensor<1x288x768xf32>
Cost: 99507

Operation name: stablehlo.reshape
cache miss
2162077039
%222 = stablehlo.reshape %221 : (tensor<1x288x768xf32>) -> tensor<288x768xf32>
Cost: 104648

Operation name: stablehlo.dot_general
cache miss
1061109412
%223 = stablehlo.dot_general %222, %220, contracting_dims = [1] x [0], precision = [DEFAULT, DEFAULT] : (tensor<288x768xf32>, tensor<768xf32>) -> tensor<288xf32>
Cost: 3882

Operation name: stablehlo.add
cache miss
3847999983
%224 = stablehlo.add %193, %223 : tensor<288xf32>
Cost: 386

Operation name: stablehlo.slice
cache miss
2525166936
%225 = stablehlo.slice %arg1 [1:2, 0:288] : (tensor<6x288xf32>) -> tensor<1x288xf32>
Cost: 406

Operation name: stablehlo.reshape
cache miss
1377738304
%226 = stablehlo.reshape %225 : (tensor<1x288xf32>) -> tensor<288xf32>
Cost: 383

Operation name: stablehlo.dot_general
cache miss
2778462547
%227 = stablehlo.dot_general %224, %224, contracting_dims = [0] x [0], precision = [DEFAULT, DEFAULT] : (tensor<288xf32>, tensor<288xf32>) -> tensor<f32>
Cost: 275

Operation name: stablehlo.divide
cache miss
719102371
%228 = stablehlo.divide %227, %cst_5 : tensor<f32>
Cost: 313

Operation name: stablehlo.add
cache miss
1937139428
%229 = stablehlo.add %228, %cst_4 : tensor<f32>
Cost: 279

Operation name: stablehlo.sqrt
cache miss
1884932271
%230 = stablehlo.sqrt %229 : tensor<f32>
Cost: 314

Operation name: stablehlo.divide
cache miss
719102371
%231 = stablehlo.divide %cst_6, %230 : tensor<f32>
Cost: 312

Operation name: stablehlo.divide
cache miss
719102371
%232 = stablehlo.divide %cst_7, %230 : tensor<f32>
Cost: 309

Operation name: stablehlo.multiply
cache miss
1284973678
%233 = stablehlo.multiply %230, %230 : tensor<f32>
Cost: 309

Operation name: stablehlo.divide
cache miss
719102371
%234 = stablehlo.divide %cst_7, %233 : tensor<f32>
Cost: 286

Operation name: stablehlo.multiply
cache miss
2511610444
%235 = stablehlo.multiply %226, %224 : tensor<288xf32>
Cost: 425

Operation name: stablehlo.broadcast_in_dim
cache miss
2616490109
%236 = stablehlo.broadcast_in_dim %232, dims = [] : (tensor<f32>) -> tensor<288xf32>
Cost: 521

Operation name: stablehlo.multiply
cache miss
2511610444
%237 = stablehlo.multiply %235, %236 : tensor<288xf32>
Cost: 265

Operation name: stablehlo.slice
cache miss
3584813111
%238 = stablehlo.slice %arg9 [1:2, 0:288, 0:288] : (tensor<6x288x288xf32>) -> tensor<1x288x288xf32>
Cost: 40601

Operation name: stablehlo.reshape
cache miss
3219454195
%239 = stablehlo.reshape %238 : (tensor<1x288x288xf32>) -> tensor<288x288xf32>
Cost: 50977

Operation name: stablehlo.dot_general
cache miss
1061109412
%240 = stablehlo.dot_general %239, %237, contracting_dims = [1] x [0], precision = [DEFAULT, DEFAULT] : (tensor<288x288xf32>, tensor<288xf32>) -> tensor<288xf32>
Cost: 220

Operation name: stablehlo.slice
cache miss
3584813111
%241 = stablehlo.slice %arg7 [1:2, 0:288, 0:288] : (tensor<6x288x288xf32>) -> tensor<1x288x288xf32>
Cost: 41286

Operation name: stablehlo.reshape
cache miss
3219454195
%242 = stablehlo.reshape %241 : (tensor<1x288x288xf32>) -> tensor<288x288xf32>
Cost: 44375

Operation name: stablehlo.dot_general
cache miss
1061109412
%243 = stablehlo.dot_general %242, %237, contracting_dims = [1] x [0], precision = [DEFAULT, DEFAULT] : (tensor<288x288xf32>, tensor<288xf32>) -> tensor<288xf32>
Cost: 225

Operation name: stablehlo.slice
cache miss
3584813111
%244 = stablehlo.slice %arg10 [1:2, 0:288, 0:288] : (tensor<6x288x288xf32>) -> tensor<1x288x288xf32>
Cost: 66121

Operation name: stablehlo.reshape
cache miss
3219454195
%245 = stablehlo.reshape %244 : (tensor<1x288x288xf32>) -> tensor<288x288xf32>
Cost: 52084

Operation name: stablehlo.dot_general
cache miss
1061109412
%246 = stablehlo.dot_general %245, %237, contracting_dims = [1] x [0], precision = [DEFAULT, DEFAULT] : (tensor<288x288xf32>, tensor<288xf32>) -> tensor<288xf32>
Cost: 341

Operation name: stablehlo.reshape
cache miss
2392077026
%247 = stablehlo.reshape %240 : (tensor<288xf32>) -> tensor<144x2xf32>
Cost: 516

Operation name: stablehlo.reshape
cache miss
2392077026
%248 = stablehlo.reshape %243 : (tensor<288xf32>) -> tensor<144x2xf32>
Cost: 540

Operation name: stablehlo.dot_general
cache miss
865228849
%249 = stablehlo.dot_general %cst_8, %248, batching_dims = [0] x [0], contracting_dims = [2] x [1], precision = [DEFAULT, DEFAULT] : (tensor<144x2x2xf32>, tensor<144x2xf32>) -> tensor<144x2xf32>
Cost: 678

Operation name: stablehlo.dot_general
cache miss
865228849
%250 = stablehlo.dot_general %cst_8, %247, batching_dims = [0] x [0], contracting_dims = [2] x [1], precision = [DEFAULT, DEFAULT] : (tensor<144x2x2xf32>, tensor<144x2xf32>) -> tensor<144x2xf32>
Cost: 400

Operation name: stablehlo.reshape
cache miss
1377738304
%251 = stablehlo.reshape %250 : (tensor<144x2xf32>) -> tensor<288xf32>
Cost: 303

Operation name: stablehlo.slice
cache miss
1889752609
%252 = stablehlo.slice %arg11 [1:2, 0:1, 0:288] : (tensor<6x1x288xf32>) -> tensor<1x1x288xf32>
Cost: 494

Operation name: stablehlo.reshape
cache miss
2960881163
%253 = stablehlo.reshape %252 : (tensor<1x1x288xf32>) -> tensor<1x288xf32>
Cost: 253

Operation name: stablehlo.reshape
cache miss
2960881163
%254 = stablehlo.reshape %249 : (tensor<144x2xf32>) -> tensor<1x288xf32>
Cost: 255

Operation name: stablehlo.slice
cache miss
1889752609
%255 = stablehlo.slice %arg12 [1:2, 0:1, 0:288] : (tensor<6x1x288xf32>) -> tensor<1x1x288xf32>
Cost: 518

Operation name: stablehlo.reshape
cache miss
2960881163
%256 = stablehlo.reshape %255 : (tensor<1x1x288xf32>) -> tensor<1x288xf32>
Cost: 517

Operation name: stablehlo.reshape
cache miss
2960881163
%257 = stablehlo.reshape %246 : (tensor<288xf32>) -> tensor<1x288xf32>
Cost: 515

Operation name: stablehlo.slice
cache miss
2839717066
%258 = stablehlo.slice %251 [0:48] : (tensor<288xf32>) -> tensor<48xf32>
Cost: 390

Operation name: stablehlo.slice
cache miss
3729170049
%259 = stablehlo.slice %253 [0:1, 0:48] : (tensor<1x288xf32>) -> tensor<1x48xf32>
Cost: 365

Operation name: stablehlo.slice
cache miss
3729170049
%260 = stablehlo.slice %254 [0:1, 0:48] : (tensor<1x288xf32>) -> tensor<1x48xf32>
Cost: 417

Operation name: stablehlo.concatenate
cache miss
895440948
%261 = stablehlo.concatenate %259, %260, dim = 0 : (tensor<1x48xf32>, tensor<1x48xf32>) -> tensor<2x48xf32>
Cost: 407

Operation name: stablehlo.dot_general
cache miss
1097263507
%262 = stablehlo.dot_general %261, %258, contracting_dims = [1] x [0], precision = [DEFAULT, DEFAULT] : (tensor<2x48xf32>, tensor<48xf32>) -> tensor<2xf32>
Cost: 327

Operation name: stablehlo.divide
cache miss
1531341356
%263 = stablehlo.divide %262, %cst_1 : tensor<2xf32>
Cost: 400

Operation name: stablehlo.maximum
cache miss
641216813
%2733 = stablehlo.maximum %arg14, %arg15 : tensor<f32>
Cost: 323

Operation name: stablehlo.return
Cost: 0

Operation name: stablehlo.reduce
cache miss
555889745
%264 = stablehlo.reduce(%263 init: %cst_3) applies stablehlo.maximum across dimensions = [0] : (tensor<2xf32>, tensor<f32>) -> tensor<f32>
Cost: 248

Operation name: stablehlo.broadcast_in_dim
cache miss
1703569158
%265 = stablehlo.broadcast_in_dim %264, dims = [] : (tensor<f32>) -> tensor<2xf32>
Cost: 297

Operation name: stablehlo.compare
Cost: 0

Operation name: stablehlo.convert
cache miss
1629337212
%267 = stablehlo.convert %266 : (tensor<2xi1>) -> tensor<2xf32>
Cost: 384

Operation name: stablehlo.add
cache miss
1937139428
%2733 = stablehlo.add %arg14, %arg15 : tensor<f32>
Cost: 389

Operation name: stablehlo.return
Cost: 0

Operation name: stablehlo.reduce
cache miss
555889745
%268 = stablehlo.reduce(%267 init: %cst_2) applies stablehlo.add across dimensions = [0] : (tensor<2xf32>, tensor<f32>) -> tensor<f32>
Cost: 388

Operation name: stablehlo.subtract
cache miss
3818527485
%269 = stablehlo.subtract %263, %265 : tensor<2xf32>
Cost: 396

Operation name: stablehlo.exponential
cache miss
3699945286
%270 = stablehlo.exponential %269 : tensor<2xf32>
Cost: 374

Operation name: stablehlo.slice
cache miss
2078395662
%271 = stablehlo.slice %270 [0:1] : (tensor<2xf32>) -> tensor<1xf32>
Cost: 305

Operation name: stablehlo.reshape
cache miss
1900484018
%272 = stablehlo.reshape %271 : (tensor<1xf32>) -> tensor<f32>
Cost: 312

Operation name: stablehlo.slice
cache miss
4032994822
%273 = stablehlo.slice %270 [1:2] : (tensor<2xf32>) -> tensor<1xf32>
Cost: 178

Operation name: stablehlo.reshape
cache miss
1900484018
%274 = stablehlo.reshape %273 : (tensor<1xf32>) -> tensor<f32>
Cost: 308

Operation name: stablehlo.add
cache miss
1937139428
%275 = stablehlo.add %272, %274 : tensor<f32>
Cost: 373

Operation name: stablehlo.broadcast_in_dim
cache miss
1703569158
%276 = stablehlo.broadcast_in_dim %275, dims = [] : (tensor<f32>) -> tensor<2xf32>
Cost: 281

Operation name: stablehlo.divide
cache miss
1531341356
%277 = stablehlo.divide %270, %276 : tensor<2xf32>
Cost: 568

Operation name: stablehlo.multiply
cache miss
1284973678
%278 = stablehlo.multiply %275, %275 : tensor<f32>
Cost: 405

Operation name: stablehlo.divide
cache miss
719102371
%279 = stablehlo.divide %cst_7, %278 : tensor<f32>
Cost: 279

Operation name: stablehlo.slice
cache miss
3729170049
%280 = stablehlo.slice %256 [0:1, 0:48] : (tensor<1x288xf32>) -> tensor<1x48xf32>
Cost: 370

Operation name: stablehlo.slice
cache miss
3729170049
%281 = stablehlo.slice %257 [0:1, 0:48] : (tensor<1x288xf32>) -> tensor<1x48xf32>
Cost: 174

Operation name: stablehlo.concatenate
cache miss
895440948
%282 = stablehlo.concatenate %280, %281, dim = 0 : (tensor<1x48xf32>, tensor<1x48xf32>) -> tensor<2x48xf32>
Cost: 282

Operation name: stablehlo.dot_general
cache miss
2902940993
%283 = stablehlo.dot_general %282, %277, contracting_dims = [0] x [0], precision = [DEFAULT, DEFAULT] : (tensor<2x48xf32>, tensor<2xf32>) -> tensor<48xf32>
Cost: 291

Operation name: stablehlo.slice
cache miss
4032389970
%284 = stablehlo.slice %251 [48:96] : (tensor<288xf32>) -> tensor<48xf32>
Cost: 302

Operation name: stablehlo.slice
cache miss
3581210888
%285 = stablehlo.slice %253 [0:1, 48:96] : (tensor<1x288xf32>) -> tensor<1x48xf32>
Cost: 176

Operation name: stablehlo.slice
cache miss
3581210888
%286 = stablehlo.slice %254 [0:1, 48:96] : (tensor<1x288xf32>) -> tensor<1x48xf32>
Cost: 278

Operation name: stablehlo.concatenate
cache miss
895440948
%287 = stablehlo.concatenate %285, %286, dim = 0 : (tensor<1x48xf32>, tensor<1x48xf32>) -> tensor<2x48xf32>
Cost: 283

Operation name: stablehlo.dot_general
cache miss
1097263507
%288 = stablehlo.dot_general %287, %284, contracting_dims = [1] x [0], precision = [DEFAULT, DEFAULT] : (tensor<2x48xf32>, tensor<48xf32>) -> tensor<2xf32>
Cost: 274

Operation name: stablehlo.divide
cache miss
1531341356
%289 = stablehlo.divide %288, %cst_1 : tensor<2xf32>
Cost: 308

Operation name: stablehlo.maximum
cache miss
641216813
%2733 = stablehlo.maximum %arg14, %arg15 : tensor<f32>
Cost: 312

Operation name: stablehlo.return
Cost: 0

Operation name: stablehlo.reduce
cache miss
555889745
%290 = stablehlo.reduce(%289 init: %cst_3) applies stablehlo.maximum across dimensions = [0] : (tensor<2xf32>, tensor<f32>) -> tensor<f32>
Cost: 507

Operation name: stablehlo.broadcast_in_dim
cache miss
1703569158
%291 = stablehlo.broadcast_in_dim %290, dims = [] : (tensor<f32>) -> tensor<2xf32>
Cost: 522

Operation name: stablehlo.compare
Cost: 0

Operation name: stablehlo.convert
cache miss
1629337212
%293 = stablehlo.convert %292 : (tensor<2xi1>) -> tensor<2xf32>
Cost: 313

Operation name: stablehlo.add
cache miss
1937139428
%2733 = stablehlo.add %arg14, %arg15 : tensor<f32>
Cost: 275

Operation name: stablehlo.return
Cost: 0

Operation name: stablehlo.reduce
cache miss
555889745
%294 = stablehlo.reduce(%293 init: %cst_2) applies stablehlo.add across dimensions = [0] : (tensor<2xf32>, tensor<f32>) -> tensor<f32>
Cost: 293

Operation name: stablehlo.subtract
cache miss
3818527485
%295 = stablehlo.subtract %289, %291 : tensor<2xf32>
Cost: 270

Operation name: stablehlo.exponential
cache miss
3699945286
%296 = stablehlo.exponential %295 : tensor<2xf32>
Cost: 269

Operation name: stablehlo.slice
cache miss
2078395662
%297 = stablehlo.slice %296 [0:1] : (tensor<2xf32>) -> tensor<1xf32>
Cost: 380

Operation name: stablehlo.reshape
cache miss
1900484018
%298 = stablehlo.reshape %297 : (tensor<1xf32>) -> tensor<f32>
Cost: 384

Operation name: stablehlo.slice
cache miss
4032994822
%299 = stablehlo.slice %296 [1:2] : (tensor<2xf32>) -> tensor<1xf32>
Cost: 382

Operation name: stablehlo.reshape
cache miss
1900484018
%300 = stablehlo.reshape %299 : (tensor<1xf32>) -> tensor<f32>
Cost: 386

Operation name: stablehlo.add
cache miss
1937139428
%301 = stablehlo.add %298, %300 : tensor<f32>
Cost: 338

Operation name: stablehlo.broadcast_in_dim
cache miss
1703569158
%302 = stablehlo.broadcast_in_dim %301, dims = [] : (tensor<f32>) -> tensor<2xf32>
Cost: 296

Operation name: stablehlo.divide
cache miss
1531341356
%303 = stablehlo.divide %296, %302 : tensor<2xf32>
Cost: 298

Operation name: stablehlo.multiply
cache miss
1284973678
%304 = stablehlo.multiply %301, %301 : tensor<f32>
Cost: 174

Operation name: stablehlo.divide
cache miss
719102371
%305 = stablehlo.divide %cst_7, %304 : tensor<f32>
Cost: 543

Operation name: stablehlo.slice
cache miss
3581210888
%306 = stablehlo.slice %256 [0:1, 48:96] : (tensor<1x288xf32>) -> tensor<1x48xf32>
Cost: 366

Operation name: stablehlo.slice
cache miss
3581210888
%307 = stablehlo.slice %257 [0:1, 48:96] : (tensor<1x288xf32>) -> tensor<1x48xf32>
Cost: 307

Operation name: stablehlo.concatenate
cache miss
895440948
%308 = stablehlo.concatenate %306, %307, dim = 0 : (tensor<1x48xf32>, tensor<1x48xf32>) -> tensor<2x48xf32>
Cost: 396

Operation name: stablehlo.dot_general
cache miss
2902940993
%309 = stablehlo.dot_general %308, %303, contracting_dims = [0] x [0], precision = [DEFAULT, DEFAULT] : (tensor<2x48xf32>, tensor<2xf32>) -> tensor<48xf32>
Cost: 267

Operation name: stablehlo.slice
cache miss
1375222232
%310 = stablehlo.slice %251 [96:144] : (tensor<288xf32>) -> tensor<48xf32>
Cost: 395

Operation name: stablehlo.slice
cache miss
1957506058
%311 = stablehlo.slice %253 [0:1, 96:144] : (tensor<1x288xf32>) -> tensor<1x48xf32>
Cost: 368

Operation name: stablehlo.slice
cache miss
1957506058
%312 = stablehlo.slice %254 [0:1, 96:144] : (tensor<1x288xf32>) -> tensor<1x48xf32>
Cost: 280

Operation name: stablehlo.concatenate
cache miss
895440948
%313 = stablehlo.concatenate %311, %312, dim = 0 : (tensor<1x48xf32>, tensor<1x48xf32>) -> tensor<2x48xf32>
Cost: 309

Operation name: stablehlo.dot_general
cache miss
1097263507
%314 = stablehlo.dot_general %313, %310, contracting_dims = [1] x [0], precision = [DEFAULT, DEFAULT] : (tensor<2x48xf32>, tensor<48xf32>) -> tensor<2xf32>
Cost: 176

Operation name: stablehlo.divide
cache miss
1531341356
%315 = stablehlo.divide %314, %cst_1 : tensor<2xf32>
Cost: 177

Operation name: stablehlo.maximum
cache miss
641216813
%2733 = stablehlo.maximum %arg14, %arg15 : tensor<f32>
Cost: 309

Operation name: stablehlo.return
Cost: 0

Operation name: stablehlo.reduce
cache miss
555889745
%316 = stablehlo.reduce(%315 init: %cst_3) applies stablehlo.maximum across dimensions = [0] : (tensor<2xf32>, tensor<f32>) -> tensor<f32>
Cost: 303

Operation name: stablehlo.broadcast_in_dim
cache miss
1703569158
%317 = stablehlo.broadcast_in_dim %316, dims = [] : (tensor<f32>) -> tensor<2xf32>
Cost: 273

Operation name: stablehlo.compare
Cost: 0

Operation name: stablehlo.convert
cache miss
1629337212
%319 = stablehlo.convert %318 : (tensor<2xi1>) -> tensor<2xf32>
Cost: 390

Operation name: stablehlo.add
cache miss
1937139428
%2733 = stablehlo.add %arg14, %arg15 : tensor<f32>
Cost: 296

Operation name: stablehlo.return
Cost: 0

Operation name: stablehlo.reduce
cache miss
555889745
%320 = stablehlo.reduce(%319 init: %cst_2) applies stablehlo.add across dimensions = [0] : (tensor<2xf32>, tensor<f32>) -> tensor<f32>
Cost: 173

Operation name: stablehlo.subtract
cache miss
3818527485
%321 = stablehlo.subtract %315, %317 : tensor<2xf32>
Cost: 171

Operation name: stablehlo.exponential
cache miss
3699945286
%322 = stablehlo.exponential %321 : tensor<2xf32>
Cost: 184

Operation name: stablehlo.slice
cache miss
2078395662
%323 = stablehlo.slice %322 [0:1] : (tensor<2xf32>) -> tensor<1xf32>
Cost: 319

Operation name: stablehlo.reshape
cache miss
1900484018
%324 = stablehlo.reshape %323 : (tensor<1xf32>) -> tensor<f32>
Cost: 272

Operation name: stablehlo.slice
cache miss
4032994822
%325 = stablehlo.slice %322 [1:2] : (tensor<2xf32>) -> tensor<1xf32>
Cost: 445

Operation name: stablehlo.reshape
cache miss
1900484018
%326 = stablehlo.reshape %325 : (tensor<1xf32>) -> tensor<f32>
Cost: 407

Operation name: stablehlo.add
cache miss
1937139428
%327 = stablehlo.add %324, %326 : tensor<f32>
Cost: 371

Operation name: stablehlo.broadcast_in_dim
cache miss
1703569158
%328 = stablehlo.broadcast_in_dim %327, dims = [] : (tensor<f32>) -> tensor<2xf32>
Cost: 360

Operation name: stablehlo.divide
cache miss
1531341356
%329 = stablehlo.divide %322, %328 : tensor<2xf32>
Cost: 172

Operation name: stablehlo.multiply
cache miss
1284973678
%330 = stablehlo.multiply %327, %327 : tensor<f32>
Cost: 300

Operation name: stablehlo.divide
cache miss
719102371
%331 = stablehlo.divide %cst_7, %330 : tensor<f32>
Cost: 381

Operation name: stablehlo.slice
cache miss
1957506058
%332 = stablehlo.slice %256 [0:1, 96:144] : (tensor<1x288xf32>) -> tensor<1x48xf32>
Cost: 176

Operation name: stablehlo.slice
cache miss
1957506058
%333 = stablehlo.slice %257 [0:1, 96:144] : (tensor<1x288xf32>) -> tensor<1x48xf32>
Cost: 478

Operation name: stablehlo.concatenate
cache miss
895440948
%334 = stablehlo.concatenate %332, %333, dim = 0 : (tensor<1x48xf32>, tensor<1x48xf32>) -> tensor<2x48xf32>
Cost: 390

Operation name: stablehlo.dot_general
cache miss
2902940993
%335 = stablehlo.dot_general %334, %329, contracting_dims = [0] x [0], precision = [DEFAULT, DEFAULT] : (tensor<2x48xf32>, tensor<2xf32>) -> tensor<48xf32>
Cost: 355

Operation name: stablehlo.slice
cache miss
3469783879
%336 = stablehlo.slice %251 [144:192] : (tensor<288xf32>) -> tensor<48xf32>
Cost: 368

Operation name: stablehlo.slice
cache miss
3339692416
%337 = stablehlo.slice %253 [0:1, 144:192] : (tensor<1x288xf32>) -> tensor<1x48xf32>
Cost: 401

Operation name: stablehlo.slice
cache miss
3339692416
%338 = stablehlo.slice %254 [0:1, 144:192] : (tensor<1x288xf32>) -> tensor<1x48xf32>
Cost: 175

Operation name: stablehlo.concatenate
cache miss
895440948
%339 = stablehlo.concatenate %337, %338, dim = 0 : (tensor<1x48xf32>, tensor<1x48xf32>) -> tensor<2x48xf32>
Cost: 176

Operation name: stablehlo.dot_general
cache miss
1097263507
%340 = stablehlo.dot_general %339, %336, contracting_dims = [1] x [0], precision = [DEFAULT, DEFAULT] : (tensor<2x48xf32>, tensor<48xf32>) -> tensor<2xf32>
Cost: 496

Operation name: stablehlo.divide
cache miss
1531341356
%341 = stablehlo.divide %340, %cst_1 : tensor<2xf32>
Cost: 286

Operation name: stablehlo.maximum
cache miss
641216813
%2733 = stablehlo.maximum %arg14, %arg15 : tensor<f32>
Cost: 174

Operation name: stablehlo.return
Cost: 0

Operation name: stablehlo.reduce
cache miss
555889745
%342 = stablehlo.reduce(%341 init: %cst_3) applies stablehlo.maximum across dimensions = [0] : (tensor<2xf32>, tensor<f32>) -> tensor<f32>
Cost: 171

Operation name: stablehlo.broadcast_in_dim
cache miss
1703569158
%343 = stablehlo.broadcast_in_dim %342, dims = [] : (tensor<f32>) -> tensor<2xf32>
Cost: 270

Operation name: stablehlo.compare
Cost: 0

Operation name: stablehlo.convert
cache miss
1629337212
%345 = stablehlo.convert %344 : (tensor<2xi1>) -> tensor<2xf32>
Cost: 274

Operation name: stablehlo.add
cache miss
1937139428
%2733 = stablehlo.add %arg14, %arg15 : tensor<f32>
Cost: 276

Operation name: stablehlo.return
Cost: 0

Operation name: stablehlo.reduce
cache miss
555889745
%346 = stablehlo.reduce(%345 init: %cst_2) applies stablehlo.add across dimensions = [0] : (tensor<2xf32>, tensor<f32>) -> tensor<f32>
Cost: 402

Operation name: stablehlo.subtract
cache miss
3818527485
%347 = stablehlo.subtract %341, %343 : tensor<2xf32>
Cost: 295

Operation name: stablehlo.exponential
cache miss
3699945286
%348 = stablehlo.exponential %347 : tensor<2xf32>
Cost: 384

Operation name: stablehlo.slice
cache miss
2078395662
%349 = stablehlo.slice %348 [0:1] : (tensor<2xf32>) -> tensor<1xf32>
Cost: 272

Operation name: stablehlo.reshape
cache miss
1900484018
%350 = stablehlo.reshape %349 : (tensor<1xf32>) -> tensor<f32>
Cost: 385

Operation name: stablehlo.slice
cache miss
4032994822
%351 = stablehlo.slice %348 [1:2] : (tensor<2xf32>) -> tensor<1xf32>
Cost: 272

Operation name: stablehlo.reshape
cache miss
1900484018
%352 = stablehlo.reshape %351 : (tensor<1xf32>) -> tensor<f32>
Cost: 276

Operation name: stablehlo.add
cache miss
1937139428
%353 = stablehlo.add %350, %352 : tensor<f32>
Cost: 389

Operation name: stablehlo.broadcast_in_dim
cache miss
1703569158
%354 = stablehlo.broadcast_in_dim %353, dims = [] : (tensor<f32>) -> tensor<2xf32>
Cost: 170

Operation name: stablehlo.divide
cache miss
1531341356
%355 = stablehlo.divide %348, %354 : tensor<2xf32>
Cost: 454

Operation name: stablehlo.multiply
cache miss
1284973678
%356 = stablehlo.multiply %353, %353 : tensor<f32>
Cost: 176

Operation name: stablehlo.divide
cache miss
719102371
%357 = stablehlo.divide %cst_7, %356 : tensor<f32>
Cost: 364

Operation name: stablehlo.slice
cache miss
3339692416
%358 = stablehlo.slice %256 [0:1, 144:192] : (tensor<1x288xf32>) -> tensor<1x48xf32>
Cost: 306

Operation name: stablehlo.slice
cache miss
3339692416
%359 = stablehlo.slice %257 [0:1, 144:192] : (tensor<1x288xf32>) -> tensor<1x48xf32>
Cost: 305

Operation name: stablehlo.concatenate
cache miss
895440948
%360 = stablehlo.concatenate %358, %359, dim = 0 : (tensor<1x48xf32>, tensor<1x48xf32>) -> tensor<2x48xf32>
Cost: 529

Operation name: stablehlo.dot_general
cache miss
2902940993
%361 = stablehlo.dot_general %360, %355, contracting_dims = [0] x [0], precision = [DEFAULT, DEFAULT] : (tensor<2x48xf32>, tensor<2xf32>) -> tensor<48xf32>
Cost: 265

Operation name: stablehlo.slice
cache miss
1801550340
%362 = stablehlo.slice %251 [192:240] : (tensor<288xf32>) -> tensor<48xf32>
Cost: 174

Operation name: stablehlo.slice
cache miss
3411559083
%363 = stablehlo.slice %253 [0:1, 192:240] : (tensor<1x288xf32>) -> tensor<1x48xf32>
Cost: 366

Operation name: stablehlo.slice
cache miss
3411559083
%364 = stablehlo.slice %254 [0:1, 192:240] : (tensor<1x288xf32>) -> tensor<1x48xf32>
Cost: 172

Operation name: stablehlo.concatenate
cache miss
895440948
%365 = stablehlo.concatenate %363, %364, dim = 0 : (tensor<1x48xf32>, tensor<1x48xf32>) -> tensor<2x48xf32>
Cost: 280

Operation name: stablehlo.dot_general
cache miss
1097263507
%366 = stablehlo.dot_general %365, %362, contracting_dims = [1] x [0], precision = [DEFAULT, DEFAULT] : (tensor<2x48xf32>, tensor<48xf32>) -> tensor<2xf32>
Cost: 298

Operation name: stablehlo.divide
cache miss
1531341356
%367 = stablehlo.divide %366, %cst_1 : tensor<2xf32>
Cost: 393

Operation name: stablehlo.maximum
cache miss
641216813
%2733 = stablehlo.maximum %arg14, %arg15 : tensor<f32>
Cost: 566

Operation name: stablehlo.return
Cost: 0

Operation name: stablehlo.reduce
cache miss
555889745
%368 = stablehlo.reduce(%367 init: %cst_3) applies stablehlo.maximum across dimensions = [0] : (tensor<2xf32>, tensor<f32>) -> tensor<f32>
Cost: 360

Operation name: stablehlo.broadcast_in_dim
cache miss
1703569158
%369 = stablehlo.broadcast_in_dim %368, dims = [] : (tensor<f32>) -> tensor<2xf32>
Cost: 271

Operation name: stablehlo.compare
Cost: 0

Operation name: stablehlo.convert
cache miss
1629337212
%371 = stablehlo.convert %370 : (tensor<2xi1>) -> tensor<2xf32>
Cost: 361

Operation name: stablehlo.add
cache miss
1937139428
%2733 = stablehlo.add %arg14, %arg15 : tensor<f32>
Cost: 362

Operation name: stablehlo.return
Cost: 0

Operation name: stablehlo.reduce
cache miss
555889745
%372 = stablehlo.reduce(%371 init: %cst_2) applies stablehlo.add across dimensions = [0] : (tensor<2xf32>, tensor<f32>) -> tensor<f32>
Cost: 275

Operation name: stablehlo.subtract
cache miss
3818527485
%373 = stablehlo.subtract %367, %369 : tensor<2xf32>
Cost: 540

Operation name: stablehlo.exponential
cache miss
3699945286
%374 = stablehlo.exponential %373 : tensor<2xf32>
Cost: 284

Operation name: stablehlo.slice
cache miss
2078395662
%375 = stablehlo.slice %374 [0:1] : (tensor<2xf32>) -> tensor<1xf32>
Cost: 373

Operation name: stablehlo.reshape
cache miss
1900484018
%376 = stablehlo.reshape %375 : (tensor<1xf32>) -> tensor<f32>
Cost: 369

Operation name: stablehlo.slice
cache miss
4032994822
%377 = stablehlo.slice %374 [1:2] : (tensor<2xf32>) -> tensor<1xf32>
Cost: 361

Operation name: stablehlo.reshape
cache miss
1900484018
%378 = stablehlo.reshape %377 : (tensor<1xf32>) -> tensor<f32>
Cost: 270

Operation name: stablehlo.add
cache miss
1937139428
%379 = stablehlo.add %376, %378 : tensor<f32>
Cost: 293

Operation name: stablehlo.broadcast_in_dim
cache miss
1703569158
%380 = stablehlo.broadcast_in_dim %379, dims = [] : (tensor<f32>) -> tensor<2xf32>
Cost: 277

Operation name: stablehlo.divide
cache miss
1531341356
%381 = stablehlo.divide %374, %380 : tensor<2xf32>
Cost: 388

Operation name: stablehlo.multiply
cache miss
1284973678
%382 = stablehlo.multiply %379, %379 : tensor<f32>
Cost: 364

Operation name: stablehlo.divide
cache miss
719102371
%383 = stablehlo.divide %cst_7, %382 : tensor<f32>
Cost: 388

Operation name: stablehlo.slice
cache miss
3411559083
%384 = stablehlo.slice %256 [0:1, 192:240] : (tensor<1x288xf32>) -> tensor<1x48xf32>
Cost: 479

Operation name: stablehlo.slice
cache miss
3411559083
%385 = stablehlo.slice %257 [0:1, 192:240] : (tensor<1x288xf32>) -> tensor<1x48xf32>
Cost: 277

Operation name: stablehlo.concatenate
cache miss
895440948
%386 = stablehlo.concatenate %384, %385, dim = 0 : (tensor<1x48xf32>, tensor<1x48xf32>) -> tensor<2x48xf32>
Cost: 494

Operation name: stablehlo.dot_general
cache miss
2902940993
%387 = stablehlo.dot_general %386, %381, contracting_dims = [0] x [0], precision = [DEFAULT, DEFAULT] : (tensor<2x48xf32>, tensor<2xf32>) -> tensor<48xf32>
Cost: 167

Operation name: stablehlo.slice
cache miss
2798019243
%388 = stablehlo.slice %251 [240:288] : (tensor<288xf32>) -> tensor<48xf32>
Cost: 178

Operation name: stablehlo.slice
cache miss
1619767244
%389 = stablehlo.slice %253 [0:1, 240:288] : (tensor<1x288xf32>) -> tensor<1x48xf32>
Cost: 369

Operation name: stablehlo.slice
cache miss
1619767244
%390 = stablehlo.slice %254 [0:1, 240:288] : (tensor<1x288xf32>) -> tensor<1x48xf32>
Cost: 298

Operation name: stablehlo.concatenate
cache miss
895440948
%391 = stablehlo.concatenate %389, %390, dim = 0 : (tensor<1x48xf32>, tensor<1x48xf32>) -> tensor<2x48xf32>
Cost: 375

Operation name: stablehlo.dot_general
cache miss
1097263507
%392 = stablehlo.dot_general %391, %388, contracting_dims = [1] x [0], precision = [DEFAULT, DEFAULT] : (tensor<2x48xf32>, tensor<48xf32>) -> tensor<2xf32>
Cost: 302

Operation name: stablehlo.divide
cache miss
1531341356
%393 = stablehlo.divide %392, %cst_1 : tensor<2xf32>
Cost: 276

Operation name: stablehlo.maximum
cache miss
641216813
%2733 = stablehlo.maximum %arg14, %arg15 : tensor<f32>
Cost: 176

Operation name: stablehlo.return
Cost: 0

Operation name: stablehlo.reduce
cache miss
555889745
%394 = stablehlo.reduce(%393 init: %cst_3) applies stablehlo.maximum across dimensions = [0] : (tensor<2xf32>, tensor<f32>) -> tensor<f32>
Cost: 172

Operation name: stablehlo.broadcast_in_dim
cache miss
1703569158
%395 = stablehlo.broadcast_in_dim %394, dims = [] : (tensor<f32>) -> tensor<2xf32>
Cost: 172

Operation name: stablehlo.compare
Cost: 0

Operation name: stablehlo.convert
cache miss
1629337212
%397 = stablehlo.convert %396 : (tensor<2xi1>) -> tensor<2xf32>
Cost: 478

Operation name: stablehlo.add
cache miss
1937139428
%2733 = stablehlo.add %arg14, %arg15 : tensor<f32>
Cost: 170

Operation name: stablehlo.return
Cost: 0

Operation name: stablehlo.reduce
cache miss
555889745
%398 = stablehlo.reduce(%397 init: %cst_2) applies stablehlo.add across dimensions = [0] : (tensor<2xf32>, tensor<f32>) -> tensor<f32>
Cost: 172

Operation name: stablehlo.subtract
cache miss
3818527485
%399 = stablehlo.subtract %393, %395 : tensor<2xf32>
Cost: 171

Operation name: stablehlo.exponential
cache miss
3699945286
%400 = stablehlo.exponential %399 : tensor<2xf32>
Cost: 171

Operation name: stablehlo.slice
cache miss
2078395662
%401 = stablehlo.slice %400 [0:1] : (tensor<2xf32>) -> tensor<1xf32>
Cost: 175

Operation name: stablehlo.reshape
cache miss
1900484018
%402 = stablehlo.reshape %401 : (tensor<1xf32>) -> tensor<f32>
Cost: 275

Operation name: stablehlo.slice
cache miss
4032994822
%403 = stablehlo.slice %400 [1:2] : (tensor<2xf32>) -> tensor<1xf32>
Cost: 172

Operation name: stablehlo.reshape
cache miss
1900484018
%404 = stablehlo.reshape %403 : (tensor<1xf32>) -> tensor<f32>
Cost: 442

Operation name: stablehlo.add
cache miss
1937139428
%405 = stablehlo.add %402, %404 : tensor<f32>
Cost: 183

Operation name: stablehlo.broadcast_in_dim
cache miss
1703569158
%406 = stablehlo.broadcast_in_dim %405, dims = [] : (tensor<f32>) -> tensor<2xf32>
Cost: 417

Operation name: stablehlo.divide
cache miss
1531341356
%407 = stablehlo.divide %400, %406 : tensor<2xf32>
Cost: 364

Operation name: stablehlo.multiply
cache miss
1284973678
%408 = stablehlo.multiply %405, %405 : tensor<f32>
Cost: 213

Operation name: stablehlo.divide
cache miss
719102371
%409 = stablehlo.divide %cst_7, %408 : tensor<f32>
Cost: 409

Operation name: stablehlo.slice
cache miss
1619767244
%410 = stablehlo.slice %256 [0:1, 240:288] : (tensor<1x288xf32>) -> tensor<1x48xf32>
Cost: 283

Operation name: stablehlo.slice
cache miss
1619767244
%411 = stablehlo.slice %257 [0:1, 240:288] : (tensor<1x288xf32>) -> tensor<1x48xf32>
Cost: 276

Operation name: stablehlo.concatenate
cache miss
895440948
%412 = stablehlo.concatenate %410, %411, dim = 0 : (tensor<1x48xf32>, tensor<1x48xf32>) -> tensor<2x48xf32>
Cost: 325

Operation name: stablehlo.dot_general
cache miss
2902940993
%413 = stablehlo.dot_general %412, %407, contracting_dims = [0] x [0], precision = [DEFAULT, DEFAULT] : (tensor<2x48xf32>, tensor<2xf32>) -> tensor<48xf32>
Cost: 294

Operation name: stablehlo.concatenate
cache miss
292037604
%414 = stablehlo.concatenate %283, %309, %335, %361, %387, %413, dim = 0 : (tensor<48xf32>, tensor<48xf32>, tensor<48xf32>, tensor<48xf32>, tensor<48xf32>, tensor<48xf32>) -> tensor<288xf32>
Cost: 265

Operation name: stablehlo.slice
cache miss
3584813111
%415 = stablehlo.slice %arg8 [1:2, 0:288, 0:288] : (tensor<6x288x288xf32>) -> tensor<1x288x288xf32>
Cost: 65659

Operation name: stablehlo.reshape
cache miss
3219454195
%416 = stablehlo.reshape %415 : (tensor<1x288x288xf32>) -> tensor<288x288xf32>
Cost: 50882

Operation name: stablehlo.dot_general
cache miss
1061109412
%417 = stablehlo.dot_general %416, %414, contracting_dims = [1] x [0], precision = [DEFAULT, DEFAULT] : (tensor<288x288xf32>, tensor<288xf32>) -> tensor<288xf32>
Cost: 482

Operation name: stablehlo.add
cache miss
3847999983
%418 = stablehlo.add %224, %417 : tensor<288xf32>
Cost: 265

Operation name: stablehlo.slice
cache miss
2525166936
%419 = stablehlo.slice %arg2 [1:2, 0:288] : (tensor<6x288xf32>) -> tensor<1x288xf32>
Cost: 262

Operation name: stablehlo.reshape
cache miss
1377738304
%420 = stablehlo.reshape %419 : (tensor<1x288xf32>) -> tensor<288xf32>
Cost: 255

Operation name: stablehlo.dot_general
cache miss
2778462547
%421 = stablehlo.dot_general %418, %418, contracting_dims = [0] x [0], precision = [DEFAULT, DEFAULT] : (tensor<288xf32>, tensor<288xf32>) -> tensor<f32>
Cost: 174

Operation name: stablehlo.divide
cache miss
719102371
%422 = stablehlo.divide %421, %cst_5 : tensor<f32>
Cost: 282

Operation name: stablehlo.add
cache miss
1937139428
%423 = stablehlo.add %422, %cst_4 : tensor<f32>
Cost: 427

Operation name: stablehlo.sqrt
cache miss
1884932271
%424 = stablehlo.sqrt %423 : tensor<f32>
Cost: 330

Operation name: stablehlo.divide
cache miss
719102371
%425 = stablehlo.divide %cst_6, %424 : tensor<f32>
Cost: 193

Operation name: stablehlo.divide
cache miss
719102371
%426 = stablehlo.divide %cst_7, %424 : tensor<f32>
Cost: 180

Operation name: stablehlo.multiply
cache miss
1284973678
%427 = stablehlo.multiply %424, %424 : tensor<f32>
Cost: 364

Operation name: stablehlo.divide
cache miss
719102371
%428 = stablehlo.divide %cst_7, %427 : tensor<f32>
Cost: 272

Operation name: stablehlo.multiply
cache miss
2511610444
%429 = stablehlo.multiply %420, %418 : tensor<288xf32>
Cost: 513

Operation name: stablehlo.broadcast_in_dim
cache miss
2616490109
%430 = stablehlo.broadcast_in_dim %426, dims = [] : (tensor<f32>) -> tensor<288xf32>
Cost: 392

Operation name: stablehlo.multiply
cache miss
2511610444
%431 = stablehlo.multiply %429, %430 : tensor<288xf32>
Cost: 389

Operation name: stablehlo.slice
cache miss
832959024
%432 = stablehlo.slice %arg4 [1:2, 0:768, 0:288] : (tensor<6x768x288xf32>) -> tensor<1x768x288xf32>
Cost: 81070

Operation name: stablehlo.reshape
cache miss
3265769957
%433 = stablehlo.reshape %432 : (tensor<1x768x288xf32>) -> tensor<768x288xf32>
Cost: 99285

Operation name: stablehlo.dot_general
cache miss
2529236298
%434 = stablehlo.dot_general %433, %431, contracting_dims = [1] x [0], precision = [DEFAULT, DEFAULT] : (tensor<768x288xf32>, tensor<288xf32>) -> tensor<768xf32>
Cost: 6091

Operation name: stablehlo.slice
cache miss
832959024
%435 = stablehlo.slice %arg6 [1:2, 0:768, 0:288] : (tensor<6x768x288xf32>) -> tensor<1x768x288xf32>
Cost: 108426

Operation name: stablehlo.reshape
cache miss
3265769957
%436 = stablehlo.reshape %435 : (tensor<1x768x288xf32>) -> tensor<768x288xf32>
Cost: 52301

Operation name: stablehlo.dot_general
cache miss
2529236298
%437 = stablehlo.dot_general %436, %431, contracting_dims = [1] x [0], precision = [DEFAULT, DEFAULT] : (tensor<768x288xf32>, tensor<288xf32>) -> tensor<768xf32>
Cost: 2857

Operation name: stablehlo.negate
cache miss
4256221255
%438 = stablehlo.negate %434 : tensor<768xf32>
Cost: 281

Operation name: stablehlo.exponential
cache miss
6921514
%439 = stablehlo.exponential %438 : tensor<768xf32>
Cost: 446

Operation name: stablehlo.add
cache miss
389450582
%440 = stablehlo.add %cst_0, %439 : tensor<768xf32>
Cost: 574

Operation name: stablehlo.divide
cache miss
2134516102
%441 = stablehlo.divide %cst_0, %440 : tensor<768xf32>
Cost: 452

Operation name: stablehlo.multiply
cache miss
4137946040
%442 = stablehlo.multiply %440, %440 : tensor<768xf32>
Cost: 439

Operation name: stablehlo.divide
cache miss
2134516102
%443 = stablehlo.divide %cst_0, %442 : tensor<768xf32>
Cost: 557

Operation name: stablehlo.multiply
cache miss
4137946040
%444 = stablehlo.multiply %434, %441 : tensor<768xf32>
Cost: 483

Operation name: stablehlo.multiply
cache miss
4137946040
%445 = stablehlo.multiply %444, %437 : tensor<768xf32>
Cost: 445

Operation name: stablehlo.slice
cache miss
1541160384
%446 = stablehlo.slice %arg5 [1:2, 0:288, 0:768] : (tensor<6x288x768xf32>) -> tensor<1x288x768xf32>
Cost: 101763

Operation name: stablehlo.reshape
cache miss
2162077039
%447 = stablehlo.reshape %446 : (tensor<1x288x768xf32>) -> tensor<288x768xf32>
Cost: 89035

Operation name: stablehlo.dot_general
cache miss
1061109412
%448 = stablehlo.dot_general %447, %445, contracting_dims = [1] x [0], precision = [DEFAULT, DEFAULT] : (tensor<288x768xf32>, tensor<768xf32>) -> tensor<288xf32>
Cost: 4094

Operation name: stablehlo.add
cache miss
3847999983
%449 = stablehlo.add %418, %448 : tensor<288xf32>
Cost: 529

Operation name: stablehlo.slice
cache miss
3733494965
%450 = stablehlo.slice %arg1 [2:3, 0:288] : (tensor<6x288xf32>) -> tensor<1x288xf32>
Cost: 531

Operation name: stablehlo.reshape
cache miss
1377738304
%451 = stablehlo.reshape %450 : (tensor<1x288xf32>) -> tensor<288xf32>
Cost: 534

Operation name: stablehlo.dot_general
cache miss
2778462547
%452 = stablehlo.dot_general %449, %449, contracting_dims = [0] x [0], precision = [DEFAULT, DEFAULT] : (tensor<288xf32>, tensor<288xf32>) -> tensor<f32>
Cost: 277

Operation name: stablehlo.divide
cache miss
719102371
%453 = stablehlo.divide %452, %cst_5 : tensor<f32>
Cost: 179

Operation name: stablehlo.add
cache miss
1937139428
%454 = stablehlo.add %453, %cst_4 : tensor<f32>
Cost: 177

Operation name: stablehlo.sqrt
cache miss
1884932271
%455 = stablehlo.sqrt %454 : tensor<f32>
Cost: 414

Operation name: stablehlo.divide
cache miss
719102371
%456 = stablehlo.divide %cst_6, %455 : tensor<f32>
Cost: 281

Operation name: stablehlo.divide
cache miss
719102371
%457 = stablehlo.divide %cst_7, %455 : tensor<f32>
Cost: 281

Operation name: stablehlo.multiply
cache miss
1284973678
%458 = stablehlo.multiply %455, %455 : tensor<f32>
Cost: 350

Operation name: stablehlo.divide
cache miss
719102371
%459 = stablehlo.divide %cst_7, %458 : tensor<f32>
Cost: 285

Operation name: stablehlo.multiply
cache miss
2511610444
%460 = stablehlo.multiply %451, %449 : tensor<288xf32>
Cost: 670

Operation name: stablehlo.broadcast_in_dim
cache miss
2616490109
%461 = stablehlo.broadcast_in_dim %457, dims = [] : (tensor<f32>) -> tensor<288xf32>
Cost: 558

Operation name: stablehlo.multiply
cache miss
2511610444
%462 = stablehlo.multiply %460, %461 : tensor<288xf32>
Cost: 683

Operation name: stablehlo.slice
cache miss
2872633878
%463 = stablehlo.slice %arg9 [2:3, 0:288, 0:288] : (tensor<6x288x288xf32>) -> tensor<1x288x288xf32>
Cost: 47706

Operation name: stablehlo.reshape
cache miss
3219454195
%464 = stablehlo.reshape %463 : (tensor<1x288x288xf32>) -> tensor<288x288xf32>
Cost: 51436

Operation name: stablehlo.dot_general
cache miss
1061109412
%465 = stablehlo.dot_general %464, %462, contracting_dims = [1] x [0], precision = [DEFAULT, DEFAULT] : (tensor<288x288xf32>, tensor<288xf32>) -> tensor<288xf32>
Cost: 364

Operation name: stablehlo.slice
cache miss
2872633878
%466 = stablehlo.slice %arg7 [2:3, 0:288, 0:288] : (tensor<6x288x288xf32>) -> tensor<1x288x288xf32>
Cost: 51853

Operation name: stablehlo.reshape
cache miss
3219454195
%467 = stablehlo.reshape %466 : (tensor<1x288x288xf32>) -> tensor<288x288xf32>
Cost: 41848

Operation name: stablehlo.dot_general
cache miss
1061109412
%468 = stablehlo.dot_general %467, %462, contracting_dims = [1] x [0], precision = [DEFAULT, DEFAULT] : (tensor<288x288xf32>, tensor<288xf32>) -> tensor<288xf32>
Cost: 455

Operation name: stablehlo.slice
cache miss
2872633878
%469 = stablehlo.slice %arg10 [2:3, 0:288, 0:288] : (tensor<6x288x288xf32>) -> tensor<1x288x288xf32>
Cost: 38734

Operation name: stablehlo.reshape
cache miss
3219454195
%470 = stablehlo.reshape %469 : (tensor<1x288x288xf32>) -> tensor<288x288xf32>
Cost: 43912

Operation name: stablehlo.dot_general
cache miss
1061109412
%471 = stablehlo.dot_general %470, %462, contracting_dims = [1] x [0], precision = [DEFAULT, DEFAULT] : (tensor<288x288xf32>, tensor<288xf32>) -> tensor<288xf32>
Cost: 451

Operation name: stablehlo.reshape
cache miss
2392077026
%472 = stablehlo.reshape %465 : (tensor<288xf32>) -> tensor<144x2xf32>
Cost: 548

Operation name: stablehlo.reshape
cache miss
2392077026
%473 = stablehlo.reshape %468 : (tensor<288xf32>) -> tensor<144x2xf32>
Cost: 535

Operation name: stablehlo.dot_general
cache miss
865228849
%474 = stablehlo.dot_general %cst_8, %473, batching_dims = [0] x [0], contracting_dims = [2] x [1], precision = [DEFAULT, DEFAULT] : (tensor<144x2x2xf32>, tensor<144x2xf32>) -> tensor<144x2xf32>
Cost: 712

Operation name: stablehlo.dot_general
cache miss
865228849
%475 = stablehlo.dot_general %cst_8, %472, batching_dims = [0] x [0], contracting_dims = [2] x [1], precision = [DEFAULT, DEFAULT] : (tensor<144x2x2xf32>, tensor<144x2xf32>) -> tensor<144x2xf32>
Cost: 413

Operation name: stablehlo.reshape
cache miss
1377738304
%476 = stablehlo.reshape %475 : (tensor<144x2xf32>) -> tensor<288xf32>
Cost: 488

Operation name: stablehlo.slice
cache miss
4053320730
%477 = stablehlo.slice %arg11 [2:3, 0:1, 0:288] : (tensor<6x1x288xf32>) -> tensor<1x1x288xf32>
Cost: 553

Operation name: stablehlo.reshape
cache miss
2960881163
%478 = stablehlo.reshape %477 : (tensor<1x1x288xf32>) -> tensor<1x288xf32>
Cost: 532

Operation name: stablehlo.reshape
cache miss
2960881163
%479 = stablehlo.reshape %474 : (tensor<144x2xf32>) -> tensor<1x288xf32>
Cost: 514

Operation name: stablehlo.slice
cache miss
4053320730
%480 = stablehlo.slice %arg12 [2:3, 0:1, 0:288] : (tensor<6x1x288xf32>) -> tensor<1x1x288xf32>
Cost: 434

Operation name: stablehlo.reshape
cache miss
2960881163
%481 = stablehlo.reshape %480 : (tensor<1x1x288xf32>) -> tensor<1x288xf32>
Cost: 681

Operation name: stablehlo.reshape
cache miss
2960881163
%482 = stablehlo.reshape %471 : (tensor<288xf32>) -> tensor<1x288xf32>
Cost: 391

Operation name: stablehlo.slice
cache miss
2839717066
%483 = stablehlo.slice %476 [0:48] : (tensor<288xf32>) -> tensor<48xf32>
Cost: 622

Operation name: stablehlo.slice
cache miss
3729170049
%484 = stablehlo.slice %478 [0:1, 0:48] : (tensor<1x288xf32>) -> tensor<1x48xf32>
Cost: 363

Operation name: stablehlo.slice
cache miss
3729170049
%485 = stablehlo.slice %479 [0:1, 0:48] : (tensor<1x288xf32>) -> tensor<1x48xf32>
Cost: 373

Operation name: stablehlo.concatenate
cache miss
895440948
%486 = stablehlo.concatenate %484, %485, dim = 0 : (tensor<1x48xf32>, tensor<1x48xf32>) -> tensor<2x48xf32>
Cost: 277

Operation name: stablehlo.dot_general
cache miss
1097263507
%487 = stablehlo.dot_general %486, %483, contracting_dims = [1] x [0], precision = [DEFAULT, DEFAULT] : (tensor<2x48xf32>, tensor<48xf32>) -> tensor<2xf32>
Cost: 185

Operation name: stablehlo.divide
cache miss
1531341356
%488 = stablehlo.divide %487, %cst_1 : tensor<2xf32>
Cost: 291

Operation name: stablehlo.maximum
cache miss
641216813
%2733 = stablehlo.maximum %arg14, %arg15 : tensor<f32>
Cost: 295

Operation name: stablehlo.return
Cost: 0

Operation name: stablehlo.reduce
cache miss
555889745
%489 = stablehlo.reduce(%488 init: %cst_3) applies stablehlo.maximum across dimensions = [0] : (tensor<2xf32>, tensor<f32>) -> tensor<f32>
Cost: 413

Operation name: stablehlo.broadcast_in_dim
cache miss
1703569158
%490 = stablehlo.broadcast_in_dim %489, dims = [] : (tensor<f32>) -> tensor<2xf32>
Cost: 293

Operation name: stablehlo.compare
Cost: 0

Operation name: stablehlo.convert
cache miss
1629337212
%492 = stablehlo.convert %491 : (tensor<2xi1>) -> tensor<2xf32>
Cost: 314

Operation name: stablehlo.add
cache miss
1937139428
%2733 = stablehlo.add %arg14, %arg15 : tensor<f32>
Cost: 390

Operation name: stablehlo.return
Cost: 0

Operation name: stablehlo.reduce
cache miss
555889745
%493 = stablehlo.reduce(%492 init: %cst_2) applies stablehlo.add across dimensions = [0] : (tensor<2xf32>, tensor<f32>) -> tensor<f32>
Cost: 292

Operation name: stablehlo.subtract
cache miss
3818527485
%494 = stablehlo.subtract %488, %490 : tensor<2xf32>
Cost: 296

Operation name: stablehlo.exponential
cache miss
3699945286
%495 = stablehlo.exponential %494 : tensor<2xf32>
Cost: 286

Operation name: stablehlo.slice
cache miss
2078395662
%496 = stablehlo.slice %495 [0:1] : (tensor<2xf32>) -> tensor<1xf32>
Cost: 183

Operation name: stablehlo.reshape
cache miss
1900484018
%497 = stablehlo.reshape %496 : (tensor<1xf32>) -> tensor<f32>
Cost: 285

Operation name: stablehlo.slice
cache miss
4032994822
%498 = stablehlo.slice %495 [1:2] : (tensor<2xf32>) -> tensor<1xf32>
Cost: 298

Operation name: stablehlo.reshape
cache miss
1900484018
%499 = stablehlo.reshape %498 : (tensor<1xf32>) -> tensor<f32>
Cost: 400

Operation name: stablehlo.add
cache miss
1937139428
%500 = stablehlo.add %497, %499 : tensor<f32>
Cost: 312

Operation name: stablehlo.broadcast_in_dim
cache miss
1703569158
%501 = stablehlo.broadcast_in_dim %500, dims = [] : (tensor<f32>) -> tensor<2xf32>
Cost: 376

Operation name: stablehlo.divide
cache miss
1531341356
%502 = stablehlo.divide %495, %501 : tensor<2xf32>
Cost: 377

Operation name: stablehlo.multiply
cache miss
1284973678
%503 = stablehlo.multiply %500, %500 : tensor<f32>
Cost: 285

Operation name: stablehlo.divide
cache miss
719102371
%504 = stablehlo.divide %cst_7, %503 : tensor<f32>
Cost: 476

Operation name: stablehlo.slice
cache miss
3729170049
%505 = stablehlo.slice %481 [0:1, 0:48] : (tensor<1x288xf32>) -> tensor<1x48xf32>
Cost: 279

Operation name: stablehlo.slice
cache miss
3729170049
%506 = stablehlo.slice %482 [0:1, 0:48] : (tensor<1x288xf32>) -> tensor<1x48xf32>
Cost: 274

Operation name: stablehlo.concatenate
cache miss
895440948
%507 = stablehlo.concatenate %505, %506, dim = 0 : (tensor<1x48xf32>, tensor<1x48xf32>) -> tensor<2x48xf32>
Cost: 370

Operation name: stablehlo.dot_general
cache miss
2902940993
%508 = stablehlo.dot_general %507, %502, contracting_dims = [0] x [0], precision = [DEFAULT, DEFAULT] : (tensor<2x48xf32>, tensor<2xf32>) -> tensor<48xf32>
Cost: 360

Operation name: stablehlo.slice
cache miss
4032389970
%509 = stablehlo.slice %476 [48:96] : (tensor<288xf32>) -> tensor<48xf32>
Cost: 281

Operation name: stablehlo.slice
cache miss
3581210888
%510 = stablehlo.slice %478 [0:1, 48:96] : (tensor<1x288xf32>) -> tensor<1x48xf32>
Cost: 210

Operation name: stablehlo.slice
cache miss
3581210888
%511 = stablehlo.slice %479 [0:1, 48:96] : (tensor<1x288xf32>) -> tensor<1x48xf32>
Cost: 172

Operation name: stablehlo.concatenate
cache miss
895440948
%512 = stablehlo.concatenate %510, %511, dim = 0 : (tensor<1x48xf32>, tensor<1x48xf32>) -> tensor<2x48xf32>
Cost: 177

Operation name: stablehlo.dot_general
cache miss
1097263507
%513 = stablehlo.dot_general %512, %509, contracting_dims = [1] x [0], precision = [DEFAULT, DEFAULT] : (tensor<2x48xf32>, tensor<48xf32>) -> tensor<2xf32>
Cost: 175

Operation name: stablehlo.divide
cache miss
1531341356
%514 = stablehlo.divide %513, %cst_1 : tensor<2xf32>
Cost: 405

Operation name: stablehlo.maximum
cache miss
641216813
%2733 = stablehlo.maximum %arg14, %arg15 : tensor<f32>
Cost: 286

Operation name: stablehlo.return
Cost: 0

Operation name: stablehlo.reduce
cache miss
555889745
%515 = stablehlo.reduce(%514 init: %cst_3) applies stablehlo.maximum across dimensions = [0] : (tensor<2xf32>, tensor<f32>) -> tensor<f32>
Cost: 374

Operation name: stablehlo.broadcast_in_dim
cache miss
1703569158
%516 = stablehlo.broadcast_in_dim %515, dims = [] : (tensor<f32>) -> tensor<2xf32>
Cost: 282

Operation name: stablehlo.compare
Cost: 0

Operation name: stablehlo.convert
cache miss
1629337212
%518 = stablehlo.convert %517 : (tensor<2xi1>) -> tensor<2xf32>
Cost: 526

Operation name: stablehlo.add
cache miss
1937139428
%2733 = stablehlo.add %arg14, %arg15 : tensor<f32>
Cost: 272

Operation name: stablehlo.return
Cost: 0

Operation name: stablehlo.reduce
cache miss
555889745
%519 = stablehlo.reduce(%518 init: %cst_2) applies stablehlo.add across dimensions = [0] : (tensor<2xf32>, tensor<f32>) -> tensor<f32>
Cost: 173

Operation name: stablehlo.subtract
cache miss
3818527485
%520 = stablehlo.subtract %514, %516 : tensor<2xf32>
Cost: 171

Operation name: stablehlo.exponential
cache miss
3699945286
%521 = stablehlo.exponential %520 : tensor<2xf32>
Cost: 373

Operation name: stablehlo.slice
cache miss
2078395662
%522 = stablehlo.slice %521 [0:1] : (tensor<2xf32>) -> tensor<1xf32>
Cost: 365

Operation name: stablehlo.reshape
cache miss
1900484018
%523 = stablehlo.reshape %522 : (tensor<1xf32>) -> tensor<f32>
Cost: 365

Operation name: stablehlo.slice
cache miss
4032994822
%524 = stablehlo.slice %521 [1:2] : (tensor<2xf32>) -> tensor<1xf32>
Cost: 360

Operation name: stablehlo.reshape
cache miss
1900484018
%525 = stablehlo.reshape %524 : (tensor<1xf32>) -> tensor<f32>
Cost: 480

Operation name: stablehlo.add
cache miss
1937139428
%526 = stablehlo.add %523, %525 : tensor<f32>
Cost: 186

Operation name: stablehlo.broadcast_in_dim
cache miss
1703569158
%527 = stablehlo.broadcast_in_dim %526, dims = [] : (tensor<f32>) -> tensor<2xf32>
Cost: 171

Operation name: stablehlo.divide
cache miss
1531341356
%528 = stablehlo.divide %521, %527 : tensor<2xf32>
Cost: 272

Operation name: stablehlo.multiply
cache miss
1284973678
%529 = stablehlo.multiply %526, %526 : tensor<f32>
Cost: 434

Operation name: stablehlo.divide
cache miss
719102371
%530 = stablehlo.divide %cst_7, %529 : tensor<f32>
Cost: 276

Operation name: stablehlo.slice
cache miss
3581210888
%531 = stablehlo.slice %481 [0:1, 48:96] : (tensor<1x288xf32>) -> tensor<1x48xf32>
Cost: 177

Operation name: stablehlo.slice
cache miss
3581210888
%532 = stablehlo.slice %482 [0:1, 48:96] : (tensor<1x288xf32>) -> tensor<1x48xf32>
Cost: 184

Operation name: stablehlo.concatenate
cache miss
895440948
%533 = stablehlo.concatenate %531, %532, dim = 0 : (tensor<1x48xf32>, tensor<1x48xf32>) -> tensor<2x48xf32>
Cost: 481

Operation name: stablehlo.dot_general
cache miss
2902940993
%534 = stablehlo.dot_general %533, %528, contracting_dims = [0] x [0], precision = [DEFAULT, DEFAULT] : (tensor<2x48xf32>, tensor<2xf32>) -> tensor<48xf32>
Cost: 471

Operation name: stablehlo.slice
cache miss
1375222232
%535 = stablehlo.slice %476 [96:144] : (tensor<288xf32>) -> tensor<48xf32>
Cost: 369

Operation name: stablehlo.slice
cache miss
1957506058
%536 = stablehlo.slice %478 [0:1, 96:144] : (tensor<1x288xf32>) -> tensor<1x48xf32>
Cost: 362

Operation name: stablehlo.slice
cache miss
1957506058
%537 = stablehlo.slice %479 [0:1, 96:144] : (tensor<1x288xf32>) -> tensor<1x48xf32>
Cost: 279

Operation name: stablehlo.concatenate
cache miss
895440948
%538 = stablehlo.concatenate %536, %537, dim = 0 : (tensor<1x48xf32>, tensor<1x48xf32>) -> tensor<2x48xf32>
Cost: 369

Operation name: stablehlo.dot_general
cache miss
1097263507
%539 = stablehlo.dot_general %538, %535, contracting_dims = [1] x [0], precision = [DEFAULT, DEFAULT] : (tensor<2x48xf32>, tensor<48xf32>) -> tensor<2xf32>
Cost: 177

Operation name: stablehlo.divide
cache miss
1531341356
%540 = stablehlo.divide %539, %cst_1 : tensor<2xf32>
Cost: 382

Operation name: stablehlo.maximum
cache miss
641216813
%2733 = stablehlo.maximum %arg14, %arg15 : tensor<f32>
Cost: 173

Operation name: stablehlo.return
Cost: 0

Operation name: stablehlo.reduce
cache miss
555889745
%541 = stablehlo.reduce(%540 init: %cst_3) applies stablehlo.maximum across dimensions = [0] : (tensor<2xf32>, tensor<f32>) -> tensor<f32>
Cost: 365

Operation name: stablehlo.broadcast_in_dim
cache miss
1703569158
%542 = stablehlo.broadcast_in_dim %541, dims = [] : (tensor<f32>) -> tensor<2xf32>
Cost: 271

Operation name: stablehlo.compare
Cost: 0

Operation name: stablehlo.convert
cache miss
1629337212
%544 = stablehlo.convert %543 : (tensor<2xi1>) -> tensor<2xf32>
Cost: 365

Operation name: stablehlo.add
cache miss
1937139428
%2733 = stablehlo.add %arg14, %arg15 : tensor<f32>
Cost: 369

Operation name: stablehlo.return
Cost: 0

Operation name: stablehlo.reduce
cache miss
555889745
%545 = stablehlo.reduce(%544 init: %cst_2) applies stablehlo.add across dimensions = [0] : (tensor<2xf32>, tensor<f32>) -> tensor<f32>
Cost: 386

Operation name: stablehlo.subtract
cache miss
3818527485
%546 = stablehlo.subtract %540, %542 : tensor<2xf32>
Cost: 506

Operation name: stablehlo.exponential
cache miss
3699945286
%547 = stablehlo.exponential %546 : tensor<2xf32>
Cost: 303

Operation name: stablehlo.slice
cache miss
2078395662
%548 = stablehlo.slice %547 [0:1] : (tensor<2xf32>) -> tensor<1xf32>
Cost: 173

Operation name: stablehlo.reshape
cache miss
1900484018
%549 = stablehlo.reshape %548 : (tensor<1xf32>) -> tensor<f32>
Cost: 276

Operation name: stablehlo.slice
cache miss
4032994822
%550 = stablehlo.slice %547 [1:2] : (tensor<2xf32>) -> tensor<1xf32>
Cost: 171

Operation name: stablehlo.reshape
cache miss
1900484018
%551 = stablehlo.reshape %550 : (tensor<1xf32>) -> tensor<f32>
Cost: 361

Operation name: stablehlo.add
cache miss
1937139428
%552 = stablehlo.add %549, %551 : tensor<f32>
Cost: 274

Operation name: stablehlo.broadcast_in_dim
cache miss
1703569158
%553 = stablehlo.broadcast_in_dim %552, dims = [] : (tensor<f32>) -> tensor<2xf32>
Cost: 173

Operation name: stablehlo.divide
cache miss
1531341356
%554 = stablehlo.divide %547, %553 : tensor<2xf32>
Cost: 285

Operation name: stablehlo.multiply
cache miss
1284973678
%555 = stablehlo.multiply %552, %552 : tensor<f32>
Cost: 365

Operation name: stablehlo.divide
cache miss
719102371
%556 = stablehlo.divide %cst_7, %555 : tensor<f32>
Cost: 272

Operation name: stablehlo.slice
cache miss
1957506058
%557 = stablehlo.slice %481 [0:1, 96:144] : (tensor<1x288xf32>) -> tensor<1x48xf32>
Cost: 274

Operation name: stablehlo.slice
cache miss
1957506058
%558 = stablehlo.slice %482 [0:1, 96:144] : (tensor<1x288xf32>) -> tensor<1x48xf32>
Cost: 174

Operation name: stablehlo.concatenate
cache miss
895440948
%559 = stablehlo.concatenate %557, %558, dim = 0 : (tensor<1x48xf32>, tensor<1x48xf32>) -> tensor<2x48xf32>
Cost: 421

Operation name: stablehlo.dot_general
cache miss
2902940993
%560 = stablehlo.dot_general %559, %554, contracting_dims = [0] x [0], precision = [DEFAULT, DEFAULT] : (tensor<2x48xf32>, tensor<2xf32>) -> tensor<48xf32>
Cost: 264

Operation name: stablehlo.slice
cache miss
3469783879
%561 = stablehlo.slice %476 [144:192] : (tensor<288xf32>) -> tensor<48xf32>
Cost: 278

Operation name: stablehlo.slice
cache miss
3339692416
%562 = stablehlo.slice %478 [0:1, 144:192] : (tensor<1x288xf32>) -> tensor<1x48xf32>
Cost: 279

Operation name: stablehlo.slice
cache miss
3339692416
%563 = stablehlo.slice %479 [0:1, 144:192] : (tensor<1x288xf32>) -> tensor<1x48xf32>
Cost: 486

Operation name: stablehlo.concatenate
cache miss
895440948
%564 = stablehlo.concatenate %562, %563, dim = 0 : (tensor<1x48xf32>, tensor<1x48xf32>) -> tensor<2x48xf32>
Cost: 187

Operation name: stablehlo.dot_general
cache miss
1097263507
%565 = stablehlo.dot_general %564, %561, contracting_dims = [1] x [0], precision = [DEFAULT, DEFAULT] : (tensor<2x48xf32>, tensor<48xf32>) -> tensor<2xf32>
Cost: 174

Operation name: stablehlo.divide
cache miss
1531341356
%566 = stablehlo.divide %565, %cst_1 : tensor<2xf32>
Cost: 312

Operation name: stablehlo.maximum
cache miss
641216813
%2733 = stablehlo.maximum %arg14, %arg15 : tensor<f32>
Cost: 177

Operation name: stablehlo.return
Cost: 0

Operation name: stablehlo.reduce
cache miss
555889745
%567 = stablehlo.reduce(%566 init: %cst_3) applies stablehlo.maximum across dimensions = [0] : (tensor<2xf32>, tensor<f32>) -> tensor<f32>
Cost: 435

Operation name: stablehlo.broadcast_in_dim
cache miss
1703569158
%568 = stablehlo.broadcast_in_dim %567, dims = [] : (tensor<f32>) -> tensor<2xf32>
Cost: 363

Operation name: stablehlo.compare
Cost: 0

Operation name: stablehlo.convert
cache miss
1629337212
%570 = stablehlo.convert %569 : (tensor<2xi1>) -> tensor<2xf32>
Cost: 273

Operation name: stablehlo.add
cache miss
1937139428
%2733 = stablehlo.add %arg14, %arg15 : tensor<f32>
Cost: 362

Operation name: stablehlo.return
Cost: 0

Operation name: stablehlo.reduce
cache miss
555889745
%571 = stablehlo.reduce(%570 init: %cst_2) applies stablehlo.add across dimensions = [0] : (tensor<2xf32>, tensor<f32>) -> tensor<f32>
Cost: 363

Operation name: stablehlo.subtract
cache miss
3818527485
%572 = stablehlo.subtract %566, %568 : tensor<2xf32>
Cost: 359

Operation name: stablehlo.exponential
cache miss
3699945286
%573 = stablehlo.exponential %572 : tensor<2xf32>
Cost: 275

Operation name: stablehlo.slice
cache miss
2078395662
%574 = stablehlo.slice %573 [0:1] : (tensor<2xf32>) -> tensor<1xf32>
Cost: 385

Operation name: stablehlo.reshape
cache miss
1900484018
%575 = stablehlo.reshape %574 : (tensor<1xf32>) -> tensor<f32>
Cost: 375

Operation name: stablehlo.slice
cache miss
4032994822
%576 = stablehlo.slice %573 [1:2] : (tensor<2xf32>) -> tensor<1xf32>
Cost: 444

Operation name: stablehlo.reshape
cache miss
1900484018
%577 = stablehlo.reshape %576 : (tensor<1xf32>) -> tensor<f32>
Cost: 277

Operation name: stablehlo.add
cache miss
1937139428
%578 = stablehlo.add %575, %577 : tensor<f32>
Cost: 276

Operation name: stablehlo.broadcast_in_dim
cache miss
1703569158
%579 = stablehlo.broadcast_in_dim %578, dims = [] : (tensor<f32>) -> tensor<2xf32>
Cost: 366

Operation name: stablehlo.divide
cache miss
1531341356
%580 = stablehlo.divide %573, %579 : tensor<2xf32>
Cost: 301

Operation name: stablehlo.multiply
cache miss
1284973678
%581 = stablehlo.multiply %578, %578 : tensor<f32>
Cost: 172

Operation name: stablehlo.divide
cache miss
719102371
%582 = stablehlo.divide %cst_7, %581 : tensor<f32>
Cost: 279

Operation name: stablehlo.slice
cache miss
3339692416
%583 = stablehlo.slice %481 [0:1, 144:192] : (tensor<1x288xf32>) -> tensor<1x48xf32>
Cost: 185

Operation name: stablehlo.slice
cache miss
3339692416
%584 = stablehlo.slice %482 [0:1, 144:192] : (tensor<1x288xf32>) -> tensor<1x48xf32>
Cost: 175

Operation name: stablehlo.concatenate
cache miss
895440948
%585 = stablehlo.concatenate %583, %584, dim = 0 : (tensor<1x48xf32>, tensor<1x48xf32>) -> tensor<2x48xf32>
Cost: 398

Operation name: stablehlo.dot_general
cache miss
2902940993
%586 = stablehlo.dot_general %585, %580, contracting_dims = [0] x [0], precision = [DEFAULT, DEFAULT] : (tensor<2x48xf32>, tensor<2xf32>) -> tensor<48xf32>
Cost: 166

Operation name: stablehlo.slice
cache miss
1801550340
%587 = stablehlo.slice %476 [192:240] : (tensor<288xf32>) -> tensor<48xf32>
Cost: 173

Operation name: stablehlo.slice
cache miss
3411559083
%588 = stablehlo.slice %478 [0:1, 192:240] : (tensor<1x288xf32>) -> tensor<1x48xf32>
Cost: 369

Operation name: stablehlo.slice
cache miss
3411559083
%589 = stablehlo.slice %479 [0:1, 192:240] : (tensor<1x288xf32>) -> tensor<1x48xf32>
Cost: 279

Operation name: stablehlo.concatenate
cache miss
895440948
%590 = stablehlo.concatenate %588, %589, dim = 0 : (tensor<1x48xf32>, tensor<1x48xf32>) -> tensor<2x48xf32>
Cost: 178

Operation name: stablehlo.dot_general
cache miss
1097263507
%591 = stablehlo.dot_general %590, %587, contracting_dims = [1] x [0], precision = [DEFAULT, DEFAULT] : (tensor<2x48xf32>, tensor<48xf32>) -> tensor<2xf32>
Cost: 273

Operation name: stablehlo.divide
cache miss
1531341356
%592 = stablehlo.divide %591, %cst_1 : tensor<2xf32>
Cost: 372

Operation name: stablehlo.maximum
cache miss
641216813
%2733 = stablehlo.maximum %arg14, %arg15 : tensor<f32>
Cost: 384

Operation name: stablehlo.return
Cost: 0

Operation name: stablehlo.reduce
cache miss
555889745
%593 = stablehlo.reduce(%592 init: %cst_3) applies stablehlo.maximum across dimensions = [0] : (tensor<2xf32>, tensor<f32>) -> tensor<f32>
Cost: 369

Operation name: stablehlo.broadcast_in_dim
cache miss
1703569158
%594 = stablehlo.broadcast_in_dim %593, dims = [] : (tensor<f32>) -> tensor<2xf32>
Cost: 359

Operation name: stablehlo.compare
Cost: 0

Operation name: stablehlo.convert
cache miss
1629337212
%596 = stablehlo.convert %595 : (tensor<2xi1>) -> tensor<2xf32>
Cost: 366

Operation name: stablehlo.add
cache miss
1937139428
%2733 = stablehlo.add %arg14, %arg15 : tensor<f32>
Cost: 300

Operation name: stablehlo.return
Cost: 0

Operation name: stablehlo.reduce
cache miss
555889745
%597 = stablehlo.reduce(%596 init: %cst_2) applies stablehlo.add across dimensions = [0] : (tensor<2xf32>, tensor<f32>) -> tensor<f32>
Cost: 371

Operation name: stablehlo.subtract
cache miss
3818527485
%598 = stablehlo.subtract %592, %594 : tensor<2xf32>
Cost: 323

Operation name: stablehlo.exponential
cache miss
3699945286
%599 = stablehlo.exponential %598 : tensor<2xf32>
Cost: 359

Operation name: stablehlo.slice
cache miss
2078395662
%600 = stablehlo.slice %599 [0:1] : (tensor<2xf32>) -> tensor<1xf32>
Cost: 365

Operation name: stablehlo.reshape
cache miss
1900484018
%601 = stablehlo.reshape %600 : (tensor<1xf32>) -> tensor<f32>
Cost: 276

Operation name: stablehlo.slice
cache miss
4032994822
%602 = stablehlo.slice %599 [1:2] : (tensor<2xf32>) -> tensor<1xf32>
Cost: 350

Operation name: stablehlo.reshape
cache miss
1900484018
%603 = stablehlo.reshape %602 : (tensor<1xf32>) -> tensor<f32>
Cost: 274

Operation name: stablehlo.add
cache miss
1937139428
%604 = stablehlo.add %601, %603 : tensor<f32>
Cost: 387

Operation name: stablehlo.broadcast_in_dim
cache miss
1703569158
%605 = stablehlo.broadcast_in_dim %604, dims = [] : (tensor<f32>) -> tensor<2xf32>
Cost: 357

Operation name: stablehlo.divide
cache miss
1531341356
%606 = stablehlo.divide %599, %605 : tensor<2xf32>
Cost: 274

Operation name: stablehlo.multiply
cache miss
1284973678
%607 = stablehlo.multiply %604, %604 : tensor<f32>
Cost: 174

Operation name: stablehlo.divide
cache miss
719102371
%608 = stablehlo.divide %cst_7, %607 : tensor<f32>
Cost: 272

Operation name: stablehlo.slice
cache miss
3411559083
%609 = stablehlo.slice %481 [0:1, 192:240] : (tensor<1x288xf32>) -> tensor<1x48xf32>
Cost: 378

Operation name: stablehlo.slice
cache miss
3411559083
%610 = stablehlo.slice %482 [0:1, 192:240] : (tensor<1x288xf32>) -> tensor<1x48xf32>
Cost: 469

Operation name: stablehlo.concatenate
cache miss
895440948
%611 = stablehlo.concatenate %609, %610, dim = 0 : (tensor<1x48xf32>, tensor<1x48xf32>) -> tensor<2x48xf32>
Cost: 367

Operation name: stablehlo.dot_general
cache miss
2902940993
%612 = stablehlo.dot_general %611, %606, contracting_dims = [0] x [0], precision = [DEFAULT, DEFAULT] : (tensor<2x48xf32>, tensor<2xf32>) -> tensor<48xf32>
Cost: 359

Operation name: stablehlo.slice
cache miss
2798019243
%613 = stablehlo.slice %476 [240:288] : (tensor<288xf32>) -> tensor<48xf32>
Cost: 276

Operation name: stablehlo.slice
cache miss
1619767244
%614 = stablehlo.slice %478 [0:1, 240:288] : (tensor<1x288xf32>) -> tensor<1x48xf32>
Cost: 275

Operation name: stablehlo.slice
cache miss
1619767244
%615 = stablehlo.slice %479 [0:1, 240:288] : (tensor<1x288xf32>) -> tensor<1x48xf32>
Cost: 392

Operation name: stablehlo.concatenate
cache miss
895440948
%616 = stablehlo.concatenate %614, %615, dim = 0 : (tensor<1x48xf32>, tensor<1x48xf32>) -> tensor<2x48xf32>
Cost: 371

Operation name: stablehlo.dot_general
cache miss
1097263507
%617 = stablehlo.dot_general %616, %613, contracting_dims = [1] x [0], precision = [DEFAULT, DEFAULT] : (tensor<2x48xf32>, tensor<48xf32>) -> tensor<2xf32>
Cost: 248

Operation name: stablehlo.divide
cache miss
1531341356
%618 = stablehlo.divide %617, %cst_1 : tensor<2xf32>
Cost: 285

Operation name: stablehlo.maximum
cache miss
641216813
%2733 = stablehlo.maximum %arg14, %arg15 : tensor<f32>
Cost: 275

Operation name: stablehlo.return
Cost: 0

Operation name: stablehlo.reduce
cache miss
555889745
%619 = stablehlo.reduce(%618 init: %cst_3) applies stablehlo.maximum across dimensions = [0] : (tensor<2xf32>, tensor<f32>) -> tensor<f32>
Cost: 369

Operation name: stablehlo.broadcast_in_dim
cache miss
1703569158
%620 = stablehlo.broadcast_in_dim %619, dims = [] : (tensor<f32>) -> tensor<2xf32>
Cost: 277

Operation name: stablehlo.compare
Cost: 0

Operation name: stablehlo.convert
cache miss
1629337212
%622 = stablehlo.convert %621 : (tensor<2xi1>) -> tensor<2xf32>
Cost: 272

Operation name: stablehlo.add
cache miss
1937139428
%2733 = stablehlo.add %arg14, %arg15 : tensor<f32>
Cost: 170

Operation name: stablehlo.return
Cost: 0

Operation name: stablehlo.reduce
cache miss
555889745
%623 = stablehlo.reduce(%622 init: %cst_2) applies stablehlo.add across dimensions = [0] : (tensor<2xf32>, tensor<f32>) -> tensor<f32>
Cost: 368

Operation name: stablehlo.subtract
cache miss
3818527485
%624 = stablehlo.subtract %618, %620 : tensor<2xf32>
Cost: 365

Operation name: stablehlo.exponential
cache miss
3699945286
%625 = stablehlo.exponential %624 : tensor<2xf32>
Cost: 329

Operation name: stablehlo.slice
cache miss
2078395662
%626 = stablehlo.slice %625 [0:1] : (tensor<2xf32>) -> tensor<1xf32>
Cost: 170

Operation name: stablehlo.reshape
cache miss
1900484018
%627 = stablehlo.reshape %626 : (tensor<1xf32>) -> tensor<f32>
Cost: 274

Operation name: stablehlo.slice
cache miss
4032994822
%628 = stablehlo.slice %625 [1:2] : (tensor<2xf32>) -> tensor<1xf32>
Cost: 384

Operation name: stablehlo.reshape
cache miss
1900484018
%629 = stablehlo.reshape %628 : (tensor<1xf32>) -> tensor<f32>
Cost: 277

Operation name: stablehlo.add
cache miss
1937139428
%630 = stablehlo.add %627, %629 : tensor<f32>
Cost: 273

Operation name: stablehlo.broadcast_in_dim
cache miss
1703569158
%631 = stablehlo.broadcast_in_dim %630, dims = [] : (tensor<f32>) -> tensor<2xf32>
Cost: 271

Operation name: stablehlo.divide
cache miss
1531341356
%632 = stablehlo.divide %625, %631 : tensor<2xf32>
Cost: 387

Operation name: stablehlo.multiply
cache miss
1284973678
%633 = stablehlo.multiply %630, %630 : tensor<f32>
Cost: 571

Operation name: stablehlo.divide
cache miss
719102371
%634 = stablehlo.divide %cst_7, %633 : tensor<f32>
Cost: 365

Operation name: stablehlo.slice
cache miss
1619767244
%635 = stablehlo.slice %481 [0:1, 240:288] : (tensor<1x288xf32>) -> tensor<1x48xf32>
Cost: 292

Operation name: stablehlo.slice
cache miss
1619767244
%636 = stablehlo.slice %482 [0:1, 240:288] : (tensor<1x288xf32>) -> tensor<1x48xf32>
Cost: 278

Operation name: stablehlo.concatenate
cache miss
895440948
%637 = stablehlo.concatenate %635, %636, dim = 0 : (tensor<1x48xf32>, tensor<1x48xf32>) -> tensor<2x48xf32>
Cost: 281

Operation name: stablehlo.dot_general
cache miss
2902940993
%638 = stablehlo.dot_general %637, %632, contracting_dims = [0] x [0], precision = [DEFAULT, DEFAULT] : (tensor<2x48xf32>, tensor<2xf32>) -> tensor<48xf32>
Cost: 355

Operation name: stablehlo.concatenate
cache miss
292037604
%639 = stablehlo.concatenate %508, %534, %560, %586, %612, %638, dim = 0 : (tensor<48xf32>, tensor<48xf32>, tensor<48xf32>, tensor<48xf32>, tensor<48xf32>, tensor<48xf32>) -> tensor<288xf32>
Cost: 514

Operation name: stablehlo.slice
cache miss
2872633878
%640 = stablehlo.slice %arg8 [2:3, 0:288, 0:288] : (tensor<6x288x288xf32>) -> tensor<1x288x288xf32>
Cost: 45969

Operation name: stablehlo.reshape
cache miss
3219454195
%641 = stablehlo.reshape %640 : (tensor<1x288x288xf32>) -> tensor<288x288xf32>
Cost: 41439

Operation name: stablehlo.dot_general
cache miss
1061109412
%642 = stablehlo.dot_general %641, %639, contracting_dims = [1] x [0], precision = [DEFAULT, DEFAULT] : (tensor<288x288xf32>, tensor<288xf32>) -> tensor<288xf32>
Cost: 459

Operation name: stablehlo.add
cache miss
3847999983
%643 = stablehlo.add %449, %642 : tensor<288xf32>
Cost: 402

Operation name: stablehlo.slice
cache miss
3733494965
%644 = stablehlo.slice %arg2 [2:3, 0:288] : (tensor<6x288xf32>) -> tensor<1x288xf32>
Cost: 504

Operation name: stablehlo.reshape
cache miss
1377738304
%645 = stablehlo.reshape %644 : (tensor<1x288xf32>) -> tensor<288xf32>
Cost: 606

Operation name: stablehlo.dot_general
cache miss
2778462547
%646 = stablehlo.dot_general %643, %643, contracting_dims = [0] x [0], precision = [DEFAULT, DEFAULT] : (tensor<288xf32>, tensor<288xf32>) -> tensor<f32>
Cost: 275

Operation name: stablehlo.divide
cache miss
719102371
%647 = stablehlo.divide %646, %cst_5 : tensor<f32>
Cost: 403

Operation name: stablehlo.add
cache miss
1937139428
%648 = stablehlo.add %647, %cst_4 : tensor<f32>
Cost: 288

Operation name: stablehlo.sqrt
cache miss
1884932271
%649 = stablehlo.sqrt %648 : tensor<f32>
Cost: 284

Operation name: stablehlo.divide
cache miss
719102371
%650 = stablehlo.divide %cst_6, %649 : tensor<f32>
Cost: 382

Operation name: stablehlo.divide
cache miss
719102371
%651 = stablehlo.divide %cst_7, %649 : tensor<f32>
Cost: 385

Operation name: stablehlo.multiply
cache miss
1284973678
%652 = stablehlo.multiply %649, %649 : tensor<f32>
Cost: 276

Operation name: stablehlo.divide
cache miss
719102371
%653 = stablehlo.divide %cst_7, %652 : tensor<f32>
Cost: 363

Operation name: stablehlo.multiply
cache miss
2511610444
%654 = stablehlo.multiply %645, %643 : tensor<288xf32>
Cost: 399

Operation name: stablehlo.broadcast_in_dim
cache miss
2616490109
%655 = stablehlo.broadcast_in_dim %651, dims = [] : (tensor<f32>) -> tensor<288xf32>
Cost: 502

Operation name: stablehlo.multiply
cache miss
2511610444
%656 = stablehlo.multiply %654, %655 : tensor<288xf32>
Cost: 518

Operation name: stablehlo.slice
cache miss
1581303485
%657 = stablehlo.slice %arg4 [2:3, 0:768, 0:288] : (tensor<6x768x288xf32>) -> tensor<1x768x288xf32>
Cost: 137148

Operation name: stablehlo.reshape
cache miss
3265769957
%658 = stablehlo.reshape %657 : (tensor<1x768x288xf32>) -> tensor<768x288xf32>
Cost: 113890

Operation name: stablehlo.dot_general
cache miss
2529236298
%659 = stablehlo.dot_general %658, %656, contracting_dims = [1] x [0], precision = [DEFAULT, DEFAULT] : (tensor<768x288xf32>, tensor<288xf32>) -> tensor<768xf32>
Cost: 5597

Operation name: stablehlo.slice
cache miss
1581303485
%660 = stablehlo.slice %arg6 [2:3, 0:768, 0:288] : (tensor<6x768x288xf32>) -> tensor<1x768x288xf32>
Cost: 99591

Operation name: stablehlo.reshape
cache miss
3265769957
%661 = stablehlo.reshape %660 : (tensor<1x768x288xf32>) -> tensor<768x288xf32>
Cost: 127909

Operation name: stablehlo.dot_general
cache miss
2529236298
%662 = stablehlo.dot_general %661, %656, contracting_dims = [1] x [0], precision = [DEFAULT, DEFAULT] : (tensor<768x288xf32>, tensor<288xf32>) -> tensor<768xf32>
Cost: 5553

Operation name: stablehlo.negate
cache miss
4256221255
%663 = stablehlo.negate %659 : tensor<768xf32>
Cost: 424

Operation name: stablehlo.exponential
cache miss
6921514
%664 = stablehlo.exponential %663 : tensor<768xf32>
Cost: 281

Operation name: stablehlo.add
cache miss
389450582
%665 = stablehlo.add %cst_0, %664 : tensor<768xf32>
Cost: 316

Operation name: stablehlo.divide
cache miss
2134516102
%666 = stablehlo.divide %cst_0, %665 : tensor<768xf32>
Cost: 548

Operation name: stablehlo.multiply
cache miss
4137946040
%667 = stablehlo.multiply %665, %665 : tensor<768xf32>
Cost: 484

Operation name: stablehlo.divide
cache miss
2134516102
%668 = stablehlo.divide %cst_0, %667 : tensor<768xf32>
Cost: 528

Operation name: stablehlo.multiply
cache miss
4137946040
%669 = stablehlo.multiply %659, %666 : tensor<768xf32>
Cost: 358

Operation name: stablehlo.multiply
cache miss
4137946040
%670 = stablehlo.multiply %669, %662 : tensor<768xf32>
Cost: 665

Operation name: stablehlo.slice
cache miss
1363388598
%671 = stablehlo.slice %arg5 [2:3, 0:288, 0:768] : (tensor<6x288x768xf32>) -> tensor<1x288x768xf32>
Cost: 105221

Operation name: stablehlo.reshape
cache miss
2162077039
%672 = stablehlo.reshape %671 : (tensor<1x288x768xf32>) -> tensor<288x768xf32>
Cost: 99055

Operation name: stablehlo.dot_general
cache miss
1061109412
%673 = stablehlo.dot_general %672, %670, contracting_dims = [1] x [0], precision = [DEFAULT, DEFAULT] : (tensor<288x768xf32>, tensor<768xf32>) -> tensor<288xf32>
Cost: 4647

Operation name: stablehlo.add
cache miss
3847999983
%674 = stablehlo.add %643, %673 : tensor<288xf32>
Cost: 518

Operation name: stablehlo.slice
cache miss
1331838498
%675 = stablehlo.slice %arg1 [3:4, 0:288] : (tensor<6x288xf32>) -> tensor<1x288xf32>
Cost: 534

Operation name: stablehlo.reshape
cache miss
1377738304
%676 = stablehlo.reshape %675 : (tensor<1x288xf32>) -> tensor<288xf32>
Cost: 554

Operation name: stablehlo.dot_general
cache miss
2778462547
%677 = stablehlo.dot_general %674, %674, contracting_dims = [0] x [0], precision = [DEFAULT, DEFAULT] : (tensor<288xf32>, tensor<288xf32>) -> tensor<f32>
Cost: 370

Operation name: stablehlo.divide
cache miss
719102371
%678 = stablehlo.divide %677, %cst_5 : tensor<f32>
Cost: 403

Operation name: stablehlo.add
cache miss
1937139428
%679 = stablehlo.add %678, %cst_4 : tensor<f32>
Cost: 286

Operation name: stablehlo.sqrt
cache miss
1884932271
%680 = stablehlo.sqrt %679 : tensor<f32>
Cost: 181

Operation name: stablehlo.divide
cache miss
719102371
%681 = stablehlo.divide %cst_6, %680 : tensor<f32>
Cost: 566

Operation name: stablehlo.divide
cache miss
719102371
%682 = stablehlo.divide %cst_7, %680 : tensor<f32>
Cost: 284

Operation name: stablehlo.multiply
cache miss
1284973678
%683 = stablehlo.multiply %680, %680 : tensor<f32>
Cost: 422

Operation name: stablehlo.divide
cache miss
719102371
%684 = stablehlo.divide %cst_7, %683 : tensor<f32>
Cost: 178

Operation name: stablehlo.multiply
cache miss
2511610444
%685 = stablehlo.multiply %676, %674 : tensor<288xf32>
Cost: 400

Operation name: stablehlo.broadcast_in_dim
cache miss
2616490109
%686 = stablehlo.broadcast_in_dim %682, dims = [] : (tensor<f32>) -> tensor<288xf32>
Cost: 397

Operation name: stablehlo.multiply
cache miss
2511610444
%687 = stablehlo.multiply %685, %686 : tensor<288xf32>
Cost: 412

Operation name: stablehlo.slice
cache miss
1589645409
%688 = stablehlo.slice %arg9 [3:4, 0:288, 0:288] : (tensor<6x288x288xf32>) -> tensor<1x288x288xf32>
Cost: 50921

Operation name: stablehlo.reshape
cache miss
3219454195
%689 = stablehlo.reshape %688 : (tensor<1x288x288xf32>) -> tensor<288x288xf32>
Cost: 46091

Operation name: stablehlo.dot_general
cache miss
1061109412
%690 = stablehlo.dot_general %689, %687, contracting_dims = [1] x [0], precision = [DEFAULT, DEFAULT] : (tensor<288x288xf32>, tensor<288xf32>) -> tensor<288xf32>
Cost: 323

Operation name: stablehlo.slice
cache miss
1589645409
%691 = stablehlo.slice %arg7 [3:4, 0:288, 0:288] : (tensor<6x288x288xf32>) -> tensor<1x288x288xf32>
Cost: 49925

Operation name: stablehlo.reshape
cache miss
3219454195
%692 = stablehlo.reshape %691 : (tensor<1x288x288xf32>) -> tensor<288x288xf32>
Cost: 48221

Operation name: stablehlo.dot_general
cache miss
1061109412
%693 = stablehlo.dot_general %692, %687, contracting_dims = [1] x [0], precision = [DEFAULT, DEFAULT] : (tensor<288x288xf32>, tensor<288xf32>) -> tensor<288xf32>
Cost: 507

Operation name: stablehlo.slice
cache miss
1589645409
%694 = stablehlo.slice %arg10 [3:4, 0:288, 0:288] : (tensor<6x288x288xf32>) -> tensor<1x288x288xf32>
Cost: 69283

Operation name: stablehlo.reshape
cache miss
3219454195
%695 = stablehlo.reshape %694 : (tensor<1x288x288xf32>) -> tensor<288x288xf32>
Cost: 44850

Operation name: stablehlo.dot_general
cache miss
1061109412
%696 = stablehlo.dot_general %695, %687, contracting_dims = [1] x [0], precision = [DEFAULT, DEFAULT] : (tensor<288x288xf32>, tensor<288xf32>) -> tensor<288xf32>
Cost: 227

Operation name: stablehlo.reshape
cache miss
2392077026
%697 = stablehlo.reshape %690 : (tensor<288xf32>) -> tensor<144x2xf32>
Cost: 545

Operation name: stablehlo.reshape
cache miss
2392077026
%698 = stablehlo.reshape %693 : (tensor<288xf32>) -> tensor<144x2xf32>
Cost: 426

Operation name: stablehlo.dot_general
cache miss
865228849
%699 = stablehlo.dot_general %cst_8, %698, batching_dims = [0] x [0], contracting_dims = [2] x [1], precision = [DEFAULT, DEFAULT] : (tensor<144x2x2xf32>, tensor<144x2xf32>) -> tensor<144x2xf32>
Cost: 640

Operation name: stablehlo.dot_general
cache miss
865228849
%700 = stablehlo.dot_general %cst_8, %697, batching_dims = [0] x [0], contracting_dims = [2] x [1], precision = [DEFAULT, DEFAULT] : (tensor<144x2x2xf32>, tensor<144x2xf32>) -> tensor<144x2xf32>
Cost: 632

Operation name: stablehlo.reshape
cache miss
1377738304
%701 = stablehlo.reshape %700 : (tensor<144x2xf32>) -> tensor<288xf32>
Cost: 562

Operation name: stablehlo.slice
cache miss
744886025
%702 = stablehlo.slice %arg11 [3:4, 0:1, 0:288] : (tensor<6x1x288xf32>) -> tensor<1x1x288xf32>
Cost: 623

Operation name: stablehlo.reshape
cache miss
2960881163
%703 = stablehlo.reshape %702 : (tensor<1x1x288xf32>) -> tensor<1x288xf32>
Cost: 615

Operation name: stablehlo.reshape
cache miss
2960881163
%704 = stablehlo.reshape %699 : (tensor<144x2xf32>) -> tensor<1x288xf32>
Cost: 404

Operation name: stablehlo.slice
cache miss
744886025
%705 = stablehlo.slice %arg12 [3:4, 0:1, 0:288] : (tensor<6x1x288xf32>) -> tensor<1x1x288xf32>
Cost: 499

Operation name: stablehlo.reshape
cache miss
2960881163
%706 = stablehlo.reshape %705 : (tensor<1x1x288xf32>) -> tensor<1x288xf32>
Cost: 401

Operation name: stablehlo.reshape
cache miss
2960881163
%707 = stablehlo.reshape %696 : (tensor<288xf32>) -> tensor<1x288xf32>
Cost: 501

Operation name: stablehlo.slice
cache miss
2839717066
%708 = stablehlo.slice %701 [0:48] : (tensor<288xf32>) -> tensor<48xf32>
Cost: 362

Operation name: stablehlo.slice
cache miss
3729170049
%709 = stablehlo.slice %703 [0:1, 0:48] : (tensor<1x288xf32>) -> tensor<1x48xf32>
Cost: 274

Operation name: stablehlo.slice
cache miss
3729170049
%710 = stablehlo.slice %704 [0:1, 0:48] : (tensor<1x288xf32>) -> tensor<1x48xf32>
Cost: 297

Operation name: stablehlo.concatenate
cache miss
895440948
%711 = stablehlo.concatenate %709, %710, dim = 0 : (tensor<1x48xf32>, tensor<1x48xf32>) -> tensor<2x48xf32>
Cost: 374

Operation name: stablehlo.dot_general
cache miss
1097263507
%712 = stablehlo.dot_general %711, %708, contracting_dims = [1] x [0], precision = [DEFAULT, DEFAULT] : (tensor<2x48xf32>, tensor<48xf32>) -> tensor<2xf32>
Cost: 290

Operation name: stablehlo.divide
cache miss
1531341356
%713 = stablehlo.divide %712, %cst_1 : tensor<2xf32>
Cost: 380

Operation name: stablehlo.maximum
cache miss
641216813
%2733 = stablehlo.maximum %arg14, %arg15 : tensor<f32>
Cost: 393

Operation name: stablehlo.return
Cost: 0

Operation name: stablehlo.reduce
cache miss
555889745
%714 = stablehlo.reduce(%713 init: %cst_3) applies stablehlo.maximum across dimensions = [0] : (tensor<2xf32>, tensor<f32>) -> tensor<f32>
Cost: 288

Operation name: stablehlo.broadcast_in_dim
cache miss
1703569158
%715 = stablehlo.broadcast_in_dim %714, dims = [] : (tensor<f32>) -> tensor<2xf32>
Cost: 383

Operation name: stablehlo.compare
Cost: 0

Operation name: stablehlo.convert
cache miss
1629337212
%717 = stablehlo.convert %716 : (tensor<2xi1>) -> tensor<2xf32>
Cost: 388

Operation name: stablehlo.add
cache miss
1937139428
%2733 = stablehlo.add %arg14, %arg15 : tensor<f32>
Cost: 381

Operation name: stablehlo.return
Cost: 0

Operation name: stablehlo.reduce
cache miss
555889745
%718 = stablehlo.reduce(%717 init: %cst_2) applies stablehlo.add across dimensions = [0] : (tensor<2xf32>, tensor<f32>) -> tensor<f32>
Cost: 381

Operation name: stablehlo.subtract
cache miss
3818527485
%719 = stablehlo.subtract %713, %715 : tensor<2xf32>
Cost: 383

Operation name: stablehlo.exponential
cache miss
3699945286
%720 = stablehlo.exponential %719 : tensor<2xf32>
Cost: 285

Operation name: stablehlo.slice
cache miss
2078395662
%721 = stablehlo.slice %720 [0:1] : (tensor<2xf32>) -> tensor<1xf32>
Cost: 294

Operation name: stablehlo.reshape
cache miss
1900484018
%722 = stablehlo.reshape %721 : (tensor<1xf32>) -> tensor<f32>
Cost: 401

Operation name: stablehlo.slice
cache miss
4032994822
%723 = stablehlo.slice %720 [1:2] : (tensor<2xf32>) -> tensor<1xf32>
Cost: 396

Operation name: stablehlo.reshape
cache miss
1900484018
%724 = stablehlo.reshape %723 : (tensor<1xf32>) -> tensor<f32>
Cost: 379

Operation name: stablehlo.add
cache miss
1937139428
%725 = stablehlo.add %722, %724 : tensor<f32>
Cost: 284

Operation name: stablehlo.broadcast_in_dim
cache miss
1703569158
%726 = stablehlo.broadcast_in_dim %725, dims = [] : (tensor<f32>) -> tensor<2xf32>
Cost: 310

Operation name: stablehlo.divide
cache miss
1531341356
%727 = stablehlo.divide %720, %726 : tensor<2xf32>
Cost: 281

Operation name: stablehlo.multiply
cache miss
1284973678
%728 = stablehlo.multiply %725, %725 : tensor<f32>
Cost: 281

Operation name: stablehlo.divide
cache miss
719102371
%729 = stablehlo.divide %cst_7, %728 : tensor<f32>
Cost: 371

Operation name: stablehlo.slice
cache miss
3729170049
%730 = stablehlo.slice %706 [0:1, 0:48] : (tensor<1x288xf32>) -> tensor<1x48xf32>
Cost: 278

Operation name: stablehlo.slice
cache miss
3729170049
%731 = stablehlo.slice %707 [0:1, 0:48] : (tensor<1x288xf32>) -> tensor<1x48xf32>
Cost: 174

Operation name: stablehlo.concatenate
cache miss
895440948
%732 = stablehlo.concatenate %730, %731, dim = 0 : (tensor<1x48xf32>, tensor<1x48xf32>) -> tensor<2x48xf32>
Cost: 372

Operation name: stablehlo.dot_general
cache miss
2902940993
%733 = stablehlo.dot_general %732, %727, contracting_dims = [0] x [0], precision = [DEFAULT, DEFAULT] : (tensor<2x48xf32>, tensor<2xf32>) -> tensor<48xf32>
Cost: 274

Operation name: stablehlo.slice
cache miss
4032389970
%734 = stablehlo.slice %701 [48:96] : (tensor<288xf32>) -> tensor<48xf32>
Cost: 394

Operation name: stablehlo.slice
cache miss
3581210888
%735 = stablehlo.slice %703 [0:1, 48:96] : (tensor<1x288xf32>) -> tensor<1x48xf32>
Cost: 391

Operation name: stablehlo.slice
cache miss
3581210888
%736 = stablehlo.slice %704 [0:1, 48:96] : (tensor<1x288xf32>) -> tensor<1x48xf32>
Cost: 394

Operation name: stablehlo.concatenate
cache miss
895440948
%737 = stablehlo.concatenate %735, %736, dim = 0 : (tensor<1x48xf32>, tensor<1x48xf32>) -> tensor<2x48xf32>
Cost: 374

Operation name: stablehlo.dot_general
cache miss
1097263507
%738 = stablehlo.dot_general %737, %734, contracting_dims = [1] x [0], precision = [DEFAULT, DEFAULT] : (tensor<2x48xf32>, tensor<48xf32>) -> tensor<2xf32>
Cost: 370

Operation name: stablehlo.divide
cache miss
1531341356
%739 = stablehlo.divide %738, %cst_1 : tensor<2xf32>
Cost: 500

Operation name: stablehlo.maximum
cache miss
641216813
%2733 = stablehlo.maximum %arg14, %arg15 : tensor<f32>
Cost: 284

Operation name: stablehlo.return
Cost: 0

Operation name: stablehlo.reduce
cache miss
555889745
%740 = stablehlo.reduce(%739 init: %cst_3) applies stablehlo.maximum across dimensions = [0] : (tensor<2xf32>, tensor<f32>) -> tensor<f32>
Cost: 379

Operation name: stablehlo.broadcast_in_dim
cache miss
1703569158
%741 = stablehlo.broadcast_in_dim %740, dims = [] : (tensor<f32>) -> tensor<2xf32>
Cost: 422

Operation name: stablehlo.compare
Cost: 0

Operation name: stablehlo.convert
cache miss
1629337212
%743 = stablehlo.convert %742 : (tensor<2xi1>) -> tensor<2xf32>
Cost: 410

Operation name: stablehlo.add
cache miss
1937139428
%2733 = stablehlo.add %arg14, %arg15 : tensor<f32>
Cost: 367

Operation name: stablehlo.return
Cost: 0

Operation name: stablehlo.reduce
cache miss
555889745
%744 = stablehlo.reduce(%743 init: %cst_2) applies stablehlo.add across dimensions = [0] : (tensor<2xf32>, tensor<f32>) -> tensor<f32>
Cost: 274

Operation name: stablehlo.subtract
cache miss
3818527485
%745 = stablehlo.subtract %739, %741 : tensor<2xf32>
Cost: 172

Operation name: stablehlo.exponential
cache miss
3699945286
%746 = stablehlo.exponential %745 : tensor<2xf32>
Cost: 275

Operation name: stablehlo.slice
cache miss
2078395662
%747 = stablehlo.slice %746 [0:1] : (tensor<2xf32>) -> tensor<1xf32>
Cost: 170

Operation name: stablehlo.reshape
cache miss
1900484018
%748 = stablehlo.reshape %747 : (tensor<1xf32>) -> tensor<f32>
Cost: 273

Operation name: stablehlo.slice
cache miss
4032994822
%749 = stablehlo.slice %746 [1:2] : (tensor<2xf32>) -> tensor<1xf32>
Cost: 362

Operation name: stablehlo.reshape
cache miss
1900484018
%750 = stablehlo.reshape %749 : (tensor<1xf32>) -> tensor<f32>
Cost: 274

Operation name: stablehlo.add
cache miss
1937139428
%751 = stablehlo.add %748, %750 : tensor<f32>
Cost: 276

Operation name: stablehlo.broadcast_in_dim
cache miss
1703569158
%752 = stablehlo.broadcast_in_dim %751, dims = [] : (tensor<f32>) -> tensor<2xf32>
Cost: 364

Operation name: stablehlo.divide
cache miss
1531341356
%753 = stablehlo.divide %746, %752 : tensor<2xf32>
Cost: 275

Operation name: stablehlo.multiply
cache miss
1284973678
%754 = stablehlo.multiply %751, %751 : tensor<f32>
Cost: 274

Operation name: stablehlo.divide
cache miss
719102371
%755 = stablehlo.divide %cst_7, %754 : tensor<f32>
Cost: 279

Operation name: stablehlo.slice
cache miss
3581210888
%756 = stablehlo.slice %706 [0:1, 48:96] : (tensor<1x288xf32>) -> tensor<1x48xf32>
Cost: 307

Operation name: stablehlo.slice
cache miss
3581210888
%757 = stablehlo.slice %707 [0:1, 48:96] : (tensor<1x288xf32>) -> tensor<1x48xf32>
Cost: 304

Operation name: stablehlo.concatenate
cache miss
895440948
%758 = stablehlo.concatenate %756, %757, dim = 0 : (tensor<1x48xf32>, tensor<1x48xf32>) -> tensor<2x48xf32>
Cost: 281

Operation name: stablehlo.dot_general
cache miss
2902940993
%759 = stablehlo.dot_general %758, %753, contracting_dims = [0] x [0], precision = [DEFAULT, DEFAULT] : (tensor<2x48xf32>, tensor<2xf32>) -> tensor<48xf32>
Cost: 364

Operation name: stablehlo.slice
cache miss
1375222232
%760 = stablehlo.slice %701 [96:144] : (tensor<288xf32>) -> tensor<48xf32>
Cost: 278

Operation name: stablehlo.slice
cache miss
1957506058
%761 = stablehlo.slice %703 [0:1, 96:144] : (tensor<1x288xf32>) -> tensor<1x48xf32>
Cost: 369

Operation name: stablehlo.slice
cache miss
1957506058
%762 = stablehlo.slice %704 [0:1, 96:144] : (tensor<1x288xf32>) -> tensor<1x48xf32>
Cost: 277

Operation name: stablehlo.concatenate
cache miss
895440948
%763 = stablehlo.concatenate %761, %762, dim = 0 : (tensor<1x48xf32>, tensor<1x48xf32>) -> tensor<2x48xf32>
Cost: 370

Operation name: stablehlo.dot_general
cache miss
1097263507
%764 = stablehlo.dot_general %763, %760, contracting_dims = [1] x [0], precision = [DEFAULT, DEFAULT] : (tensor<2x48xf32>, tensor<48xf32>) -> tensor<2xf32>
Cost: 174

Operation name: stablehlo.divide
cache miss
1531341356
%765 = stablehlo.divide %764, %cst_1 : tensor<2xf32>
Cost: 179

Operation name: stablehlo.maximum
cache miss
641216813
%2733 = stablehlo.maximum %arg14, %arg15 : tensor<f32>
Cost: 278

Operation name: stablehlo.return
Cost: 0

Operation name: stablehlo.reduce
cache miss
555889745
%766 = stablehlo.reduce(%765 init: %cst_3) applies stablehlo.maximum across dimensions = [0] : (tensor<2xf32>, tensor<f32>) -> tensor<f32>
Cost: 367

Operation name: stablehlo.broadcast_in_dim
cache miss
1703569158
%767 = stablehlo.broadcast_in_dim %766, dims = [] : (tensor<f32>) -> tensor<2xf32>
Cost: 361

Operation name: stablehlo.compare
Cost: 0

Operation name: stablehlo.convert
cache miss
1629337212
%769 = stablehlo.convert %768 : (tensor<2xi1>) -> tensor<2xf32>
Cost: 171

Operation name: stablehlo.add
cache miss
1937139428
%2733 = stablehlo.add %arg14, %arg15 : tensor<f32>
Cost: 214

Operation name: stablehlo.return
Cost: 0

Operation name: stablehlo.reduce
cache miss
555889745
%770 = stablehlo.reduce(%769 init: %cst_2) applies stablehlo.add across dimensions = [0] : (tensor<2xf32>, tensor<f32>) -> tensor<f32>
Cost: 364

Operation name: stablehlo.subtract
cache miss
3818527485
%771 = stablehlo.subtract %765, %767 : tensor<2xf32>
Cost: 363

Operation name: stablehlo.exponential
cache miss
3699945286
%772 = stablehlo.exponential %771 : tensor<2xf32>
Cost: 274

Operation name: stablehlo.slice
cache miss
2078395662
%773 = stablehlo.slice %772 [0:1] : (tensor<2xf32>) -> tensor<1xf32>
Cost: 272

Operation name: stablehlo.reshape
cache miss
1900484018
%774 = stablehlo.reshape %773 : (tensor<1xf32>) -> tensor<f32>
Cost: 282

Operation name: stablehlo.slice
cache miss
4032994822
%775 = stablehlo.slice %772 [1:2] : (tensor<2xf32>) -> tensor<1xf32>
Cost: 276

Operation name: stablehlo.reshape
cache miss
1900484018
%776 = stablehlo.reshape %775 : (tensor<1xf32>) -> tensor<f32>
Cost: 270

Operation name: stablehlo.add
cache miss
1937139428
%777 = stablehlo.add %774, %776 : tensor<f32>
Cost: 525

Operation name: stablehlo.broadcast_in_dim
cache miss
1703569158
%778 = stablehlo.broadcast_in_dim %777, dims = [] : (tensor<f32>) -> tensor<2xf32>
Cost: 399

Operation name: stablehlo.divide
cache miss
1531341356
%779 = stablehlo.divide %772, %778 : tensor<2xf32>
Cost: 276

Operation name: stablehlo.multiply
cache miss
1284973678
%780 = stablehlo.multiply %777, %777 : tensor<f32>
Cost: 270

Operation name: stablehlo.divide
cache miss
719102371
%781 = stablehlo.divide %cst_7, %780 : tensor<f32>
Cost: 360

Operation name: stablehlo.slice
cache miss
1957506058
%782 = stablehlo.slice %706 [0:1, 96:144] : (tensor<1x288xf32>) -> tensor<1x48xf32>
Cost: 276

Operation name: stablehlo.slice
cache miss
1957506058
%783 = stablehlo.slice %707 [0:1, 96:144] : (tensor<1x288xf32>) -> tensor<1x48xf32>
Cost: 409

Operation name: stablehlo.concatenate
cache miss
895440948
%784 = stablehlo.concatenate %782, %783, dim = 0 : (tensor<1x48xf32>, tensor<1x48xf32>) -> tensor<2x48xf32>
Cost: 287

Operation name: stablehlo.dot_general
cache miss
2902940993
%785 = stablehlo.dot_general %784, %779, contracting_dims = [0] x [0], precision = [DEFAULT, DEFAULT] : (tensor<2x48xf32>, tensor<2xf32>) -> tensor<48xf32>
Cost: 167

Operation name: stablehlo.slice
cache miss
3469783879
%786 = stablehlo.slice %701 [144:192] : (tensor<288xf32>) -> tensor<48xf32>
Cost: 371

Operation name: stablehlo.slice
cache miss
3339692416
%787 = stablehlo.slice %703 [0:1, 144:192] : (tensor<1x288xf32>) -> tensor<1x48xf32>
Cost: 300

Operation name: stablehlo.slice
cache miss
3339692416
%788 = stablehlo.slice %704 [0:1, 144:192] : (tensor<1x288xf32>) -> tensor<1x48xf32>
Cost: 364

Operation name: stablehlo.concatenate
cache miss
895440948
%789 = stablehlo.concatenate %787, %788, dim = 0 : (tensor<1x48xf32>, tensor<1x48xf32>) -> tensor<2x48xf32>
Cost: 374

Operation name: stablehlo.dot_general
cache miss
1097263507
%790 = stablehlo.dot_general %789, %786, contracting_dims = [1] x [0], precision = [DEFAULT, DEFAULT] : (tensor<2x48xf32>, tensor<48xf32>) -> tensor<2xf32>
Cost: 278

Operation name: stablehlo.divide
cache miss
1531341356
%791 = stablehlo.divide %790, %cst_1 : tensor<2xf32>
Cost: 362

Operation name: stablehlo.maximum
cache miss
641216813
%2733 = stablehlo.maximum %arg14, %arg15 : tensor<f32>
Cost: 181

Operation name: stablehlo.return
Cost: 0

Operation name: stablehlo.reduce
cache miss
555889745
%792 = stablehlo.reduce(%791 init: %cst_3) applies stablehlo.maximum across dimensions = [0] : (tensor<2xf32>, tensor<f32>) -> tensor<f32>
Cost: 279

Operation name: stablehlo.broadcast_in_dim
cache miss
1703569158
%793 = stablehlo.broadcast_in_dim %792, dims = [] : (tensor<f32>) -> tensor<2xf32>
Cost: 174

Operation name: stablehlo.compare
Cost: 0

Operation name: stablehlo.convert
cache miss
1629337212
%795 = stablehlo.convert %794 : (tensor<2xi1>) -> tensor<2xf32>
Cost: 170

Operation name: stablehlo.add
cache miss
1937139428
%2733 = stablehlo.add %arg14, %arg15 : tensor<f32>
Cost: 365

Operation name: stablehlo.return
Cost: 0

Operation name: stablehlo.reduce
cache miss
555889745
%796 = stablehlo.reduce(%795 init: %cst_2) applies stablehlo.add across dimensions = [0] : (tensor<2xf32>, tensor<f32>) -> tensor<f32>
Cost: 385

Operation name: stablehlo.subtract
cache miss
3818527485
%797 = stablehlo.subtract %791, %793 : tensor<2xf32>
Cost: 366

Operation name: stablehlo.exponential
cache miss
3699945286
%798 = stablehlo.exponential %797 : tensor<2xf32>
Cost: 275

Operation name: stablehlo.slice
cache miss
2078395662
%799 = stablehlo.slice %798 [0:1] : (tensor<2xf32>) -> tensor<1xf32>
Cost: 304

Operation name: stablehlo.reshape
cache miss
1900484018
%800 = stablehlo.reshape %799 : (tensor<1xf32>) -> tensor<f32>
Cost: 384

Operation name: stablehlo.slice
cache miss
4032994822
%801 = stablehlo.slice %798 [1:2] : (tensor<2xf32>) -> tensor<1xf32>
Cost: 274

Operation name: stablehlo.reshape
cache miss
1900484018
%802 = stablehlo.reshape %801 : (tensor<1xf32>) -> tensor<f32>
Cost: 417

Operation name: stablehlo.add
cache miss
1937139428
%803 = stablehlo.add %800, %802 : tensor<f32>
Cost: 488

Operation name: stablehlo.broadcast_in_dim
cache miss
1703569158
%804 = stablehlo.broadcast_in_dim %803, dims = [] : (tensor<f32>) -> tensor<2xf32>
Cost: 386

Operation name: stablehlo.divide
cache miss
1531341356
%805 = stablehlo.divide %798, %804 : tensor<2xf32>
Cost: 170

Operation name: stablehlo.multiply
cache miss
1284973678
%806 = stablehlo.multiply %803, %803 : tensor<f32>
Cost: 366

Operation name: stablehlo.divide
cache miss
719102371
%807 = stablehlo.divide %cst_7, %806 : tensor<f32>
Cost: 177

Operation name: stablehlo.slice
cache miss
3339692416
%808 = stablehlo.slice %706 [0:1, 144:192] : (tensor<1x288xf32>) -> tensor<1x48xf32>
Cost: 182

Operation name: stablehlo.slice
cache miss
3339692416
%809 = stablehlo.slice %707 [0:1, 144:192] : (tensor<1x288xf32>) -> tensor<1x48xf32>
Cost: 174

Operation name: stablehlo.concatenate
cache miss
895440948
%810 = stablehlo.concatenate %808, %809, dim = 0 : (tensor<1x48xf32>, tensor<1x48xf32>) -> tensor<2x48xf32>
Cost: 306

Operation name: stablehlo.dot_general
cache miss
2902940993
%811 = stablehlo.dot_general %810, %805, contracting_dims = [0] x [0], precision = [DEFAULT, DEFAULT] : (tensor<2x48xf32>, tensor<2xf32>) -> tensor<48xf32>
Cost: 169

Operation name: stablehlo.slice
cache miss
1801550340
%812 = stablehlo.slice %701 [192:240] : (tensor<288xf32>) -> tensor<48xf32>
Cost: 276

Operation name: stablehlo.slice
cache miss
3411559083
%813 = stablehlo.slice %703 [0:1, 192:240] : (tensor<1x288xf32>) -> tensor<1x48xf32>
Cost: 176

Operation name: stablehlo.slice
cache miss
3411559083
%814 = stablehlo.slice %704 [0:1, 192:240] : (tensor<1x288xf32>) -> tensor<1x48xf32>
Cost: 298

Operation name: stablehlo.concatenate
cache miss
895440948
%815 = stablehlo.concatenate %813, %814, dim = 0 : (tensor<1x48xf32>, tensor<1x48xf32>) -> tensor<2x48xf32>
Cost: 177

Operation name: stablehlo.dot_general
cache miss
1097263507
%816 = stablehlo.dot_general %815, %812, contracting_dims = [1] x [0], precision = [DEFAULT, DEFAULT] : (tensor<2x48xf32>, tensor<48xf32>) -> tensor<2xf32>
Cost: 177

Operation name: stablehlo.divide
cache miss
1531341356
%817 = stablehlo.divide %816, %cst_1 : tensor<2xf32>
Cost: 302

Operation name: stablehlo.maximum
cache miss
641216813
%2733 = stablehlo.maximum %arg14, %arg15 : tensor<f32>
Cost: 282

Operation name: stablehlo.return
Cost: 0

Operation name: stablehlo.reduce
cache miss
555889745
%818 = stablehlo.reduce(%817 init: %cst_3) applies stablehlo.maximum across dimensions = [0] : (tensor<2xf32>, tensor<f32>) -> tensor<f32>
Cost: 273

Operation name: stablehlo.broadcast_in_dim
cache miss
1703569158
%819 = stablehlo.broadcast_in_dim %818, dims = [] : (tensor<f32>) -> tensor<2xf32>
Cost: 274

Operation name: stablehlo.compare
Cost: 0

Operation name: stablehlo.convert
cache miss
1629337212
%821 = stablehlo.convert %820 : (tensor<2xi1>) -> tensor<2xf32>
Cost: 272

Operation name: stablehlo.add
cache miss
1937139428
%2733 = stablehlo.add %arg14, %arg15 : tensor<f32>
Cost: 281

Operation name: stablehlo.return
Cost: 0

Operation name: stablehlo.reduce
cache miss
555889745
%822 = stablehlo.reduce(%821 init: %cst_2) applies stablehlo.add across dimensions = [0] : (tensor<2xf32>, tensor<f32>) -> tensor<f32>
Cost: 472

Operation name: stablehlo.subtract
cache miss
3818527485
%823 = stablehlo.subtract %817, %819 : tensor<2xf32>
Cost: 365

Operation name: stablehlo.exponential
cache miss
3699945286
%824 = stablehlo.exponential %823 : tensor<2xf32>
Cost: 271

Operation name: stablehlo.slice
cache miss
2078395662
%825 = stablehlo.slice %824 [0:1] : (tensor<2xf32>) -> tensor<1xf32>
Cost: 274

Operation name: stablehlo.reshape
cache miss
1900484018
%826 = stablehlo.reshape %825 : (tensor<1xf32>) -> tensor<f32>
Cost: 371

Operation name: stablehlo.slice
cache miss
4032994822
%827 = stablehlo.slice %824 [1:2] : (tensor<2xf32>) -> tensor<1xf32>
Cost: 274

Operation name: stablehlo.reshape
cache miss
1900484018
%828 = stablehlo.reshape %827 : (tensor<1xf32>) -> tensor<f32>
Cost: 367

Operation name: stablehlo.add
cache miss
1937139428
%829 = stablehlo.add %826, %828 : tensor<f32>
Cost: 367

Operation name: stablehlo.broadcast_in_dim
cache miss
1703569158
%830 = stablehlo.broadcast_in_dim %829, dims = [] : (tensor<f32>) -> tensor<2xf32>
Cost: 174

Operation name: stablehlo.divide
cache miss
1531341356
%831 = stablehlo.divide %824, %830 : tensor<2xf32>
Cost: 270

Operation name: stablehlo.multiply
cache miss
1284973678
%832 = stablehlo.multiply %829, %829 : tensor<f32>
Cost: 272

Operation name: stablehlo.divide
cache miss
719102371
%833 = stablehlo.divide %cst_7, %832 : tensor<f32>
Cost: 306

Operation name: stablehlo.slice
cache miss
3411559083
%834 = stablehlo.slice %706 [0:1, 192:240] : (tensor<1x288xf32>) -> tensor<1x48xf32>
Cost: 305

Operation name: stablehlo.slice
cache miss
3411559083
%835 = stablehlo.slice %707 [0:1, 192:240] : (tensor<1x288xf32>) -> tensor<1x48xf32>
Cost: 373

Operation name: stablehlo.concatenate
cache miss
895440948
%836 = stablehlo.concatenate %834, %835, dim = 0 : (tensor<1x48xf32>, tensor<1x48xf32>) -> tensor<2x48xf32>
Cost: 307

Operation name: stablehlo.dot_general
cache miss
2902940993
%837 = stablehlo.dot_general %836, %831, contracting_dims = [0] x [0], precision = [DEFAULT, DEFAULT] : (tensor<2x48xf32>, tensor<2xf32>) -> tensor<48xf32>
Cost: 506

Operation name: stablehlo.slice
cache miss
2798019243
%838 = stablehlo.slice %701 [240:288] : (tensor<288xf32>) -> tensor<48xf32>
Cost: 371

Operation name: stablehlo.slice
cache miss
1619767244
%839 = stablehlo.slice %703 [0:1, 240:288] : (tensor<1x288xf32>) -> tensor<1x48xf32>
Cost: 276

Operation name: stablehlo.slice
cache miss
1619767244
%840 = stablehlo.slice %704 [0:1, 240:288] : (tensor<1x288xf32>) -> tensor<1x48xf32>
Cost: 277

Operation name: stablehlo.concatenate
cache miss
895440948
%841 = stablehlo.concatenate %839, %840, dim = 0 : (tensor<1x48xf32>, tensor<1x48xf32>) -> tensor<2x48xf32>
Cost: 324

Operation name: stablehlo.dot_general
cache miss
1097263507
%842 = stablehlo.dot_general %841, %838, contracting_dims = [1] x [0], precision = [DEFAULT, DEFAULT] : (tensor<2x48xf32>, tensor<48xf32>) -> tensor<2xf32>
Cost: 175

Operation name: stablehlo.divide
cache miss
1531341356
%843 = stablehlo.divide %842, %cst_1 : tensor<2xf32>
Cost: 178

Operation name: stablehlo.maximum
cache miss
641216813
%2733 = stablehlo.maximum %arg14, %arg15 : tensor<f32>
Cost: 181

Operation name: stablehlo.return
Cost: 0

Operation name: stablehlo.reduce
cache miss
555889745
%844 = stablehlo.reduce(%843 init: %cst_3) applies stablehlo.maximum across dimensions = [0] : (tensor<2xf32>, tensor<f32>) -> tensor<f32>
Cost: 369

Operation name: stablehlo.broadcast_in_dim
cache miss
1703569158
%845 = stablehlo.broadcast_in_dim %844, dims = [] : (tensor<f32>) -> tensor<2xf32>
Cost: 366

Operation name: stablehlo.compare
Cost: 0

Operation name: stablehlo.convert
cache miss
1629337212
%847 = stablehlo.convert %846 : (tensor<2xi1>) -> tensor<2xf32>
Cost: 271

Operation name: stablehlo.add
cache miss
1937139428
%2733 = stablehlo.add %arg14, %arg15 : tensor<f32>
Cost: 277

Operation name: stablehlo.return
Cost: 0

Operation name: stablehlo.reduce
cache miss
555889745
%848 = stablehlo.reduce(%847 init: %cst_2) applies stablehlo.add across dimensions = [0] : (tensor<2xf32>, tensor<f32>) -> tensor<f32>
Cost: 173

Operation name: stablehlo.subtract
cache miss
3818527485
%849 = stablehlo.subtract %843, %845 : tensor<2xf32>
Cost: 242

Operation name: stablehlo.exponential
cache miss
3699945286
%850 = stablehlo.exponential %849 : tensor<2xf32>
Cost: 363

Operation name: stablehlo.slice
cache miss
2078395662
%851 = stablehlo.slice %850 [0:1] : (tensor<2xf32>) -> tensor<1xf32>
Cost: 273

Operation name: stablehlo.reshape
cache miss
1900484018
%852 = stablehlo.reshape %851 : (tensor<1xf32>) -> tensor<f32>
Cost: 277

Operation name: stablehlo.slice
cache miss
4032994822
%853 = stablehlo.slice %850 [1:2] : (tensor<2xf32>) -> tensor<1xf32>
Cost: 297

Operation name: stablehlo.reshape
cache miss
1900484018
%854 = stablehlo.reshape %853 : (tensor<1xf32>) -> tensor<f32>
Cost: 174

Operation name: stablehlo.add
cache miss
1937139428
%855 = stablehlo.add %852, %854 : tensor<f32>
Cost: 306

Operation name: stablehlo.broadcast_in_dim
cache miss
1703569158
%856 = stablehlo.broadcast_in_dim %855, dims = [] : (tensor<f32>) -> tensor<2xf32>
Cost: 390

Operation name: stablehlo.divide
cache miss
1531341356
%857 = stablehlo.divide %850, %856 : tensor<2xf32>
Cost: 365

Operation name: stablehlo.multiply
cache miss
1284973678
%858 = stablehlo.multiply %855, %855 : tensor<f32>
Cost: 278

Operation name: stablehlo.divide
cache miss
719102371
%859 = stablehlo.divide %cst_7, %858 : tensor<f32>
Cost: 274

Operation name: stablehlo.slice
cache miss
1619767244
%860 = stablehlo.slice %706 [0:1, 240:288] : (tensor<1x288xf32>) -> tensor<1x48xf32>
Cost: 376

Operation name: stablehlo.slice
cache miss
1619767244
%861 = stablehlo.slice %707 [0:1, 240:288] : (tensor<1x288xf32>) -> tensor<1x48xf32>
Cost: 279

Operation name: stablehlo.concatenate
cache miss
895440948
%862 = stablehlo.concatenate %860, %861, dim = 0 : (tensor<1x48xf32>, tensor<1x48xf32>) -> tensor<2x48xf32>
Cost: 370

Operation name: stablehlo.dot_general
cache miss
2902940993
%863 = stablehlo.dot_general %862, %857, contracting_dims = [0] x [0], precision = [DEFAULT, DEFAULT] : (tensor<2x48xf32>, tensor<2xf32>) -> tensor<48xf32>
Cost: 358

Operation name: stablehlo.concatenate
cache miss
292037604
%864 = stablehlo.concatenate %733, %759, %785, %811, %837, %863, dim = 0 : (tensor<48xf32>, tensor<48xf32>, tensor<48xf32>, tensor<48xf32>, tensor<48xf32>, tensor<48xf32>) -> tensor<288xf32>
Cost: 327

Operation name: stablehlo.slice
cache miss
1589645409
%865 = stablehlo.slice %arg8 [3:4, 0:288, 0:288] : (tensor<6x288x288xf32>) -> tensor<1x288x288xf32>
Cost: 43260

Operation name: stablehlo.reshape
cache miss
3219454195
%866 = stablehlo.reshape %865 : (tensor<1x288x288xf32>) -> tensor<288x288xf32>
Cost: 45778

Operation name: stablehlo.dot_general
cache miss
1061109412
%867 = stablehlo.dot_general %866, %864, contracting_dims = [1] x [0], precision = [DEFAULT, DEFAULT] : (tensor<288x288xf32>, tensor<288xf32>) -> tensor<288xf32>
Cost: 364

Operation name: stablehlo.add
cache miss
3847999983
%868 = stablehlo.add %674, %867 : tensor<288xf32>
Cost: 653

Operation name: stablehlo.slice
cache miss
1331838498
%869 = stablehlo.slice %arg2 [3:4, 0:288] : (tensor<6x288xf32>) -> tensor<1x288xf32>
Cost: 427

Operation name: stablehlo.reshape
cache miss
1377738304
%870 = stablehlo.reshape %869 : (tensor<1x288xf32>) -> tensor<288xf32>
Cost: 577

Operation name: stablehlo.dot_general
cache miss
2778462547
%871 = stablehlo.dot_general %868, %868, contracting_dims = [0] x [0], precision = [DEFAULT, DEFAULT] : (tensor<288xf32>, tensor<288xf32>) -> tensor<f32>
Cost: 299

Operation name: stablehlo.divide
cache miss
719102371
%872 = stablehlo.divide %871, %cst_5 : tensor<f32>
Cost: 304

Operation name: stablehlo.add
cache miss
1937139428
%873 = stablehlo.add %872, %cst_4 : tensor<f32>
Cost: 283

Operation name: stablehlo.sqrt
cache miss
1884932271
%874 = stablehlo.sqrt %873 : tensor<f32>
Cost: 300

Operation name: stablehlo.divide
cache miss
719102371
%875 = stablehlo.divide %cst_6, %874 : tensor<f32>
Cost: 180

Operation name: stablehlo.divide
cache miss
719102371
%876 = stablehlo.divide %cst_7, %874 : tensor<f32>
Cost: 313

Operation name: stablehlo.multiply
cache miss
1284973678
%877 = stablehlo.multiply %874, %874 : tensor<f32>
Cost: 273

Operation name: stablehlo.divide
cache miss
719102371
%878 = stablehlo.divide %cst_7, %877 : tensor<f32>
Cost: 528

Operation name: stablehlo.multiply
cache miss
2511610444
%879 = stablehlo.multiply %870, %868 : tensor<288xf32>
Cost: 615

Operation name: stablehlo.broadcast_in_dim
cache miss
2616490109
%880 = stablehlo.broadcast_in_dim %876, dims = [] : (tensor<f32>) -> tensor<288xf32>
Cost: 438

Operation name: stablehlo.multiply
cache miss
2511610444
%881 = stablehlo.multiply %879, %880 : tensor<288xf32>
Cost: 444

Operation name: stablehlo.slice
cache miss
3251358893
%882 = stablehlo.slice %arg4 [3:4, 0:768, 0:288] : (tensor<6x768x288xf32>) -> tensor<1x768x288xf32>
Cost: 94447

Operation name: stablehlo.reshape
cache miss
3265769957
%883 = stablehlo.reshape %882 : (tensor<1x768x288xf32>) -> tensor<768x288xf32>
Cost: 96813

Operation name: stablehlo.dot_general
cache miss
2529236298
%884 = stablehlo.dot_general %883, %881, contracting_dims = [1] x [0], precision = [DEFAULT, DEFAULT] : (tensor<768x288xf32>, tensor<288xf32>) -> tensor<768xf32>
Cost: 3694

Operation name: stablehlo.slice
cache miss
3251358893
%885 = stablehlo.slice %arg6 [3:4, 0:768, 0:288] : (tensor<6x768x288xf32>) -> tensor<1x768x288xf32>
Cost: 106048

Operation name: stablehlo.reshape
cache miss
3265769957
%886 = stablehlo.reshape %885 : (tensor<1x768x288xf32>) -> tensor<768x288xf32>
Cost: 92397

Operation name: stablehlo.dot_general
cache miss
2529236298
%887 = stablehlo.dot_general %886, %881, contracting_dims = [1] x [0], precision = [DEFAULT, DEFAULT] : (tensor<768x288xf32>, tensor<288xf32>) -> tensor<768xf32>
Cost: 5170

Operation name: stablehlo.negate
cache miss
4256221255
%888 = stablehlo.negate %884 : tensor<768xf32>
Cost: 288

Operation name: stablehlo.exponential
cache miss
6921514
%889 = stablehlo.exponential %888 : tensor<768xf32>
Cost: 288

Operation name: stablehlo.add
cache miss
389450582
%890 = stablehlo.add %cst_0, %889 : tensor<768xf32>
Cost: 315

Operation name: stablehlo.divide
cache miss
2134516102
%891 = stablehlo.divide %cst_0, %890 : tensor<768xf32>
Cost: 287

Operation name: stablehlo.multiply
cache miss
4137946040
%892 = stablehlo.multiply %890, %890 : tensor<768xf32>
Cost: 361

Operation name: stablehlo.divide
cache miss
2134516102
%893 = stablehlo.divide %cst_0, %892 : tensor<768xf32>
Cost: 440

Operation name: stablehlo.multiply
cache miss
4137946040
%894 = stablehlo.multiply %884, %891 : tensor<768xf32>
Cost: 318

Operation name: stablehlo.multiply
cache miss
4137946040
%895 = stablehlo.multiply %894, %887 : tensor<768xf32>
Cost: 305

Operation name: stablehlo.slice
cache miss
1132801721
%896 = stablehlo.slice %arg5 [3:4, 0:288, 0:768] : (tensor<6x288x768xf32>) -> tensor<1x288x768xf32>
Cost: 114047

Operation name: stablehlo.reshape
cache miss
2162077039
%897 = stablehlo.reshape %896 : (tensor<1x288x768xf32>) -> tensor<288x768xf32>
Cost: 99030

Operation name: stablehlo.dot_general
cache miss
1061109412
%898 = stablehlo.dot_general %897, %895, contracting_dims = [1] x [0], precision = [DEFAULT, DEFAULT] : (tensor<288x768xf32>, tensor<768xf32>) -> tensor<288xf32>
Cost: 5967

Operation name: stablehlo.add
cache miss
3847999983
%899 = stablehlo.add %868, %898 : tensor<288xf32>
Cost: 669

Operation name: stablehlo.slice
cache miss
1979475117
%900 = stablehlo.slice %arg1 [4:5, 0:288] : (tensor<6x288xf32>) -> tensor<1x288xf32>
Cost: 402

Operation name: stablehlo.reshape
cache miss
1377738304
%901 = stablehlo.reshape %900 : (tensor<1x288xf32>) -> tensor<288xf32>
Cost: 399

Operation name: stablehlo.dot_general
cache miss
2778462547
%902 = stablehlo.dot_general %899, %899, contracting_dims = [0] x [0], precision = [DEFAULT, DEFAULT] : (tensor<288xf32>, tensor<288xf32>) -> tensor<f32>
Cost: 176

Operation name: stablehlo.divide
cache miss
719102371
%903 = stablehlo.divide %902, %cst_5 : tensor<f32>
Cost: 383

Operation name: stablehlo.add
cache miss
1937139428
%904 = stablehlo.add %903, %cst_4 : tensor<f32>
Cost: 400

Operation name: stablehlo.sqrt
cache miss
1884932271
%905 = stablehlo.sqrt %904 : tensor<f32>
Cost: 378

Operation name: stablehlo.divide
cache miss
719102371
%906 = stablehlo.divide %cst_6, %905 : tensor<f32>
Cost: 370

Operation name: stablehlo.divide
cache miss
719102371
%907 = stablehlo.divide %cst_7, %905 : tensor<f32>
Cost: 380

Operation name: stablehlo.multiply
cache miss
1284973678
%908 = stablehlo.multiply %905, %905 : tensor<f32>
Cost: 346

Operation name: stablehlo.divide
cache miss
719102371
%909 = stablehlo.divide %cst_7, %908 : tensor<f32>
Cost: 384

Operation name: stablehlo.multiply
cache miss
2511610444
%910 = stablehlo.multiply %901, %899 : tensor<288xf32>
Cost: 398

Operation name: stablehlo.broadcast_in_dim
cache miss
2616490109
%911 = stablehlo.broadcast_in_dim %907, dims = [] : (tensor<f32>) -> tensor<288xf32>
Cost: 268

Operation name: stablehlo.multiply
cache miss
2511610444
%912 = stablehlo.multiply %910, %911 : tensor<288xf32>
Cost: 401

Operation name: stablehlo.slice
cache miss
1763605157
%913 = stablehlo.slice %arg9 [4:5, 0:288, 0:288] : (tensor<6x288x288xf32>) -> tensor<1x288x288xf32>
Cost: 69696

Operation name: stablehlo.reshape
cache miss
3219454195
%914 = stablehlo.reshape %913 : (tensor<1x288x288xf32>) -> tensor<288x288xf32>
Cost: 38884

Operation name: stablehlo.dot_general
cache miss
1061109412
%915 = stablehlo.dot_general %914, %912, contracting_dims = [1] x [0], precision = [DEFAULT, DEFAULT] : (tensor<288x288xf32>, tensor<288xf32>) -> tensor<288xf32>
Cost: 475

Operation name: stablehlo.slice
cache miss
1763605157
%916 = stablehlo.slice %arg7 [4:5, 0:288, 0:288] : (tensor<6x288x288xf32>) -> tensor<1x288x288xf32>
Cost: 41814

Operation name: stablehlo.reshape
cache miss
3219454195
%917 = stablehlo.reshape %916 : (tensor<1x288x288xf32>) -> tensor<288x288xf32>
Cost: 36971

Operation name: stablehlo.dot_general
cache miss
1061109412
%918 = stablehlo.dot_general %917, %912, contracting_dims = [1] x [0], precision = [DEFAULT, DEFAULT] : (tensor<288x288xf32>, tensor<288xf32>) -> tensor<288xf32>
Cost: 462

Operation name: stablehlo.slice
cache miss
1763605157
%919 = stablehlo.slice %arg10 [4:5, 0:288, 0:288] : (tensor<6x288x288xf32>) -> tensor<1x288x288xf32>
Cost: 47976

Operation name: stablehlo.reshape
cache miss
3219454195
%920 = stablehlo.reshape %919 : (tensor<1x288x288xf32>) -> tensor<288x288xf32>
Cost: 40607

Operation name: stablehlo.dot_general
cache miss
1061109412
%921 = stablehlo.dot_general %920, %912, contracting_dims = [1] x [0], precision = [DEFAULT, DEFAULT] : (tensor<288x288xf32>, tensor<288xf32>) -> tensor<288xf32>
Cost: 345

Operation name: stablehlo.reshape
cache miss
2392077026
%922 = stablehlo.reshape %915 : (tensor<288xf32>) -> tensor<144x2xf32>
Cost: 425

Operation name: stablehlo.reshape
cache miss
2392077026
%923 = stablehlo.reshape %918 : (tensor<288xf32>) -> tensor<144x2xf32>
Cost: 706

Operation name: stablehlo.dot_general
cache miss
865228849
%924 = stablehlo.dot_general %cst_8, %923, batching_dims = [0] x [0], contracting_dims = [2] x [1], precision = [DEFAULT, DEFAULT] : (tensor<144x2x2xf32>, tensor<144x2xf32>) -> tensor<144x2xf32>
Cost: 1024

Operation name: stablehlo.dot_general
cache miss
865228849
%925 = stablehlo.dot_general %cst_8, %922, batching_dims = [0] x [0], contracting_dims = [2] x [1], precision = [DEFAULT, DEFAULT] : (tensor<144x2x2xf32>, tensor<144x2xf32>) -> tensor<144x2xf32>
Cost: 646

Operation name: stablehlo.reshape
cache miss
1377738304
%926 = stablehlo.reshape %925 : (tensor<144x2xf32>) -> tensor<288xf32>
Cost: 587

Operation name: stablehlo.slice
cache miss
3074145628
%927 = stablehlo.slice %arg11 [4:5, 0:1, 0:288] : (tensor<6x1x288xf32>) -> tensor<1x1x288xf32>
Cost: 512

Operation name: stablehlo.reshape
cache miss
2960881163
%928 = stablehlo.reshape %927 : (tensor<1x1x288xf32>) -> tensor<1x288xf32>
Cost: 272

Operation name: stablehlo.reshape
cache miss
2960881163
%929 = stablehlo.reshape %924 : (tensor<144x2xf32>) -> tensor<1x288xf32>
Cost: 603

Operation name: stablehlo.slice
cache miss
3074145628
%930 = stablehlo.slice %arg12 [4:5, 0:1, 0:288] : (tensor<6x1x288xf32>) -> tensor<1x1x288xf32>
Cost: 408

Operation name: stablehlo.reshape
cache miss
2960881163
%931 = stablehlo.reshape %930 : (tensor<1x1x288xf32>) -> tensor<1x288xf32>
Cost: 817

Operation name: stablehlo.reshape
cache miss
2960881163
%932 = stablehlo.reshape %921 : (tensor<288xf32>) -> tensor<1x288xf32>
Cost: 273

Operation name: stablehlo.slice
cache miss
2839717066
%933 = stablehlo.slice %926 [0:48] : (tensor<288xf32>) -> tensor<48xf32>
Cost: 278

Operation name: stablehlo.slice
cache miss
3729170049
%934 = stablehlo.slice %928 [0:1, 0:48] : (tensor<1x288xf32>) -> tensor<1x48xf32>
Cost: 277

Operation name: stablehlo.slice
cache miss
3729170049
%935 = stablehlo.slice %929 [0:1, 0:48] : (tensor<1x288xf32>) -> tensor<1x48xf32>
Cost: 176

Operation name: stablehlo.concatenate
cache miss
895440948
%936 = stablehlo.concatenate %934, %935, dim = 0 : (tensor<1x48xf32>, tensor<1x48xf32>) -> tensor<2x48xf32>
Cost: 282

Operation name: stablehlo.dot_general
cache miss
1097263507
%937 = stablehlo.dot_general %936, %933, contracting_dims = [1] x [0], precision = [DEFAULT, DEFAULT] : (tensor<2x48xf32>, tensor<48xf32>) -> tensor<2xf32>
Cost: 390

Operation name: stablehlo.divide
cache miss
1531341356
%938 = stablehlo.divide %937, %cst_1 : tensor<2xf32>
Cost: 297

Operation name: stablehlo.maximum
cache miss
641216813
%2733 = stablehlo.maximum %arg14, %arg15 : tensor<f32>
Cost: 188

Operation name: stablehlo.return
Cost: 0

Operation name: stablehlo.reduce
cache miss
555889745
%939 = stablehlo.reduce(%938 init: %cst_3) applies stablehlo.maximum across dimensions = [0] : (tensor<2xf32>, tensor<f32>) -> tensor<f32>
Cost: 317

Operation name: stablehlo.broadcast_in_dim
cache miss
1703569158
%940 = stablehlo.broadcast_in_dim %939, dims = [] : (tensor<f32>) -> tensor<2xf32>
Cost: 394

Operation name: stablehlo.compare
Cost: 0

Operation name: stablehlo.convert
cache miss
1629337212
%942 = stablehlo.convert %941 : (tensor<2xi1>) -> tensor<2xf32>
Cost: 313

Operation name: stablehlo.add
cache miss
1937139428
%2733 = stablehlo.add %arg14, %arg15 : tensor<f32>
Cost: 397

Operation name: stablehlo.return
Cost: 0

Operation name: stablehlo.reduce
cache miss
555889745
%943 = stablehlo.reduce(%942 init: %cst_2) applies stablehlo.add across dimensions = [0] : (tensor<2xf32>, tensor<f32>) -> tensor<f32>
Cost: 390

Operation name: stablehlo.subtract
cache miss
3818527485
%944 = stablehlo.subtract %938, %940 : tensor<2xf32>
Cost: 282

Operation name: stablehlo.exponential
cache miss
3699945286
%945 = stablehlo.exponential %944 : tensor<2xf32>
Cost: 193

Operation name: stablehlo.slice
cache miss
2078395662
%946 = stablehlo.slice %945 [0:1] : (tensor<2xf32>) -> tensor<1xf32>
Cost: 379

Operation name: stablehlo.reshape
cache miss
1900484018
%947 = stablehlo.reshape %946 : (tensor<1xf32>) -> tensor<f32>
Cost: 290

Operation name: stablehlo.slice
cache miss
4032994822
%948 = stablehlo.slice %945 [1:2] : (tensor<2xf32>) -> tensor<1xf32>
Cost: 279

Operation name: stablehlo.reshape
cache miss
1900484018
%949 = stablehlo.reshape %948 : (tensor<1xf32>) -> tensor<f32>
Cost: 279

Operation name: stablehlo.add
cache miss
1937139428
%950 = stablehlo.add %947, %949 : tensor<f32>
Cost: 302

Operation name: stablehlo.broadcast_in_dim
cache miss
1703569158
%951 = stablehlo.broadcast_in_dim %950, dims = [] : (tensor<f32>) -> tensor<2xf32>
Cost: 341

Operation name: stablehlo.divide
cache miss
1531341356
%952 = stablehlo.divide %945, %951 : tensor<2xf32>
Cost: 282

Operation name: stablehlo.multiply
cache miss
1284973678
%953 = stablehlo.multiply %950, %950 : tensor<f32>
Cost: 399

Operation name: stablehlo.divide
cache miss
719102371
%954 = stablehlo.divide %cst_7, %953 : tensor<f32>
Cost: 287

Operation name: stablehlo.slice
cache miss
3729170049
%955 = stablehlo.slice %931 [0:1, 0:48] : (tensor<1x288xf32>) -> tensor<1x48xf32>
Cost: 277

Operation name: stablehlo.slice
cache miss
3729170049
%956 = stablehlo.slice %932 [0:1, 0:48] : (tensor<1x288xf32>) -> tensor<1x48xf32>
Cost: 296

Operation name: stablehlo.concatenate
cache miss
895440948
…
%2611 = stablehlo.add %2588, %2610 : tensor<288xf32>
Cost: 543

Operation name: stablehlo.dot_general
cache miss
3876455518
%2612 = stablehlo.dot_general %2609, %12, contracting_dims = [] x [], precision = [DEFAULT, DEFAULT] : (tensor<288xf32>, tensor<288xf32>) -> tensor<288x288xf32>
Cost: 40251

Operation name: stablehlo.reshape
cache miss
552616300
%2613 = stablehlo.reshape %2612 : (tensor<288x288xf32>) -> tensor<1x288x288xf32>
Cost: 34753

Operation name: stablehlo.concatenate
cache miss
1946357965
%2614 = stablehlo.concatenate %2613, %2399, %2187, %1975, %1763, %1551, dim = 0 : (tensor<1x288x288xf32>, tensor<1x288x288xf32>, tensor<1x288x288xf32>, tensor<1x288x288xf32>, tensor<1x288x288xf32>, tensor<1x288x288xf32>) -> tensor<6x288x288xf32>
Cost: 127325

Operation name: stablehlo.reshape
cache miss
1853321842
%2615 = stablehlo.reshape %2599 : (tensor<1x288xf32>) -> tensor<1x1x288xf32>
Cost: 459

Operation name: stablehlo.concatenate
cache miss
1648206339
%2616 = stablehlo.concatenate %2615, %2400, %2188, %1976, %1764, %1552, dim = 0 : (tensor<1x1x288xf32>, tensor<1x1x288xf32>, tensor<1x1x288xf32>, tensor<1x1x288xf32>, tensor<1x1x288xf32>, tensor<1x1x288xf32>) -> tensor<6x1x288xf32>
Cost: 511

Operation name: stablehlo.dot_general
cache miss
2229247683
%2617 = stablehlo.dot_general %52, %2460, contracting_dims = [] x [], precision = [DEFAULT, DEFAULT] : (tensor<2xf32>, tensor<48xf32>) -> tensor<2x48xf32>
Cost: 176

Operation name: stablehlo.slice
cache miss
3729170049
%2618 = stablehlo.slice %2617 [0:1, 0:48] : (tensor<2x48xf32>) -> tensor<1x48xf32>
Cost: 301

Operation name: stablehlo.slice
cache miss
3729170049
%2619 = stablehlo.slice %2565 [0:1, 0:48] : (tensor<2x48xf32>) -> tensor<1x48xf32>
Cost: 277

Operation name: stablehlo.slice
cache miss
3729170049
%2620 = stablehlo.slice %2545 [0:1, 0:48] : (tensor<2x48xf32>) -> tensor<1x48xf32>
Cost: 453

Operation name: stablehlo.slice
cache miss
3729170049
%2621 = stablehlo.slice %2525 [0:1, 0:48] : (tensor<2x48xf32>) -> tensor<1x48xf32>
Cost: 173

Operation name: stablehlo.slice
cache miss
3729170049
%2622 = stablehlo.slice %2505 [0:1, 0:48] : (tensor<2x48xf32>) -> tensor<1x48xf32>
Cost: 371

Operation name: stablehlo.slice
cache miss
3729170049
%2623 = stablehlo.slice %2485 [0:1, 0:48] : (tensor<2x48xf32>) -> tensor<1x48xf32>
Cost: 193

Operation name: stablehlo.concatenate
cache miss
3995287944
%2624 = stablehlo.concatenate %2618, %2619, %2620, %2621, %2622, %2623, dim = 1 : (tensor<1x48xf32>, tensor<1x48xf32>, tensor<1x48xf32>, tensor<1x48xf32>, tensor<1x48xf32>, tensor<1x48xf32>) -> tensor<1x288xf32>
Cost: 280

Operation name: stablehlo.slice
cache miss
342624074
%2625 = stablehlo.slice %2617 [1:2, 0:48] : (tensor<2x48xf32>) -> tensor<1x48xf32>
Cost: 174

Operation name: stablehlo.slice
cache miss
342624074
%2626 = stablehlo.slice %2565 [1:2, 0:48] : (tensor<2x48xf32>) -> tensor<1x48xf32>
Cost: 177

Operation name: stablehlo.slice
cache miss
342624074
%2627 = stablehlo.slice %2545 [1:2, 0:48] : (tensor<2x48xf32>) -> tensor<1x48xf32>
Cost: 175

Operation name: stablehlo.slice
cache miss
342624074
%2628 = stablehlo.slice %2525 [1:2, 0:48] : (tensor<2x48xf32>) -> tensor<1x48xf32>
Cost: 173

Operation name: stablehlo.slice
cache miss
342624074
%2629 = stablehlo.slice %2505 [1:2, 0:48] : (tensor<2x48xf32>) -> tensor<1x48xf32>
Cost: 371

Operation name: stablehlo.slice
cache miss
342624074
%2630 = stablehlo.slice %2485 [1:2, 0:48] : (tensor<2x48xf32>) -> tensor<1x48xf32>
Cost: 375

Operation name: stablehlo.concatenate
cache miss
3995287944
%2631 = stablehlo.concatenate %2625, %2626, %2627, %2628, %2629, %2630, dim = 1 : (tensor<1x48xf32>, tensor<1x48xf32>, tensor<1x48xf32>, tensor<1x48xf32>, tensor<1x48xf32>, tensor<1x48xf32>) -> tensor<1x288xf32>
Cost: 423

Operation name: stablehlo.reshape
cache miss
1377738304
%2632 = stablehlo.reshape %2631 : (tensor<1x288xf32>) -> tensor<288xf32>
Cost: 403

Operation name: stablehlo.dot_general
cache miss
1491685315
%2633 = stablehlo.dot_general %2632, %20, contracting_dims = [0] x [0], precision = [DEFAULT, DEFAULT] : (tensor<288xf32>, tensor<288x288xf32>) -> tensor<288xf32>
Cost: 222

Operation name: stablehlo.add
cache miss
3847999983
%2634 = stablehlo.add %2611, %2633 : tensor<288xf32>
Cost: 442

Operation name: stablehlo.multiply
cache miss
2511610444
%2635 = stablehlo.multiply %10, %2634 : tensor<288xf32>
Cost: 407

Operation name: stablehlo.add
cache miss
1937139428
%2733 = stablehlo.add %arg14, %arg15 : tensor<f32>
Cost: 193

Operation name: stablehlo.return
Cost: 0

Operation name: stablehlo.reduce
cache miss
555889745
%2636 = stablehlo.reduce(%2635 init: %cst_2) applies stablehlo.add across dimensions = [0] : (tensor<288xf32>, tensor<f32>) -> tensor<f32>
Cost: 411

Operation name: stablehlo.multiply
cache miss
1284973678
%2637 = stablehlo.multiply %2636, %9 : tensor<f32>
Cost: 324

Operation name: stablehlo.negate
cache miss
391293031
%2638 = stablehlo.negate %2637 : tensor<f32>
Cost: 405

Operation name: stablehlo.multiply
cache miss
1284973678
%2639 = stablehlo.multiply %2638, %6 : tensor<f32>
Cost: 389

Operation name: stablehlo.divide
cache miss
719102371
%2640 = stablehlo.divide %2639, %cst_5 : tensor<f32>
Cost: 300

Operation name: stablehlo.dot_general
cache miss
1413888672
%2641 = stablehlo.dot_general %2640, %arg0, contracting_dims = [] x [], precision = [DEFAULT, DEFAULT] : (tensor<f32>, tensor<288xf32>) -> tensor<288xf32>
Cost: 421

Operation name: stablehlo.add
cache miss
3847999983
%2642 = stablehlo.add %2458, %2641 : tensor<288xf32>
Cost: 403

Operation name: stablehlo.add
cache miss
3847999983
%2643 = stablehlo.add %2642, %2641 : tensor<288xf32>
Cost: 396

Operation name: stablehlo.multiply
cache miss
2511610444
%2644 = stablehlo.multiply %2634, %11 : tensor<288xf32>
Cost: 612

Operation name: stablehlo.multiply
cache miss
2511610444
%2645 = stablehlo.multiply %1, %2644 : tensor<288xf32>
Cost: 497

Operation name: stablehlo.add
cache miss
3847999983
%2646 = stablehlo.add %2643, %2645 : tensor<288xf32>
Cost: 579

Operation name: stablehlo.multiply
cache miss
2511610444
%2647 = stablehlo.multiply %2644, %arg0 : tensor<288xf32>
Cost: 512

Operation name: stablehlo.reshape
cache miss
2960881163
%2648 = stablehlo.reshape %2647 : (tensor<288xf32>) -> tensor<1x288xf32>
Cost: 406

Operation name: stablehlo.dot_general
cache miss
3876455518
%2649 = stablehlo.dot_general %2632, %12, contracting_dims = [] x [], precision = [DEFAULT, DEFAULT] : (tensor<288xf32>, tensor<288xf32>) -> tensor<288x288xf32>
Cost: 31256

Operation name: stablehlo.reshape
cache miss
552616300
%2650 = stablehlo.reshape %2649 : (tensor<288x288xf32>) -> tensor<1x288x288xf32>
Cost: 35992

Operation name: stablehlo.reshape
cache miss
1853321842
%2651 = stablehlo.reshape %2624 : (tensor<1x288xf32>) -> tensor<1x1x288xf32>
Cost: 284

Operation name: stablehlo.dot_general
cache miss
3876455518
%2652 = stablehlo.dot_general %2458, %189, contracting_dims = [] x [], precision = [DEFAULT, DEFAULT] : (tensor<288xf32>, tensor<288xf32>) -> tensor<288x288xf32>
Cost: 20769

Operation name: stablehlo.reshape
cache miss
552616300
%2653 = stablehlo.reshape %2652 : (tensor<288x288xf32>) -> tensor<1x288x288xf32>
Cost: 23236

Operation name: stablehlo.multiply
cache miss
2511610444
%2654 = stablehlo.multiply %2456, %193 : tensor<288xf32>
Cost: 565

Operation name: stablehlo.reshape
cache miss
2960881163
%2655 = stablehlo.reshape %2654 : (tensor<288xf32>) -> tensor<1x288xf32>
Cost: 537

Operation name: stablehlo.dot_general
cache miss
1743356395
%2656 = stablehlo.dot_general %2444, %206, contracting_dims = [] x [], precision = [DEFAULT, DEFAULT] : (tensor<768xf32>, tensor<288xf32>) -> tensor<768x288xf32>
Cost: 43343

Operation name: stablehlo.reshape
cache miss
1628429499
%2657 = stablehlo.reshape %2656 : (tensor<768x288xf32>) -> tensor<1x768x288xf32>
Cost: 43131

Operation name: stablehlo.dot_general
cache miss
9312040
%2658 = stablehlo.dot_general %2430, %220, contracting_dims = [] x [], precision = [DEFAULT, DEFAULT] : (tensor<288xf32>, tensor<768xf32>) -> tensor<288x768xf32>
Cost: 77044

Operation name: stablehlo.reshape
cache miss
3198799925
%2659 = stablehlo.reshape %2658 : (tensor<288x768xf32>) -> tensor<1x288x768xf32>
Cost: 59048

Operation name: stablehlo.multiply
cache miss
2511610444
%2660 = stablehlo.multiply %2428, %224 : tensor<288xf32>
Cost: 262

Operation name: stablehlo.reshape
cache miss
2960881163
%2661 = stablehlo.reshape %2660 : (tensor<288xf32>) -> tensor<1x288xf32>
Cost: 407

Operation name: stablehlo.dot_general
cache miss
3876455518
%2662 = stablehlo.dot_general %2416, %237, contracting_dims = [] x [], precision = [DEFAULT, DEFAULT] : (tensor<288xf32>, tensor<288xf32>) -> tensor<288x288xf32>
Cost: 37940

Operation name: stablehlo.reshape
cache miss
552616300
%2663 = stablehlo.reshape %2662 : (tensor<288x288xf32>) -> tensor<1x288x288xf32>
Cost: 32198

Operation name: stablehlo.reshape
cache miss
1853321842
%2664 = stablehlo.reshape %2408 : (tensor<1x288xf32>) -> tensor<1x1x288xf32>
Cost: 319

Operation name: stablehlo.dot_general
cache miss
3876455518
%2665 = stablehlo.dot_general %2245, %414, contracting_dims = [] x [], precision = [DEFAULT, DEFAULT] : (tensor<288xf32>, tensor<288xf32>) -> tensor<288x288xf32>
Cost: 43586

Operation name: stablehlo.reshape
cache miss
552616300
%2666 = stablehlo.reshape %2665 : (tensor<288x288xf32>) -> tensor<1x288x288xf32>
Cost: 43744

Operation name: stablehlo.multiply
cache miss
2511610444
%2667 = stablehlo.multiply %2243, %418 : tensor<288xf32>
Cost: 426

Operation name: stablehlo.reshape
cache miss
2960881163
%2668 = stablehlo.reshape %2667 : (tensor<288xf32>) -> tensor<1x288xf32>
Cost: 543

Operation name: stablehlo.dot_general
cache miss
1743356395
%2669 = stablehlo.dot_general %2231, %431, contracting_dims = [] x [], precision = [DEFAULT, DEFAULT] : (tensor<768xf32>, tensor<288xf32>) -> tensor<768x288xf32>
Cost: 73132

Operation name: stablehlo.reshape
cache miss
1628429499
%2670 = stablehlo.reshape %2669 : (tensor<768x288xf32>) -> tensor<1x768x288xf32>
Cost: 65431

Operation name: stablehlo.dot_general
cache miss
9312040
%2671 = stablehlo.dot_general %2218, %445, contracting_dims = [] x [], precision = [DEFAULT, DEFAULT] : (tensor<288xf32>, tensor<768xf32>) -> tensor<288x768xf32>
Cost: 54435

Operation name: stablehlo.reshape
cache miss
3198799925
%2672 = stablehlo.reshape %2671 : (tensor<288x768xf32>) -> tensor<1x288x768xf32>
Cost: 50261

Operation name: stablehlo.multiply
cache miss
2511610444
%2673 = stablehlo.multiply %2216, %449 : tensor<288xf32>
Cost: 412

Operation name: stablehlo.reshape
cache miss
2960881163
%2674 = stablehlo.reshape %2673 : (tensor<288xf32>) -> tensor<1x288xf32>
Cost: 575

Operation name: stablehlo.dot_general
cache miss
3876455518
%2675 = stablehlo.dot_general %2204, %462, contracting_dims = [] x [], precision = [DEFAULT, DEFAULT] : (tensor<288xf32>, tensor<288xf32>) -> tensor<288x288xf32>
Cost: 21879

Operation name: stablehlo.reshape
cache miss
552616300
%2676 = stablehlo.reshape %2675 : (tensor<288x288xf32>) -> tensor<1x288x288xf32>
Cost: 15664

Operation name: stablehlo.reshape
cache miss
1853321842
%2677 = stablehlo.reshape %2196 : (tensor<1x288xf32>) -> tensor<1x1x288xf32>
Cost: 281

Operation name: stablehlo.dot_general
cache miss
3876455518
%2678 = stablehlo.dot_general %2033, %639, contracting_dims = [] x [], precision = [DEFAULT, DEFAULT] : (tensor<288xf32>, tensor<288xf32>) -> tensor<288x288xf32>
Cost: 15958

Operation name: stablehlo.reshape
cache miss
552616300
%2679 = stablehlo.reshape %2678 : (tensor<288x288xf32>) -> tensor<1x288x288xf32>
Cost: 41044

Operation name: stablehlo.multiply
cache miss
2511610444
%2680 = stablehlo.multiply %2031, %643 : tensor<288xf32>
Cost: 545

Operation name: stablehlo.reshape
cache miss
2960881163
%2681 = stablehlo.reshape %2680 : (tensor<288xf32>) -> tensor<1x288xf32>
Cost: 441

Operation name: stablehlo.dot_general
cache miss
1743356395
%2682 = stablehlo.dot_general %2019, %656, contracting_dims = [] x [], precision = [DEFAULT, DEFAULT] : (tensor<768xf32>, tensor<288xf32>) -> tensor<768x288xf32>
Cost: 39760

Operation name: stablehlo.reshape
cache miss
1628429499
%2683 = stablehlo.reshape %2682 : (tensor<768x288xf32>) -> tensor<1x768x288xf32>
Cost: 71890

Operation name: stablehlo.dot_general
cache miss
9312040
%2684 = stablehlo.dot_general %2006, %670, contracting_dims = [] x [], precision = [DEFAULT, DEFAULT] : (tensor<288xf32>, tensor<768xf32>) -> tensor<288x768xf32>
Cost: 55933

Operation name: stablehlo.reshape
cache miss
3198799925
%2685 = stablehlo.reshape %2684 : (tensor<288x768xf32>) -> tensor<1x288x768xf32>
Cost: 65277

Operation name: stablehlo.multiply
cache miss
2511610444
%2686 = stablehlo.multiply %2004, %674 : tensor<288xf32>
Cost: 388

Operation name: stablehlo.reshape
cache miss
2960881163
%2687 = stablehlo.reshape %2686 : (tensor<288xf32>) -> tensor<1x288xf32>
Cost: 482

Operation name: stablehlo.dot_general
cache miss
3876455518
%2688 = stablehlo.dot_general %1992, %687, contracting_dims = [] x [], precision = [DEFAULT, DEFAULT] : (tensor<288xf32>, tensor<288xf32>) -> tensor<288x288xf32>
Cost: 40011

Operation name: stablehlo.reshape
cache miss
552616300
%2689 = stablehlo.reshape %2688 : (tensor<288x288xf32>) -> tensor<1x288x288xf32>
Cost: 17776

Operation name: stablehlo.reshape
cache miss
1853321842
%2690 = stablehlo.reshape %1984 : (tensor<1x288xf32>) -> tensor<1x1x288xf32>
Cost: 300

Operation name: stablehlo.dot_general
cache miss
3876455518
%2691 = stablehlo.dot_general %1821, %864, contracting_dims = [] x [], precision = [DEFAULT, DEFAULT] : (tensor<288xf32>, tensor<288xf32>) -> tensor<288x288xf32>
Cost: 29367

Operation name: stablehlo.reshape
cache miss
552616300
%2692 = stablehlo.reshape %2691 : (tensor<288x288xf32>) -> tensor<1x288x288xf32>
Cost: 37632

Operation name: stablehlo.multiply
cache miss
2511610444
%2693 = stablehlo.multiply %1819, %868 : tensor<288xf32>
Cost: 516

Operation name: stablehlo.reshape
cache miss
2960881163
%2694 = stablehlo.reshape %2693 : (tensor<288xf32>) -> tensor<1x288xf32>
Cost: 601

Operation name: stablehlo.dot_general
cache miss
1743356395
%2695 = stablehlo.dot_general %1807, %881, contracting_dims = [] x [], precision = [DEFAULT, DEFAULT] : (tensor<768xf32>, tensor<288xf32>) -> tensor<768x288xf32>
Cost: 66264

Operation name: stablehlo.reshape
cache miss
1628429499
%2696 = stablehlo.reshape %2695 : (tensor<768x288xf32>) -> tensor<1x768x288xf32>
Cost: 63621

Operation name: stablehlo.dot_general
cache miss
9312040
%2697 = stablehlo.dot_general %1794, %895, contracting_dims = [] x [], precision = [DEFAULT, DEFAULT] : (tensor<288xf32>, tensor<768xf32>) -> tensor<288x768xf32>
Cost: 72141

Operation name: stablehlo.reshape
cache miss
3198799925
%2698 = stablehlo.reshape %2697 : (tensor<288x768xf32>) -> tensor<1x288x768xf32>
Cost: 57307

Operation name: stablehlo.multiply
cache miss
2511610444
%2699 = stablehlo.multiply %1792, %899 : tensor<288xf32>
Cost: 409

Operation name: stablehlo.reshape
cache miss
2960881163
%2700 = stablehlo.reshape %2699 : (tensor<288xf32>) -> tensor<1x288xf32>
Cost: 414

Operation name: stablehlo.dot_general
cache miss
3876455518
%2701 = stablehlo.dot_general %1780, %912, contracting_dims = [] x [], precision = [DEFAULT, DEFAULT] : (tensor<288xf32>, tensor<288xf32>) -> tensor<288x288xf32>
Cost: 19845

Operation name: stablehlo.reshape
cache miss
552616300
%2702 = stablehlo.reshape %2701 : (tensor<288x288xf32>) -> tensor<1x288x288xf32>
Cost: 20940

Operation name: stablehlo.reshape
cache miss
1853321842
%2703 = stablehlo.reshape %1772 : (tensor<1x288xf32>) -> tensor<1x1x288xf32>
Cost: 324

Operation name: stablehlo.dot_general
cache miss
3876455518
%2704 = stablehlo.dot_general %1609, %1089, contracting_dims = [] x [], precision = [DEFAULT, DEFAULT] : (tensor<288xf32>, tensor<288xf32>) -> tensor<288x288xf32>
Cost: 21483

Operation name: stablehlo.reshape
cache miss
552616300
%2705 = stablehlo.reshape %2704 : (tensor<288x288xf32>) -> tensor<1x288x288xf32>
Cost: 25854

Operation name: stablehlo.multiply
cache miss
2511610444
%2706 = stablehlo.multiply %1607, %1093 : tensor<288xf32>
Cost: 444

Operation name: stablehlo.reshape
cache miss
2960881163
%2707 = stablehlo.reshape %2706 : (tensor<288xf32>) -> tensor<1x288xf32>
Cost: 268

Operation name: stablehlo.dot_general
cache miss
1743356395
%2708 = stablehlo.dot_general %1595, %1106, contracting_dims = [] x [], precision = [DEFAULT, DEFAULT] : (tensor<768xf32>, tensor<288xf32>) -> tensor<768x288xf32>
Cost: 49552

Operation name: stablehlo.reshape
cache miss
1628429499
%2709 = stablehlo.reshape %2708 : (tensor<768x288xf32>) -> tensor<1x768x288xf32>
Cost: 56410

Operation name: stablehlo.dot_general
cache miss
9312040
%2710 = stablehlo.dot_general %1582, %1120, contracting_dims = [] x [], precision = [DEFAULT, DEFAULT] : (tensor<288xf32>, tensor<768xf32>) -> tensor<288x768xf32>
Cost: 69218

Operation name: stablehlo.reshape
cache miss
3198799925
%2711 = stablehlo.reshape %2710 : (tensor<288x768xf32>) -> tensor<1x288x768xf32>
Cost: 39944

Operation name: stablehlo.multiply
cache miss
2511610444
%2712 = stablehlo.multiply %1580, %1124 : tensor<288xf32>
Cost: 433

Operation name: stablehlo.reshape
cache miss
2960881163
%2713 = stablehlo.reshape %2712 : (tensor<288xf32>) -> tensor<1x288xf32>
Cost: 605

Operation name: stablehlo.concatenate
cache miss
2777730774
%2714 = stablehlo.concatenate %2648, %2661, %2674, %2687, %2700, %2713, dim = 0 : (tensor<1x288xf32>, tensor<1x288xf32>, tensor<1x288xf32>, tensor<1x288xf32>, tensor<1x288xf32>, tensor<1x288xf32>) -> tensor<6x288xf32>
Cost: 1436

Operation name: stablehlo.dot_general
cache miss
3876455518
%2715 = stablehlo.dot_general %1568, %1137, contracting_dims = [] x [], precision = [DEFAULT, DEFAULT] : (tensor<288xf32>, tensor<288xf32>) -> tensor<288x288xf32>
Cost: 33806

Operation name: stablehlo.reshape
cache miss
552616300
%2716 = stablehlo.reshape %2715 : (tensor<288x288xf32>) -> tensor<1x288x288xf32>
Cost: 34342

Operation name: stablehlo.concatenate
cache miss
1946357965
%2717 = stablehlo.concatenate %2650, %2663, %2676, %2689, %2702, %2716, dim = 0 : (tensor<1x288x288xf32>, tensor<1x288x288xf32>, tensor<1x288x288xf32>, tensor<1x288x288xf32>, tensor<1x288x288xf32>, tensor<1x288x288xf32>) -> tensor<6x288x288xf32>
Cost: 160843

Operation name: stablehlo.reshape
cache miss
1853321842
%2718 = stablehlo.reshape %1560 : (tensor<1x288xf32>) -> tensor<1x1x288xf32>
Cost: 380

Operation name: stablehlo.concatenate
cache miss
1648206339
%2719 = stablehlo.concatenate %2651, %2664, %2677, %2690, %2703, %2718, dim = 0 : (tensor<1x1x288xf32>, tensor<1x1x288xf32>, tensor<1x1x288xf32>, tensor<1x1x288xf32>, tensor<1x1x288xf32>, tensor<1x1x288xf32>) -> tensor<6x1x288xf32>
Cost: 469

Operation name: stablehlo.dot_general
cache miss
3876455518
%2720 = stablehlo.dot_general %1397, %1314, contracting_dims = [] x [], precision = [DEFAULT, DEFAULT] : (tensor<288xf32>, tensor<288xf32>) -> tensor<288x288xf32>
Cost: 59896

Operation name: stablehlo.reshape
cache miss
552616300
%2721 = stablehlo.reshape %2720 : (tensor<288x288xf32>) -> tensor<1x288x288xf32>
Cost: 40905

Operation name: stablehlo.concatenate
cache miss
1946357965
%2722 = stablehlo.concatenate %2653, %2666, %2679, %2692, %2705, %2721, dim = 0 : (tensor<1x288x288xf32>, tensor<1x288x288xf32>, tensor<1x288x288xf32>, tensor<1x288x288xf32>, tensor<1x288x288xf32>,Jax2 rev (Array([… dtype=float32), {'rms_att_weight': Array([[-3.0143696e-07, -1.2328665e-07, -1.7465823e-08, ...,
        -1.4061717e-07, -1.5792592e-07, -5.4863358e-07],
       [-1.6369802e-06, -8.6754056e-07, -1.8289523e-06, ...,
        -1.0596178e-06, -1.2871564e-06, -1.0761667e-06],
       [-6.9325080e-07, -4.5352172e-07, -8.4269311e-07, ...,
        -8.1122982e-07, -1.5815522e-07,  1.1964835e-07],
       [ 5.1793427e-07, -5.5533786e-07, -2.4150373e-07, ...,
         9.4964332e-07, -1.0185217e-07, -1.0075292e-07],
       [-1.1727195e-06, -1.6750417e-06, -1.1069870e-06, ...,
        -2.1841936e-06, -2.1553085e-06, -1.5655169e-06],
       [-2.2943155e-07, -3.5378143e-08, -6.5307557e-07, ...,
        -7.1474807e-07, -5.4531517e-07,  5.6257981e-08]], dtype=float32), 'rms_ffn_weight': Array([[ 2.95414764e-04,  2.42857262e-04,  2.86784052e-04, ...,
         2.67516210e-04,  2.00823299e-04,  1.17813550e-04],
       [ 7.73553184e-05, -1.25005434e-04, -1.21706857e-04, ...,
        -1.22196643e-05, -3.80375750e-05, -1.78491362e-04],
       [-4.37740673e-04, -3.44874308e-04, -4.67159349e-04, ...,
        -4.63766919e-04, -2.63263530e-04, -3.33167176e-04],
       [ 1.32752233e-04,  9.45400825e-05,  1.38524949e-04, ...,
         1.74323704e-05,  8.29400742e-05, -2.30727273e-05],
       [-9.23259358e-05,  3.04452551e-05, -7.10105960e-05, ...,
        -1.10016546e-04, -1.20125704e-04, -1.12619549e-04],
       [ 9.48957895e-05,  2.31729471e-04,  2.89788470e-04, ...,
         3.06937902e-04,  2.39924557e-04,  1.72888089e-04]],      dtype=float32), 'rms_final_weight': Array([… dtype=float32), 'w1': Array([[[ 3.64633615e-06,  8.72685121e-07,  3.56683722e-06, ...,
          4.34024429e-07,  3.36852531e-06,  1.65969777e-06],
        [ 2.63794050e-06,  6.31343710e-07,  2.58042724e-06, ...,
          3.13994803e-07,  2.43695831e-06,  1.20070774e-06],
        [ 5.99563145e-06,  1.43494674e-06,  5.86491251e-06, ...,
          7.13661734e-07,  5.53883001e-06,  2.72902321e-06],
        ...,
        [-2.69627344e-06, -6.45304681e-07, -2.63748825e-06, ...,
         -3.20938199e-07, -2.49084701e-06, -1.22725908e-06],
        [ 4.82197811e-06,  1.15405385e-06,  4.71684734e-06, ...,
          5.73961415e-07,  4.45459636e-06,  2.19481308e-06],
        [ 2.64609454e-08,  6.33295238e-09,  2.58840345e-08, ...,
          3.14965387e-09,  2.44449119e-08,  1.20441923e-08]],

       [[ 6.17717888e-07,  1.09563098e-06,  1.04882361e-06, ...,
          8.52585856e-07,  1.04958804e-06,  1.77660084e-07],
        [ 2.71790918e-06,  4.82068845e-06,  4.61473974e-06, ...,
          3.75130958e-06,  4.61810305e-06,  7.81690176e-07],
        [ 4.20589959e-06,  7.45990064e-06,  7.14120006e-06, ...,
          5.80506230e-06,  7.14640510e-06,  1.20964694e-06],
        ...,
        [-1.76960100e-06, -3.13869759e-06, -3.00460670e-06, ...,
         -2.44243665e-06, -3.00679653e-06, -5.08949938e-07],
        [ 1.09699340e-06,  1.94571021e-06,  1.86258580e-06, ...,
          1.51409097e-06,  1.86394334e-06,  3.15503172e-07],
        [-8.96390975e-06, -1.58990661e-05, -1.52198290e-05, ...,
         -1.23721575e-05, -1.52309212e-05, -2.57808483e-06]],

       [[-1.93336447e-07, -6.80360870e-08, -4.80970357e-08, ...,
         -8.59555911e-08, -4.33284733e-08, -1.73667392e-08],
        [ 1.00252350e-06,  3.52793137e-07,  2.49401523e-07, ...,
          4.45712629e-07,  2.24674707e-07,  9.00531916e-08],
        [ 8.26453572e-08,  2.90833224e-08,  2.05599946e-08, ...,
          3.67433586e-08,  1.85215825e-08,  7.42374429e-09],
        ...,
        [-4.22935273e-06, -1.48833089e-06, -1.05215202e-06, ...,
         -1.88033107e-06, -9.47836782e-07, -3.79908016e-07],
        [ 1.25773568e-06,  4.42603607e-07,  3.12891615e-07, ...,
          5.59177579e-07,  2.81870086e-07,  1.12978007e-07],
        [-1.98665907e-06, -6.99115446e-07, -4.94228630e-07, ...,
         -8.83250152e-07, -4.45228522e-07, -1.78454655e-07]],

       [[ 1.61405887e-06,  3.88676108e-06,  1.28759098e-06, ...,
          3.81181007e-06,  2.52378095e-06,  4.18733225e-06],
        [ 1.04036246e-06,  2.50526227e-06,  8.29933413e-07, ...,
          2.45695151e-06,  1.62673564e-06,  2.69899897e-06],
        [ 2.18161540e-06,  5.25347514e-06,  1.74035063e-06, ...,
          5.15216880e-06,  3.41122609e-06,  5.65973687e-06],
        ...,
        [-4.35050924e-06, -1.04763167e-05, -3.47055288e-06, ...,
         -1.02742943e-05, -6.80256016e-06, -1.12864700e-05],
        [ 9.54388035e-09,  2.29823005e-08,  7.61348584e-09, ...,
          2.25391155e-08,  1.49230388e-08,  2.47595651e-08],
        [ 2.92645313e-06,  7.04709419e-06,  2.33453375e-06, ...,
          6.91120022e-06,  4.57587203e-06,  7.59205977e-06]],

       [[-1.22685060e-06, -3.18147659e-06, -9.29465898e-07, ...,
         -6.83750841e-07, -3.66203790e-06, -1.67669032e-06],
        [ 3.25078145e-06,  8.42994632e-06,  2.46280206e-06, ...,
          1.81173198e-06,  9.70328801e-06,  4.44272018e-06],
        [ 9.40266034e-07,  2.43830368e-06,  7.12348481e-07, ...,
          5.24030952e-07,  2.80660879e-06,  1.28502597e-06],
        ...,
        [ 2.98411942e-06,  7.73843658e-06,  2.26077805e-06, ...,
          1.66311543e-06,  8.90732554e-06,  4.07828293e-06],
        [ 4.92612116e-07,  1.27744477e-06,  3.73204472e-07, ...,
          2.74543567e-07,  1.47040259e-06,  6.73234354e-07],
        [-2.64967912e-06, -6.87116426e-06, -2.00740510e-06, ...,
         -1.47672449e-06, -7.90905142e-06, -3.62121614e-06]],

       [[ 1.07997903e-05,  1.15772727e-05,  1.09909579e-05, ...,
          2.53739813e-06,  1.04543878e-05,  5.79772086e-06],
        [-1.01716732e-05, -1.09039374e-05, -1.03517223e-05, ...,
         -2.38982284e-06, -9.84635972e-06, -5.46052479e-06],
        [-1.57906391e-06, -1.69274165e-06, -1.60701495e-06, ...,
         -3.70999231e-07, -1.52856171e-06, -8.47699027e-07],
        ...,
        [ 1.05452659e-06,  1.13044246e-06,  1.07319272e-06, ...,
          2.47759772e-07,  1.02080037e-06,  5.66108270e-07],
        [ 1.41518228e-06,  1.51706206e-06,  1.44023250e-06, ...,
          3.32495432e-07,  1.36992151e-06,  7.59721445e-07],
        [-7.34297373e-06, -7.87159843e-06, -7.47295189e-06, ...,
         -1.72522311e-06, -7.10812810e-06, -3.94197605e-06]]],      dtype=float32), 'w2': Array([[[-5.74465557e-05, -5.38376735e-05, -5.58964130e-05, ...,
         -5.03214651e-05, -5.12089464e-05, -5.16573673e-05],
        [-5.19956629e-05, -4.87292164e-05, -5.05926073e-05, ...,
         -4.55466470e-05, -4.63499164e-05, -4.67557875e-05],
        [-7.43175624e-05, -6.96488132e-05, -7.23121630e-05, ...,
         -6.50999646e-05, -6.62480743e-05, -6.68281937e-05],
        ...,
        [ 1.85051264e-04,  1.73426059e-04,  1.80057817e-04, ...,
          1.62099386e-04,  1.64958197e-04,  1.66402679e-04],
        [-1.23381105e-05, -1.15630110e-05, -1.20051773e-05, ...,
         -1.08078157e-05, -1.09984248e-05, -1.10947340e-05],
        [-1.11180387e-04, -1.04195860e-04, -1.08180284e-04, ...,
         -9.73907008e-05, -9.91082998e-05, -9.99761614e-05]],

       [[-5.27832017e-05, -5.08860903e-05, -5.84037953e-05, ...,
         -5.79213447e-05, -5.05039752e-05, -5.37620872e-05],
        [-4.73958862e-05, -4.56924026e-05, -5.24428106e-05, ...,
         -5.20096037e-05, -4.53492867e-05, -4.82748583e-05],
        [-6.78453362e-05, -6.54068645e-05, -7.50698091e-05, ...,
         -7.44496865e-05, -6.49157082e-05, -6.91035530e-05],
        ...,
        [ 1.69247956e-04,  1.63164921e-04,  1.87270241e-04, ...,
          1.85723271e-04,  1.61939679e-04,  1.72386732e-04],
        [-1.13198012e-05, -1.09129496e-05, -1.25251845e-05, ...,
         -1.24217186e-05, -1.08310014e-05, -1.15297307e-05],
        [-1.01789803e-04, -9.81313206e-05, -1.12628841e-04, ...,
         -1.11698457e-04, -9.73944261e-05, -1.03677536e-04]],

       [[-6.29638671e-05, -5.50060577e-05, -5.62734313e-05, ...,
         -5.55980114e-05, -5.51145604e-05, -5.87623581e-05],
        [-5.67860588e-05, -4.96090433e-05, -5.07520672e-05, ...,
         -5.01429167e-05, -4.97069013e-05, -5.29967911e-05],
        [-8.12159269e-05, -7.09512897e-05, -7.25860591e-05, ...,
         -7.17148432e-05, -7.10912500e-05, -7.57964735e-05],
        ...,
        [ 2.02039228e-04,  1.76504109e-04,  1.80570874e-04, ...,
          1.78403585e-04,  1.76852278e-04,  1.88557373e-04],
        [-1.37589886e-05, -1.20200320e-05, -1.22969814e-05, ...,
         -1.21493867e-05, -1.20437426e-05, -1.28408665e-05],
        [-1.21824298e-04, -1.06427295e-04, -1.08879452e-04, ...,
         -1.07572625e-04, -1.06637235e-04, -1.13695096e-04]],

       [[-5.23333874e-05, -4.88984006e-05, -5.27251104e-05, ...,
         -5.09480342e-05, -4.80538692e-05, -4.87045327e-05],
        [-4.72214706e-05, -4.41220109e-05, -4.75749293e-05, ...,
         -4.59714392e-05, -4.33599707e-05, -4.39470787e-05],
        [-6.74981347e-05, -6.30677823e-05, -6.80033700e-05, ...,
         -6.57113487e-05, -6.19785278e-05, -6.28177368e-05],
        ...,
        [ 1.67982813e-04,  1.56956987e-04,  1.69240186e-04, ...,
          1.63536024e-04,  1.54246154e-04,  1.56334689e-04],
        [-1.14248487e-05, -1.06749594e-05, -1.15103649e-05, ...,
         -1.11224135e-05, -1.04905912e-05, -1.06326370e-05],
        [-1.01212929e-04, -9.45696520e-05, -1.01970523e-04, ...,
         -9.85336592e-05, -9.29363232e-05, -9.41947146e-05]],

       [[-5.49333417e-05, -4.95117929e-05, -5.46458905e-05, ...,
         -5.63307367e-05, -6.19458006e-05, -6.00997482e-05],
        [-4.96023931e-05, -4.47069724e-05, -4.93428379e-05, ...,
         -5.08641824e-05, -5.59343389e-05, -5.42674316e-05],
        [-7.08599182e-05, -6.38665224e-05, -7.04891281e-05, ...,
         -7.26624567e-05, -7.99054687e-05, -7.75241933e-05],
        ...,
        [ 1.76331247e-04,  1.58928538e-04,  1.75408553e-04, ...,
          1.80816758e-04,  1.98840644e-04,  1.92914958e-04],
        [-1.19392580e-05, -1.07609339e-05, -1.18767830e-05, ...,
         -1.22429692e-05, -1.34633528e-05, -1.30621293e-05],
        [-1.06232139e-04, -9.57477459e-05, -1.05676263e-04, ...,
         -1.08934481e-04, -1.19793105e-04, -1.16223127e-04]],

       [[-5.45921284e-05, -5.96108148e-05, -5.57108215e-05, ...,
         -5.79298212e-05, -5.71885976e-05, -5.48706012e-05],
        [-4.93639964e-05, -5.39020584e-05, -5.03755582e-05, ...,
         -5.23820490e-05, -5.17118133e-05, -4.96158027e-05],
        [-7.05126222e-05, -7.69948892e-05, -7.19575546e-05, ...,
         -7.48236780e-05, -7.38662930e-05, -7.08723092e-05],
        ...,
        [ 1.75282272e-04,  1.91396073e-04,  1.78874136e-04, ...,
          1.85998812e-04,  1.83618919e-04,  1.76176385e-04],
        [-1.19150491e-05, -1.30104063e-05, -1.21592111e-05, ...,
         -1.26435207e-05, -1.24817443e-05, -1.19758279e-05],
        [-1.05577041e-04, -1.15282797e-04, -1.07740510e-04, ...,
         -1.12031885e-04, -1.10598419e-04, -1.06115585e-04]]],      dtype=float32), 'w3': Array([[[ 3.5490775e-06,  8.4940797e-07,  3.4716991e-06, ...,
          4.2244770e-07,  3.2786768e-06,  1.6154287e-06],
        [ 2.7477595e-06,  6.5762691e-07,  2.6878517e-06, ...,
          3.2706660e-07,  2.5384104e-06,  1.2506939e-06],
        [ 5.3019940e-06,  1.2689371e-06,  5.1863981e-06, ...,
          6.3109786e-07,  4.8980405e-06,  2.4133012e-06],
        ...,
        [-2.5464431e-06, -6.0944546e-07, -2.4909245e-06, ...,
         -3.0310386e-07, -2.3524321e-06, -1.1590610e-06],
        [ 4.5189145e-06,  1.0815211e-06,  4.4203916e-06, ...,
          5.3788767e-07,  4.1746230e-06,  2.0568682e-06],
        [ 2.6770024e-08,  6.4069248e-09,  2.6186374e-08, ...,
          3.1864436e-09,  2.4730442e-08,  1.2184874e-08]],

       [[ 6.6705354e-07,  1.1831364e-06,  1.1325907e-06, ...,
          9.2067989e-07,  1.1334162e-06,  1.9184938e-07],
        [ 2.3132554e-06,  4.1029639e-06,  3.9276779e-06, ...,
          3.1927987e-06,  3.9305405e-06,  6.6530885e-07],
        [ 3.9754595e-06,  7.0511746e-06,  6.7499354e-06, ...,
          5.4870043e-06,  6.7548553e-06,  1.1433707e-06],
        ...,
        [-1.8314257e-06, -3.2483547e-06, -3.1095790e-06, ...,
         -2.5277684e-06, -3.1118454e-06, -5.2673118e-07],
        [ 1.1988182e-06,  2.1263140e-06,  2.0354742e-06, ...,
          1.6546313e-06,  2.0369575e-06,  3.4478867e-07],
        [-9.2805594e-06, -1.6460699e-05, -1.5757467e-05, ...,
         -1.2809203e-05, -1.5768952e-05, -2.6691553e-06]],

       [[-1.9254314e-07, -6.7756915e-08, -4.7899679e-08, ...,
         -8.5602892e-08, -4.3150685e-08, -1.7295479e-08],
        [ 9.8565999e-07,  3.4685877e-07,  2.4520634e-07, ...,
          4.3821527e-07,  2.2089544e-07,  8.8538393e-08],
        [ 8.2081016e-08,  2.8884729e-08,  2.0419604e-08, ...,
          3.6492459e-08,  1.8395109e-08,  7.3730515e-09],
        ...,
        [-4.2611964e-06, -1.4995367e-06, -1.0600738e-06, ...,
         -1.8944883e-06, -9.5497319e-07, -3.8276841e-07],
        [ 1.3054347e-06,  4.5938916e-07,  3.2475791e-07, ...,
          5.8038415e-07,  2.9255989e-07,  1.1726265e-07],
        [-1.9165298e-06, -6.7443659e-07, -4.7678228e-07, ...,
         -8.5207131e-07, -4.2951189e-07, -1.7215518e-07]],

       [[ 1.7120665e-06,  4.1227700e-06,  1.3657750e-06, ...,
          4.0432678e-06,  2.6770281e-06,  4.4415920e-06],
        [ 1.0612503e-06,  2.5555612e-06,  8.4659627e-07, ...,
          2.5062807e-06,  1.6593963e-06,  2.7531878e-06],
        [ 1.9702500e-06,  4.7444933e-06,  1.5717370e-06, ...,
          4.6530017e-06,  3.0807300e-06,  5.1113943e-06],
        ...,
        [-4.3448213e-06, -1.0462620e-05, -3.4660154e-06, ...,
         -1.0260861e-05, -6.7936667e-06, -1.1271714e-05],
        [ 9.7296962e-09,  2.3429756e-08,  7.7617175e-09, ...,
          2.2977945e-08,  1.5213585e-08,  2.5241626e-08],
        [ 3.0418371e-06,  7.3249462e-06,  2.4265794e-06, ...,
          7.1836944e-06,  4.7562889e-06,  7.8913981e-06]],

       [[-1.1891536e-06, -3.0837207e-06, -9.0090657e-07, ...,
         -6.6274151e-07, -3.5495161e-06, -1.6251713e-06],
        [ 3.3974245e-06,  8.8102224e-06,  2.5738996e-06, ...,
          1.8934595e-06,  1.0141005e-05,  4.6431319e-06],
        [ 9.6939925e-07,  2.5138522e-06,  7.3441993e-07, ...,
          5.4026754e-07,  2.8935690e-06,  1.3248413e-06],
        ...,
        [ 3.1900177e-06,  8.2723736e-06,  2.4167673e-06, ...,
          1.7778671e-06,  9.5219139e-06,  4.3596765e-06],
        [ 5.0431458e-07,  1.3077916e-06,  3.8207031e-07, ...,
          2.8106561e-07,  1.5053333e-06,  6.8922765e-07],
        [-2.6572388e-06, -6.8907680e-06, -2.0131324e-06, ...,
         -1.4809377e-06, -7.9316169e-06, -3.6315478e-06]],

       [[ 1.0838507e-05,  1.1618777e-05,  1.1030359e-05, ...,
          2.5464944e-06,  1.0491865e-05,  5.8185051e-06],
        [-9.9084527e-06, -1.0621768e-05, -1.0083842e-05, ...,
         -2.3279795e-06, -9.5915566e-06, -5.3192184e-06],
        [-1.5034987e-06, -1.6117364e-06, -1.5301122e-06, ...,
         -3.5324527e-07, -1.4554133e-06, -8.0713289e-07],
        ...,
        [ 9.9419424e-07,  1.0657668e-06,  1.0117925e-06, ...,
          2.3358479e-07,  9.6239762e-07,  5.3371969e-07],
        [ 1.3294299e-06,  1.4251364e-06,  1.3529623e-06, ...,
          3.1234802e-07,  1.2869117e-06,  7.1368646e-07],
        [-6.6477387e-06, -7.1263130e-06, -6.7654105e-06, ...,
         -1.5618784e-06, -6.4351284e-06, -3.5687483e-06]]], dtype=float32), 'wcls': Array([[0., 0., 0., ..., 0., 0., 0.],
       [0., 0., 0., ..., 0., 0., 0.],
       [0., 0., 0., ..., 0., 0., 0.],
       ...,
       [0., 0., 0., ..., 0., 0., 0.],
       [0., 0., 0., ..., 0., 0., 0.],
       [0., 0., 0., ..., 0., 0., 0.]], dtype=float32), 'wk': Array([[[0., 0., 0., ..., 0., 0., 0.],
        [0., 0., 0., ..., 0., 0., 0.],
        [0., 0., 0., ..., 0., 0., 0.],
        ...,
        [0., 0., 0., ..., 0., 0., 0.],
        [0., 0., 0., ..., 0., 0., 0.],
        [0., 0., 0., ..., 0., 0., 0.]],

       [[0., 0., 0., ..., 0., 0., 0.],
        [0., 0., 0., ..., 0., 0., 0.],
        [0., 0., 0., ..., 0., 0., 0.],
        ...,
        [0., 0., 0., ..., 0., 0., 0.],
        [0., 0., 0., ..., 0., 0., 0.],
        [0., 0., 0., ..., 0., 0., 0.]],

       [[0., 0., 0., ..., 0., 0., 0.],
        [0., 0., 0., ..., 0., 0., 0.],
        [0., 0., 0., ..., 0., 0., 0.],
        ...,
        [0., 0., 0., ..., 0., 0., 0.],
        [0., 0., 0., ..., 0., 0., 0.],
        [0., 0., 0., ..., 0., 0., 0.]],

       [[0., 0., 0., ..., 0., 0., 0.],
        [0., 0., 0., ..., 0., 0., 0.],
        [0., 0., 0., ..., 0., 0., 0.],
        ...,
        [0., 0., 0., ..., 0., 0., 0.],
        [0., 0., 0., ..., 0., 0., 0.],
        [0., 0., 0., ..., 0., 0., 0.]],

       [[0., 0., 0., ..., 0., 0., 0.],
        [0., 0., 0., ..., 0., 0., 0.],
        [0., 0., 0., ..., 0., 0., 0.],
        ...,
        [0., 0., 0., ..., 0., 0., 0.],
        [0., 0., 0., ..., 0., 0., 0.],
        [0., 0., 0., ..., 0., 0., 0.]],

       [[0., 0., 0., ..., 0., 0., 0.],
        [0., 0., 0., ..., 0., 0., 0.],
        [0., 0., 0., ..., 0., 0., 0.],
        ...,
        [0., 0., 0., ..., 0., 0., 0.],
        [0., 0., 0., ..., 0., 0., 0.],
        [0., 0., 0., ..., 0., 0., 0.]]], dtype=float32), 'wo': Array([[[ 2.5211170e-07,  2.6817838e-07,  2.6122720e-07, ...,
          2.5612391e-07,  2.4704889e-07,  2.6379772e-07],
        [-9.1684535e-07, -9.7527436e-07, -9.4999530e-07, ...,
         -9.3143638e-07, -8.9843360e-07, -9.5934342e-07],
        [-7.3938693e-08, -7.8650679e-08, -7.6612054e-08, ...,
         -7.5115381e-08, -7.2453879e-08, -7.7365932e-08],
        ...,
        [ 1.6139436e-06,  1.7167976e-06,  1.6722981e-06, ...,
          1.6396285e-06,  1.5815330e-06,  1.6887539e-06],
        [ 7.8728803e-08,  8.3746059e-08,  8.1575365e-08, ...,
          7.9981724e-08,  7.7147803e-08,  8.2378079e-08],
        [-1.7059546e-06, -1.8146721e-06, -1.7676358e-06, ...,
         -1.7331038e-06, -1.6716962e-06, -1.7850297e-06]],

       [[-7.4160255e-07, -6.9608097e-07, -7.4464560e-07, ...,
         -7.3699795e-07, -7.0854247e-07, -7.5860277e-07],
        [-6.7127183e-07, -6.3006735e-07, -6.7402630e-07, ...,
         -6.6710396e-07, -6.4134707e-07, -6.8665986e-07],
        [-9.5938697e-07, -9.0049713e-07, -9.6332360e-07, ...,
         -9.5343012e-07, -9.1661821e-07, -9.8137957e-07],
        ...,
        [ 2.3889731e-06,  2.2423314e-06,  2.3987759e-06, ...,
          2.3741402e-06,  2.2824747e-06,  2.4437372e-06],
        [-1.5926791e-07, -1.4949161e-07, -1.5992144e-07, ...,
         -1.5827902e-07, -1.5216789e-07, -1.6291891e-07],
        [-1.4353344e-06, -1.3472296e-06, -1.4412241e-06, ...,
         -1.4264225e-06, -1.3713483e-06, -1.4682374e-06]],

       [[-7.6595751e-07, -7.4974855e-07, -7.9625852e-07, ...,
         -7.5697875e-07, -7.5542829e-07, -7.7191658e-07],
        [-6.8777882e-07, -6.7322424e-07, -7.1498715e-07, ...,
         -6.7971649e-07, -6.7832428e-07, -6.9312966e-07],
        [-9.8451960e-07, -9.6368547e-07, -1.0234669e-06, ...,
         -9.7297880e-07, -9.7098587e-07, -9.9217903e-07],
        ...,
        [ 2.4560272e-06,  2.4040535e-06,  2.5531870e-06, ...,
          2.4272372e-06,  2.4222654e-06,  2.4751350e-06],
        [-1.6426739e-07, -1.6079120e-07, -1.7076576e-07, ...,
         -1.6234181e-07, -1.6200929e-07, -1.6554537e-07],
        [-1.4771156e-06, -1.4458573e-06, -1.5355498e-06, ...,
         -1.4598004e-06, -1.4568103e-06, -1.4886074e-06]],

       [[-7.5559569e-07, -7.3336469e-07, -8.4079471e-07, ...,
         -7.8980622e-07, -8.3589470e-07, -7.9112533e-07],
        [-6.8145312e-07, -6.6140353e-07, -7.5829206e-07, ...,
         -7.1230676e-07, -7.5387283e-07, -7.1349643e-07],
        [-9.7462794e-07, -9.4595254e-07, -1.0845245e-06, ...,
         -1.0187554e-06, -1.0782039e-06, -1.0204569e-06],
        ...,
        [ 2.4245667e-06,  2.3532314e-06,  2.6979546e-06, ...,
          2.5343420e-06,  2.6822313e-06,  2.5385748e-06],
        [-1.6511213e-07, -1.6025422e-07, -1.8372974e-07, ...,
         -1.7258778e-07, -1.8265899e-07, -1.7287603e-07],
        [-1.4619472e-06, -1.4189339e-06, -1.6267926e-06, ...,
         -1.5281387e-06, -1.6173119e-06, -1.5306910e-06]],

       [[-7.1280272e-07, -7.6736785e-07, -7.6152338e-07, ...,
         -7.0458771e-07, -7.8551102e-07, -7.5898555e-07],
        [-6.4317248e-07, -6.9240741e-07, -6.8713382e-07, ...,
         -6.3575993e-07, -7.0877826e-07, -6.8484388e-07],
        [-9.1934436e-07, -9.8972032e-07, -9.8218231e-07, ...,
         -9.0874897e-07, -1.0131206e-06, -9.7890904e-07],
        ...,
        [ 2.2879751e-06,  2.4631199e-06,  2.4443602e-06, ...,
          2.2616064e-06,  2.5213565e-06,  2.4362141e-06],
        [-1.5560721e-07, -1.6751898e-07, -1.6624310e-07, ...,
         -1.5381386e-07, -1.7147968e-07, -1.6568907e-07],
        [-1.3785524e-06, -1.4840807e-06, -1.4727776e-06, ...,
         -1.3626646e-06, -1.5191694e-06, -1.4678693e-06]],

       [[-6.9852308e-07, -6.9982849e-07, -6.9935174e-07, ...,
         -7.2070242e-07, -7.0936545e-07, -7.6198722e-07],
        [-6.3073657e-07, -6.3191533e-07, -6.3148480e-07, ...,
         -6.5076358e-07, -6.4052682e-07, -6.8804201e-07],
        [-9.0104254e-07, -9.0272641e-07, -9.0211142e-07, ...,
         -9.2965223e-07, -9.1502841e-07, -9.8290661e-07],
        ...,
        [ 2.2422000e-06,  2.2463903e-06,  2.2448598e-06, ...,
          2.3133937e-06,  2.2770032e-06,  2.4459146e-06],
        [-1.5181728e-07, -1.5210099e-07, -1.5199737e-07, ...,
         -1.5663774e-07, -1.5417376e-07, -1.6561060e-07],
        [-1.3508316e-06, -1.3533560e-06, -1.3524340e-06, ...,
         -1.3937228e-06, -1.3717989e-06, -1.4735610e-06]]], dtype=float32), 'wq': Array([[[0., 0., 0., ..., 0., 0., 0.],
        [0., 0., 0., ..., 0., 0., 0.],
        [0., 0., 0., ..., 0., 0., 0.],
        ...,
        [0., 0., 0., ..., 0., 0., 0.],
        [0., 0., 0., ..., 0., 0., 0.],
        [0., 0., 0., ..., 0., 0., 0.]],

       [[0., 0., 0., ..., 0., 0., 0.],
        [0., 0., 0., ..., 0., 0., 0.],
        [0., 0., 0., ..., 0., 0., 0.],
        ...,
        [0., 0., 0., ..., 0., 0., 0.],
        [0., 0., 0., ..., 0., 0., 0.],
        [0., 0., 0., ..., 0., 0., 0.]],

       [[0., 0., 0., ..., 0., 0., 0.],
        [0., 0., 0., ..., 0., 0., 0.],
        [0., 0., 0., ..., 0., 0., 0.],
        ...,
        [0., 0., 0., ..., 0., 0., 0.],
        [0., 0., 0., ..., 0., 0., 0.],
        [0., 0., 0., ..., 0., 0., 0.]],

       [[0., 0., 0., ..., 0., 0., 0.],
        [0., 0., 0., ..., 0., 0., 0.],
        [0., 0., 0., ..., 0., 0., 0.],
        ...,
        [0., 0., 0., ..., 0., 0., 0.],
        [0., 0., 0., ..., 0., 0., 0.],
        [0., 0., 0., ..., 0., 0., 0.]],

       [[0., 0., 0., ..., 0., 0., 0.],
        [0., 0., 0., ..., 0., 0., 0.],
        [0., 0., 0., ..., 0., 0., 0.],
        ...,
        [0., 0., 0., ..., 0., 0., 0.],
        [0., 0., 0., ..., 0., 0., 0.],
        [0., 0., 0., ..., 0., 0., 0.]],

       [[0., 0., 0., ..., 0., 0., 0.],
        [0., 0., 0., ..., 0., 0., 0.],
        [0., 0., 0., ..., 0., 0., 0.],
        ...,
        [0., 0., 0., ..., 0., 0., 0.],
        [0., 0., 0., ..., 0., 0., 0.],
        [0., 0., 0., ..., 0., 0., 0.]]], dtype=float32), 'wv': Array([[[ 8.33273450e-09,  3.17081650e-08,  1.31639965e-07, ...,
          3.71325157e-08,  1.14651563e-07,  1.41336827e-07],
        [-5.48908363e-10, -2.08873518e-09, -8.67161631e-09, ...,
         -2.44605736e-09, -7.55252660e-09, -9.31038446e-09],
        [-3.52132046e-10, -1.33995148e-09, -5.56295765e-09, ...,
         -1.56917856e-09, -4.84504659e-09, -5.97273608e-09],
        ...,
        [ 3.26836269e-09,  1.24369466e-08,  5.16333678e-08, ...,
          1.45645496e-08,  4.49699762e-08,  5.54367823e-08],
        [-3.82936260e-09, -1.45716932e-08, -6.04960064e-08, ...,
         -1.70644903e-08, -5.26888719e-08, -6.49522605e-08],
        [ 4.67006744e-09,  1.77707875e-08,  7.37774002e-08, ...,
          2.08108570e-08,  6.42562838e-08,  7.92119934e-08]],

       [[ 8.92418299e-08,  2.81410006e-08,  1.04813047e-07, ...,
          2.29284804e-08,  8.77959536e-08,  3.70077409e-08],
        [-8.53703384e-08, -2.69201870e-08, -1.00266043e-07, ...,
         -2.19337952e-08, -8.39871888e-08, -3.54022696e-08],
        [-1.01619402e-09, -3.20440730e-10, -1.19350296e-09, ...,
         -2.61085903e-10, -9.99729854e-10, -4.21406021e-10],
        ...,
        [ 1.55103237e-08,  4.89093566e-09,  1.82166175e-08, ...,
          3.98499411e-09,  1.52590296e-08,  6.43198428e-09],
        [-6.92746340e-08, -2.18446630e-08, -8.13619039e-08, ...,
         -1.77984045e-08, -6.81522678e-08, -2.87275341e-08],
        [-5.58610367e-08, -1.76148962e-08, -6.56078569e-08, ...,
         -1.43521115e-08, -5.49559900e-08, -2.31650432e-08]],

       [[-1.03414184e-08, -2.38561952e-08, -4.19625970e-08, ...,
         -1.85441991e-08, -2.38427145e-08, -2.57376076e-08],
        [ 1.53663073e-08,  3.54479042e-08,  6.23521927e-08, ...,
          2.75548135e-08,  3.54278740e-08,  3.82434919e-08],
        [ 2.45966021e-08,  5.67408946e-08,  9.98061580e-08, ...,
          4.41065495e-08,  5.67088350e-08,  6.12157507e-08],
        ...,
        [-2.26730901e-09, -5.23036192e-09, -9.20010823e-09, ...,
         -4.06573131e-09, -5.22740651e-09, -5.64285330e-09],
        [-1.50363799e-09, -3.46868068e-09, -6.10134387e-09, ...,
         -2.69631872e-09, -3.46672069e-09, -3.74223719e-09],
        [-5.25526289e-09, -1.21231505e-08, -2.13243929e-08, ...,
         -9.42372047e-09, -1.21163000e-08, -1.30792399e-08]],

       [[-3.51821718e-08, -1.46095033e-07, -6.23099528e-09, ...,
         -2.80888859e-08, -8.54807638e-08, -9.40197609e-08],
        [ 2.19111591e-08,  9.09867452e-08,  3.88061094e-09, ...,
          1.74935195e-08,  5.32366933e-08,  5.85547077e-08],
        [-1.05956994e-08, -4.39989627e-08, -1.87656846e-09, ...,
         -8.45943759e-09, -2.57439616e-08, -2.83156218e-08],
        ...,
        [-2.85509654e-11, -1.18558746e-10, -5.05656454e-12, ...,
         -2.27946342e-11, -6.93691701e-11, -7.62987243e-11],
        [-1.16440768e-08, -4.83523799e-08, -2.06224282e-09, ...,
         -9.29644539e-09, -2.82911632e-08, -3.11172741e-08],
        [-2.45677150e-08, -1.02018170e-07, -4.35110437e-09, ...,
         -1.96144700e-08, -5.96912244e-08, -6.56540067e-08]],

       [[-8.10783263e-09, -2.19628369e-08, -5.13717531e-08, ...,
         -2.78277379e-09, -2.97822993e-08, -3.15677724e-08],
        [ 1.68333401e-08,  4.55988598e-08,  1.06657140e-07, ...,
          5.77754644e-09,  6.18334894e-08,  6.55404619e-08],
        [ 2.82066654e-08,  7.64074031e-08,  1.78719276e-07, ...,
          9.68110481e-09,  1.03610844e-07,  1.09822409e-07],
        ...,
        [ 1.28267896e-09,  3.47457485e-09,  8.12713807e-09, ...,
          4.40241676e-10,  4.71163286e-09,  4.99409936e-09],
        [ 7.93404953e-10,  2.14920859e-09,  5.02706543e-09, ...,
          2.72312811e-10,  2.91439473e-09,  3.08911519e-09],
        [ 8.42940917e-09,  2.28339374e-08,  5.34092841e-08, ...,
          2.89314550e-09,  3.09635375e-08,  3.28198304e-08]],

       [[ 1.68797047e-08,  1.01267938e-09,  7.71280018e-09, ...,
          5.63233726e-09,  7.93342014e-09,  1.14855983e-08],
        [-4.72173625e-08, -2.83275381e-09, -2.15749072e-08, ...,
         -1.57552584e-08, -2.21920438e-08, -3.21285043e-08],
        [ 9.21601551e-09,  5.52904778e-10,  4.21105018e-09, ...,
          3.07515480e-09,  4.33150449e-09,  6.27093044e-09],
        ...,
        [ 4.72499515e-08,  2.83470913e-09,  2.15897984e-08, ...,
          1.57661333e-08,  2.22073613e-08,  3.21506803e-08],
        [-1.35296252e-09, -8.11695017e-11, -6.18205653e-10, ...,
         -4.51449905e-10, -6.35889064e-10, -9.20607590e-10],
        [ 7.78290996e-08,  4.66927164e-09,  3.55622518e-08, ...,
          2.59696336e-08,  3.65794861e-08,  5.29579047e-08]]],      dtype=float32)}, Array([[[-0.,  0.,  0., ...,  0.,  0.,  0.]],

       [[-0.,  0.,  0., ...,  0.,  0.,  0.]],

       [[-0.,  0.,  0., ...,  0.,  0.,  0.]],

       [[-0.,  0.,  0., ...,  0.,  0.,  0.]],

       [[-0.,  0.,  0., ...,  0.,  0.,  0.]],

       [[-0.,  0.,  0., ...,  0.,  0.,  0.]]], dtype=float32), Array([[[ 0., -0., -0., ...,  0., -0.,  0.]],

       [[ 0., -0., -0., ...,  0., -0., -0.]],

       [[-0.,  0.,  0., ..., -0., -0., -0.]],

       [[-0.,  0., -0., ..., -0., -0., -0.]],

       [[-0.,  0.,  0., ...,  0.,  0.,  0.]],

       [[ 0., -0.,  0., ...,  0., -0.,  0.]]], dtype=float32))
 tensor<1x288x288xf32>) -> tensor<6x288x288xf32>
Cost: 113466

Operation name: stablehlo.multiply
cache miss
2511610444
%2723 = stablehlo.multiply %1395, %1318 : tensor<288xf32>
Cost: 274

Operation name: stablehlo.reshape
cache miss
2960881163
%2724 = stablehlo.reshape %2723 : (tensor<288xf32>) -> tensor<1x288xf32>
Cost: 413

Operation name: stablehlo.concatenate
cache miss
2777730774
%2725 = stablehlo.concatenate %2655, %2668, %2681, %2694, %2707, %2724, dim = 0 : (tensor<1x288xf32>, tensor<1x288xf32>, tensor<1x288xf32>, tensor<1x288xf32>, tensor<1x288xf32>, tensor<1x288xf32>) -> tensor<6x288xf32>
Cost: 611

Operation name: stablehlo.dot_general
cache miss
1743356395
%2726 = stablehlo.dot_general %1383, %1331, contracting_dims = [] x [], precision = [DEFAULT, DEFAULT] : (tensor<768xf32>, tensor<288xf32>) -> tensor<768x288xf32>
Cost: 76402

Operation name: stablehlo.reshape
cache miss
1628429499
%2727 = stablehlo.reshape %2726 : (tensor<768x288xf32>) -> tensor<1x768x288xf32>
Cost: 75716

Operation name: stablehlo.concatenate
cache miss
2658928759
%2728 = stablehlo.concatenate %2657, %2670, %2683, %2696, %2709, %2727, dim = 0 : (tensor<1x768x288xf32>, tensor<1x768x288xf32>, tensor<1x768x288xf32>, tensor<1x768x288xf32>, tensor<1x768x288xf32>, tensor<1x768x288xf32>) -> tensor<6x768x288xf32>
Cost: 265104

Operation name: stablehlo.dot_general
cache miss
9312040
%2729 = stablehlo.dot_general %1370, %1345, contracting_dims = [] x [], precision = [DEFAULT, DEFAULT] : (tensor<288xf32>, tensor<768xf32>) -> tensor<288x768xf32>
Cost: 76564

Operation name: stablehlo.reshape
cache miss
3198799925
%2730 = stablehlo.reshape %2729 : (tensor<288x768xf32>) -> tensor<1x288x768xf32>
Cost: 95366

Operation name: stablehlo.concatenate
cache miss
3159063878
%2731 = stablehlo.concatenate %2659, %2672, %2685, %2698, %2711, %2730, dim = 0 : (tensor<1x288x768xf32>, tensor<1x288x768xf32>, tensor<1x288x768xf32>, tensor<1x288x768xf32>, tensor<1x288x768xf32>, tensor<1x288x768xf32>) -> tensor<6x288x768xf32>
Cost: 285734

Operation name: stablehlo.multiply
cache miss
2511610444
%2732 = stablehlo.multiply %1368, %1349 : tensor<288xf32>
Cost: 311

Operation name: func.return
Cost: 0

Operation name: func.func
Cost: 0

Operation name: builtin.module
Cost: 0

